saved_models/actor.pth (torch, 148423 bytes, 6 tensors)

network.0.weight f4 [128, 9]
000000 bf f3 12 bc 59 33 3a be b5 ab 00 3e 53 bf 6c 3d
       -0.008969246 -0.1818365 0.12565501 0.05779965
000010 76 68 b2 3d 66 0d b0 3e 82 6f 37 3e b0 ae a0 bd
       0.087113306 0.34385222 0.1791363 -0.07845819
000020 3c db 10 bc c3 e7 91 3e 12 d6 18 3d d2 fc 55 3d
       -0.008841332 0.28497133 0.03731353 0.05224306
000030 53 a2 9c be 55 c8 84 bd 5b 6a 1a 3d b1 0e 09 bd
       -0.30592594 -0.06483523 0.037699085 -0.033461276
000040 35 60 a9 bd 43 d5 50 bd 12 3d 90 3d 89 b0 a2 bc
       -0.08270303 -0.050984632 0.07042898 -0.01985957
000050 02 2c 60 be 49 8d 0b 3e 4c 43 89 be fd a7 db bd
       -0.21891788 0.13628115 -0.26809156 -0.107254006
000060 10 f5 92 3e db 43 34 3c 86 2b 3a 3e 04 87 65 be
       0.28702593 0.011002506 0.18180665 -0.22414786
000070 38 36 5c 3e 87 59 f9 3c 6a f4 ad be 61 e9 6b be
       0.21505058 0.030438198 -0.33975536 -0.23038246
000080 ef 9b 9c 3d ea 4c 67 be 0e 43 91 bd ba d2 70 3e
       0.076469295 -0.22587934 -0.07092868 0.23517886
000090 ba 9e 98 3e 62 16 85 3e 5d 7d 69 be c9 39 b6 bd
       0.298086 0.2599364 -0.22801729 -0.088977404
0000a0 3d 91 77 be bf 97 79 be 2d ad 83 be a5 79 39 3e
       -0.24176498 -0.24374293 -0.2571806 0.1811281
0000b0 b4 fb a1 be 20 61 b7 3d 4c 2a 2c be da ff b4 3e
       -0.31637347 0.08954072 -0.1681301 0.3535145
0000c0 af b5 75 3e fb 15 35 3e 65 df 8c be ff 7a f9 3d
       0.23995088 0.17684166 -0.27514187 0.12181663
0000d0 33 db 14 bd 59 6c cf 3d 06 c1 a0 be b0 a2 a3 be
       -0.036341857 0.101280876 -0.31397265 -0.31960058
0000e0 e6 3d 5d be c8 c8 48 be eb 81 40 3d 9e de 6d 3e
       -0.21605644 -0.19607842 0.0469989 0.23229453
0000f0 b0 7c 70 be 43 b5 1f be c6 3e 1c be 3c c1 78 be
       -0.23485065 -0.1559649 -0.15258321 -0.24292463
000100 85 c2 94 3d 52 3a d6 bd b2 56 94 be 83 b5 b3 3e
       0.07263664 -0.104603425 -0.28972393 0.3509942
000110 76 95 5e 3e 50 38 21 3d da ff 56 3e b8 cc ce be
       0.21736702 0.039360344 0.20996037 -0.40390563
000120 eb f2 97 be 97 a1 01 be 03 5e 1f be 33 f6 8a be
       -0.2967752 -0.12659298 -0.15563206 -0.2714096
000130 03 67 c5 ba 46 bd 7f be b6 e8 49 3d a3 36 99 3e
       -0.0015060607 -0.24974546 0.049294196 0.29924497
000140 80 e0 42 3e 2b 55 66 3e 1e ad 64 be 81 67 a3 bd
       0.19030952 0.22493427 -0.22331664 -0.07978726
000150 f7 e3 8e bc 41 0a a6 3e 01 1f b0 3c ea d2 8a be
       -0.017442686 0.32429698 0.021499159 -0.2711404
000160 40 83 84 be 07 2b a7 3e da 5c af 3e 6e dd 36 3d
       -0.25881386 0.32650015 0.34250528 0.044644766
000170 a1 eb 2a 3d 8b b8 46 bc 22 31 bf bd 88 5b e2 3c
       0.04172862 -0.012128959 -0.09335543 0.027631536
000180 5b b2 a9 3e d4 86 61 3d f6 1a 16 be 9b 84 a7 3e
       0.33143887 0.055060223 -0.14658722 0.32718357
000190 36 87 c4 bd bf 01 6c be 4e 5d de bb fc 9c c2 3d
       -0.09596102 -0.23047541 -0.006786025 0.09502599
0001a0 7e 2f 67 be d8 94 b2 3e 23 d3 bd 3c 7e 9c 93 be
       -0.2257671 0.34879184 0.023171967 -0.28830332
0001b0 8f 37 e2 bd c4 56 22 3e 69 92 02 3e c2 61 46 be
       -0.11045753 0.15853411 0.12751164 -0.19373229
0001c0 e4 99 b4 3e 84 70 00 be 61 e3 7a 3e 67 56 2e bd
       0.3527366 -0.12542921 0.245008 -0.04256287
0001d0 66 2f b1 be 2e 9d 8e bc 48 1d 01 be 68 fd 94 be
       -0.34606475 -0.017408933 -0.12608826 -0.29099584
0001e0 22 78 4c 3e 1f 7f 98 3e 53 f9 7e 3e 4c 70 e2 3e
       0.19967702 0.29784486 0.24899797 0.442263
0001f0 e4 92 8e 3e 48 84 3d be 6f 49 97 3e b7 1b 93 3e
       0.27846444 -0.18507493 0.29548213 0.28732082
000200 41 3a a3 3c e3 55 89 3e 0f ae 5e 3e bc 34 c5 bd
       0.019925239 0.2682334 0.21746086 -0.09629199
000210 b0 fd 62 be c5 ab 08 3e b5 ad 8b 3e 2a f3 78 3e
       -0.22167087 0.13346775 0.27280965 0.2431151
000220 d9 20 4f be 91 26 96 bd 3b bf 54 bd c0 37 b7 bd
       -0.20227374 -0.07331575 -0.051940184 -0.0894618
000230 76 fc 88 3e 70 ec 1f be f9 ee 8d be ca 5f 75 3e
       0.26755112 -0.15617537 -0.27721384 0.23962322
000240 b5 e0 81 bd 5a 53 96 be 76 89 19 3e f0 ec 90 3d
       -0.063416876 -0.29360467 0.14993843 0.07076442
000250 c7 ca 96 be 2e 3a 19 3e 5f 5c 2e 3e 0c 2c 2c 3e
       -0.29451582 0.149636 0.17027424 0.16813678
000260 4b dd 6f be 65 0e 70 be 2b 0f a0 3e 8f bf 90 be
       -0.2342426 -0.23442991 0.31261572 -0.28271148
000270 be 72 2d 3e 3d f6 09 3e 48 17 35 be 2d a5 13 3d
       0.16938302 0.13472839 -0.17684662 0.036046196
000280 90 fe b9 3e 27 3e de 3d 73 b5 27 3d f2 6f 7f be
       0.36327028 0.10851698 0.040944528 -0.24945047
000290 1e 35 79 3d 99 1f 9c 3e 42 81 03 bd d7 c8 8a be
       0.060841672 0.30492857 -0.03210569 -0.27106354
0002a0 ef 50 45 be cd c3 ce bd e7 47 22 3e 0e 9f 24 3e
       -0.19269155 -0.1009594 0.15847741 0.160763
0002b0 cc b0 f1 bd 83 18 01 3e dd bb 24 3d 64 3d 60 3b
       -0.118012995 0.12607007 0.040218223 0.003421628
0002c0 c3 76 16 be e8 4d 95 3e ac c1 9b 3e 87 57 c7 be
       -0.14693742 0.29161 0.30421197 -0.38933966
0002d0 0b c2 f7 3d 31 6a 57 be bf 26 76 3e c3 04 08 3c
       0.12097558 -0.21036603 0.24038218 0.0083019165
0002e0 94 60 4e 3e 38 e3 e2 bd c9 93 ab 3e 21 c7 a5 be
       0.20154029 -0.11078495 0.3351119 -0.32378486
0002f0 0f 87 55 3e aa 5e ca 3b 53 9d 1d 3e e2 52 88 be
       0.20852302 0.0061758356 0.15392046 -0.26625735
000300 b3 9b c7 3d f5 dc ba 3c 68 38 b3 3e de 34 24 be
       0.09746494 0.022810439 0.35003972 -0.16035792
000310 99 ae ea 3d 70 16 91 be cd ec 17 3e 24 9f f0 bd
       0.11459083 -0.2833743 0.14836426 -0.11749104
000320 b2 1f 4d be 64 71 8a be 5d 0c 75 bd 35 99 84 3e
       -0.20031622 -0.27039635 -0.059826244 0.25898138
000330 1e af 7c bd 55 80 47 bd d6 1f 6e 3e 20 ba 75 bd
       -0.061690442 -0.04870637 0.23254332 -0.059991956
000340 e1 1b 31 be 8d 27 32 3e 2c d5 66 be 6a 33 9f 3e
       -0.17295791 0.173979 -0.22542256 0.31093913
000350 04 04 b4 3e c5 ac 66 be b8 19 72 3e 0b 82 99 3e
       0.35159314 -0.22526844 0.23642623 0.29982027
000360 6f e8 a9 3e 58 bd 61 3c 66 6e 44 3e 13 d5 5d 3e
       0.33185145 0.013778053 0.19182739 0.21663313
000370 63 99 12 3e 69 e3 65 be 46 4c ce 3e 3a 46 3e be
       0.14316325 -0.22450031 0.40292567 -0.18581477
000380 b9 4e 5c be e6 22 4a be 7d 4f a8 3e 98 d2 9c bd
       -0.21514405 -0.19739875 0.32873145 -0.07657355
000390 ce 6f bd 3e 51 bf e7 3d 6a 9c 5b be 1e c0 82 be
       0.36999363 0.113157876 -0.21446386 -0.255372
0003a0 e4 7e f8 3c 0e eb b4 3e 9b c3 32 be 80 fc 14 3c
       0.030333944 0.35335582 -0.1745743 0.009093404
0003b0 78 e7 95 be 70 b7 fc 3d d6 c9 4b bc 4b f6 1a be
       -0.2927816 0.123396754 -0.012438258 -0.15133016
0003c0 73 ff 25 be 46 96 31 be 22 4e 8e be f8 94 a2 3e
       -0.16210727 -0.17342481 -0.27793986 0.3175428
0003d0 c3 d3 93 3d 0b f7 15 3e 57 4c 69 be eb e9 38 be
       0.07218125 0.1464502 -0.22783028 -0.18057983
0003e0 fc 42 2c 3e 77 f4 55 bd f1 43 10 3e ff 71 3a be
       0.16822428 -0.052235093 0.14088418 -0.18207549
0003f0 83 78 d8 bd 6c 53 84 3e 0b b7 ba 3d 1a 8b bf 3d
       -0.10569861 0.25844896 0.09116944 0.093527034

network.0.bias f4 [128]
000000 bc 9d fd 3d 02 73 23 be d5 80 a3 3e cb 85 c0 3e
       0.12383601 -0.15961841 0.3193423 0.37602076
000010 3a 38 55 be 24 fc ac 3d d0 8b 0e 3e a3 28 8b 3e
       -0.2082223 0.084465295 0.13920522 0.2717944
000020 a6 c4 81 3e 53 2f c1 3d 3f 92 10 be f3 c5 ae 3e
       0.25345343 0.094328545 -0.14118288 0.34135398
000030 cd f7 15 be e0 63 8f 3e 4e d5 30 3e 47 11 5c 3c
       -0.1464531 0.28005886 0.1726887 0.013431854
000040 8f 20 48 bd e7 f6 93 bd e3 74 90 3e 85 ef 80 3e
       -0.048859175 -0.07224827 0.28214177 0.2518274
000050 c0 30 00 3e 9f 80 ac 3e 58 93 83 3e 9f 84 2f 3b
       0.12518597 0.3369188 0.25698352 0.002678193
000060 8a 65 4d 3e eb 1f 4a be 7b cb 62 be 4f d5 87 3d
       0.20058265 -0.19738738 -0.22147934 0.06632482
000070 01 e1 17 be 07 44 ac 3d 89 67 18 be eb 5e f8 3d
       -0.14831926 0.08411413 -0.14883246 0.12127479
000080 38 a9 ac 3e 6f a7 91 be 04 df d3 3d 22 88 cb 3d
       0.33722854 -0.28448054 0.10345271 0.09938075
000090 a1 9d 30 bd ca 5e 5e 3e 53 79 51 be e3 a9 e6 3d
       -0.043119077 0.21715847 -0.20456438 0.11262872
0000a0 7e 09 1e 3e b8 7d 8e 3e 7d 73 35 3d 15 b6 06 3e
       0.15433308 0.2783029 0.04429959 0.13155396
0000b0 81 ab 58 bc 17 d4 10 3d ab a1 e3 3c 84 18 0e be
       -0.0132244835 0.035358515 0.02778705 -0.1387654
0000c0 35 7f 89 3e 4b 1f 56 be 57 08 5e 3e ba dc f9 bd
       0.26854864 -0.20910375 0.21682869 -0.122003034
0000d0 53 e1 18 bd 26 3c 3c 3e 7f 95 3e 3e ed e2 7d 3e
       -0.03732426 0.1838232 0.18611716 0.24793597
0000e0 65 76 65 3e 7b 98 21 be 98 07 61 be cc 7b e2 bc
       0.22408445 -0.15780823 -0.21975553 -0.027646922
0000f0 fa 69 b5 bd 9b 61 68 3e 3a bd 9f 3e 32 58 29 be
       -0.08858104 0.22693484 0.31199056 -0.1653755
000100 c5 52 81 be 67 15 83 3e 19 ef 10 3e b7 0f 43 3d
       -0.2525846 0.25602266 0.14153709 0.04762241
000110 9c 2a 98 3e 95 58 74 3e 8a eb 8d be cb 78 2d be
       0.29720008 0.23861916 -0.27718765 -0.1694061
000120 a0 14 49 3e a3 bf a4 3e bb c1 94 3e e2 d1 86 be
       0.19636774 0.32177457 0.29054055 -0.26332003
000130 2d be 87 be cc 1a 3f 3e 6f 7e 43 3d 56 09 53 3e
       -0.2651228 0.18662566 0.047728 0.2060903
000140 03 7d 81 3e ef ea 60 3e 4b f4 b4 3e 6e e1 a0 3d
       0.2529069 0.2196462 0.3534263 0.07855497
000150 f4 7c ed 3d 9e 8f 52 3e 3d 10 65 be aa 9c c8 bd
       0.115960985 0.20562598 -0.22369476 -0.09795506
000160 7e ea 63 3c b2 74 b7 ba 28 7d 5f 3e 4b c4 60 be
       0.013910888 -0.001399657 0.21825087 -0.2194988
000170 fb cf 3b 3e 59 d1 19 bd e1 3c 98 3e 2b cd e9 3d
       0.18341057 -0.037553165 0.29733947 0.11416086
000180 ae 47 5e be fd 16 66 3e 63 95 01 3e 44 79 1f 3e
       -0.21707031 0.22469707 0.12654643 0.15573603
000190 b9 57 af 3e 15 a2 af 3e c7 11 ac be 9e 83 7c be
       0.34246615 0.34303346 -0.33607313 -0.24659583
0001a0 25 e2 42 be cb d1 10 bd 1e 6c 9e 3e 25 c3 f7 bd
       -0.1903158 -0.035356324 0.30941862 -0.12097768
0001b0 4c 71 a1 3e 12 40 b8 3d c9 8a af 3e 7d 17 a4 3d
       0.3153175 0.089965954 0.34285572 0.080122925
0001c0 d8 60 8d 3e 30 06 d0 3d 2d 5a 8f 3c d4 4c 85 3e
       0.27612948 0.1015743 0.017499054 0.26035178
0001d0 5e 6a b6 3d 39 e5 a7 3d 96 49 17 3e dc b0 98 3e
       0.08907007 0.081980176 0.14774165 0.29822433
0001e0 8d 50 63 bd 60 14 c3 bd cd 6d 8a 3e 66 82 86 3e
       -0.05549674 -0.095253706 0.27036896 0.2627136
0001f0 79 16 1e be 05 fc 6e 3e e8 b5 1c bb 7f 55 8d be
       -0.1543826 0.23338325 -0.0023912136 -0.2760429

network.2.weight f4 [256, 128]
000000 74 f4 a5 3d a2 2e 0a 3c 1a 2d 0d 3d 23 55 35 bd
       0.08103266 0.00843397 0.03446684 -0.044270646
000010 74 37 77 bc cc d0 ba bc d4 9c 89 bd e6 b2 d8 3d
       -0.015088905 -0.02280464 -0.06719366 0.10580997
000020 a3 20 a8 bd 75 1f 30 3d ca dc f0 3d 64 ee a7 3d
       -0.0820935 0.04299875 0.11760862 0.08199766
000030 3c e8 1b 3e 3e 36 f3 3d 3b 59 d9 3c e1 1c 60 3d
       0.15225309 0.1187558 0.026531806 0.05471504
000040 b1 f8 65 3b d6 1d 6d bd a8 96 26 bc 3c d0 f0 bc
       0.0035090859 -0.057889782 -0.010167755 -0.029396169
000050 5c 1c 58 3d 4b 73 9f bb 84 d3 5a bb a2 d8 aa bd
       0.05276142 -0.004866039 -0.0033390233 -0.08342101
000060 3c 78 c0 bc 06 12 7b 3b 8a 75 56 3c b3 d2 7e bd
       -0.023494832 0.0038310303 0.013089547 -0.062212657
000070 d9 ad 8d 3d 77 7e c8 bd 0d 23 54 3d f7 a0 a7 3d
       0.069179244 -0.09789746 0.05179124 0.081849985
000080 2c e1 ba 3d 1a 3e 20 bd a0 fa 74 3d b9 57 5f bd
       0.091249794 -0.039121725 0.059809327 -0.05452702
000090 f4 51 75 bc fd 1f 86 3d c0 d3 c7 3d 7b b8 f2 bc
       -0.014973152 0.0654907 0.09757185 -0.029628983
0000a0 8d 1d ae ba 76 92 3f 3d 2b 3f 13 3d cc fd 87 3d
       -0.0013283953 0.046770535 0.035948914 0.06640205
0000b0 7b 98 8d 3d b8 22 a5 3d 9f 43 5a 3d 5a bf dd 3d
       0.06913849 0.08063263 0.053287145 0.10827513
0000c0 26 96 6e bd 09 9e 9b 3d 3d 3d 16 b9 75 fe 1d bd
       -0.05824866 0.07598502 -0.00014327928 -0.038572747
0000d0 b3 d2 4f 3d be 0a 3e bd b9 d0 85 3d 24 7d 62 bd
       0.050738048 -0.046396963 0.06533951 -0.055295125
0000e0 f7 d5 63 bd d9 da 5c bd 03 37 81 bd 64 b7 13 bd
       -0.055623975 -0.053919647 -0.06309321 -0.036063567
0000f0 17 e7 b4 3d 21 9b 11 bc 9b c3 00 3c 78 fa 64 bb
       0.088331394 -0.008887083 0.007859136 -0.003493933
000100 94 71 c8 3c ff 50 9c 3d 67 0e 95 3d e1 01 52 bd
       0.02446822 0.07632636 0.07278138 -0.051271323
000110 ca df 35 bd 89 a9 b2 3d ab 00 10 bc ae 82 6c bd
       -0.044402875 0.087237425 -0.008789222 -0.057741813
000120 46 8a fb 3c 97 8c c6 bd 8d 16 00 3d 42 91 ef 3b
       0.030705582 -0.09694784 0.031271506 0.0073110173
000130 cb 6d dd bc 71 04 58 3d 51 d3 cc 3d ca 7f 48 bd
       -0.027029892 0.05273861 0.10001243 -0.048949994
000140 15 92 c2 bc 83 fa a7 3d b4 36 5d bc ee 39 ba 3d
       -0.023751298 0.08202078 -0.013501812 0.090930805
000150 69 fa 72 bd 6e 9f bd bd 59 df c6 bd 22 03 e6 3d
       -0.05932084 -0.092589244 -0.09710569 0.11231066
000160 81 05 00 3d 9e 56 0f bc c2 ac 66 3d fb d4 87 bd
       0.03125525 -0.0087486785 0.0563171 -0.0663242
000170 aa f3 c8 3b 63 5e a1 bd 03 c6 ba 3d ef 7d 6e bd
       0.0061325626 -0.07879331 0.09119799 -0.05822557
000180 4b c4 62 3d e1 dd 29 3d 4b 60 94 3d 4b 52 81 3d
       0.05536298 0.041471366 0.07244929 0.06314524
000190 36 1b 74 3d cb f2 65 bb 95 ce 99 bd 9c 77 07 3d
       0.059596263 -0.0035087343 -0.075101055 0.033073053
0001a0 c8 4d 46 bd d5 b6 3f 3d 04 8a 29 3d af 69 d2 3d
       -0.04841402 0.04680522 0.041391388 0.10274064
0001b0 49 f8 6c 3d 85 72 aa 3d e7 bb 5f 3d bb 14 c4 3d
       0.05785397 0.08322624 0.054622557 0.095742665
0001c0 59 b4 2d bd 8e 1e cc 3c 97 d9 bc 3c 2d 87 d7 bd
       -0.04240832 0.024916913 0.023052974 -0.105238296
0001d0 49 cc f2 3c ea af 17 3d 62 81 2c 3c 6f c9 48 3c
       0.029638426 0.037033 0.010528894 0.012255057
0001e0 84 e0 47 3d 89 62 2b 3c 4f 34 76 bd 53 79 2a bd
       0.0487981 0.010460504 -0.06010848 -0.04161961
0001f0 1f 19 6a bd 63 fb 97 bd 54 4e 28 bd a0 51 42 3d
       -0.057152864 -0.07420995 -0.041090325 0.047441125
000200 1c cc d0 3d fd ad e5 3d 01 04 95 bd 21 e1 83 3d
       0.10195181 0.11214826 -0.07276154 0.06439424
000210 d7 32 2f 3c 2d e0 9b 3d b2 94 5a 3d b7 b8 89 bd
       0.0106932735 0.076111175 0.053364463 -0.06724685
000220 a9 5c 7f 3d dd 2e 44 bd 4d 46 a5 3d e6 78 ae 3b
       0.062344227 -0.047896255 0.080700494 0.005324471
000230 d1 1d 1a 3d b1 f8 ba 3d b4 27 93 3d b2 7a 4f bd
       0.03762609 0.09129465 0.07185307 -0.05065412
000240 c6 ad 4b 3d 74 82 8c 3b 0c 7f 88 3b 5e fd 84 bc
       0.04972627 0.004288012 0.004165536 -0.016234096
000250 30 14 53 3d 94 56 83 3d ca ad f9 3c 44 22 89 bb
       0.051532924 0.06412998 0.030478377 -0.004184993
000260 59 4b f2 3c 1d b3 9f bd 4b ae 98 bd 72 38 f4 3d
       0.029576944 -0.07797835 -0.07455119 0.119248286
000270 22 0d 4b bc 43 ef ab 3c 0f 56 6c bd 20 36 3d 3c
       -0.012393268 0.020988112 -0.05769926 0.011548549
000280 de 81 a3 bd 35 1e 96 3d ff 78 8c bc 89 ea b0 3c
       -0.079837546 0.0732998 -0.01714754 0.02159621
000290 16 a7 af bd 06 48 81 3d 88 36 17 3d e1 fc c0 3d
       -0.08576791 0.063125655 0.03691724 0.09423233
0002a0 c1 c1 9f 3d 6d 23 bd 3d f1 8d 27 3d eb 4b a3 3b
       0.078006275 0.092352726 0.04090685 0.0049834154
0002b0 f9 39 23 bd b3 e2 21 bd 62 af ca 3c b0 52 00 bd
       -0.03985021 -0.039522838 0.024741832 -0.031328857
0002c0 23 3b d4 bd da 40 66 3d 84 e2 3d 3d 76 7d 09 3e
       -0.10362842 0.05621419 0.0463586 0.13426766
0002d0 23 84 67 3d 8b 8a 46 bd 01 cc 13 3d 44 cd 5a bd
       0.0565225 -0.04847197 0.036083225 -0.053418413
0002e0 cd 99 25 bd 3b 6c cd 3c b7 92 00 bd 90 99 60 bb
       -0.04042988 0.025076022 -0.03138992 -0.0034271218
0002f0 f3 b6 94 bb 90 35 27 bd 54 67 9f bd f3 f8 1c bb
       -0.004538411 -0.040822566 -0.0778338 -0.0023952096
000300 0f 85 b5 3d 01 38 42 3b 36 3d ac bd 15 16 89 3d
       0.088632695 0.0029635432 -0.084101126 0.06693665
000310 69 ef 59 bd d4 b7 cd bd 38 61 91 3d 3b 11 94 3c
       -0.053206835 -0.10044828 0.07098621 0.018074622
000320 9c 00 b2 bd e4 6f 02 3d f0 86 4e 3d 87 d8 de bc
       -0.086915225 0.03184499 0.050421655 -0.027202858
000330 53 36 f2 3b bb 05 cd 3d 8a f7 53 3d a7 a7 9f bd
       0.00739173 0.100108586 0.051749744 -0.07795649
000340 25 b9 60 bc 1e 84 41 bd 69 42 4d bd 24 be 5b 3d
       -0.013716017 -0.047245137 -0.05011216 0.05364813
000350 8c 64 58 bc 9a 84 a0 bc 1e 7d ee bc 9f 9b 94 bd
       -0.013207566 -0.01959448 -0.029112395 -0.07256245
000360 af b1 50 3d ba 07 8f bb 94 ea d0 3c 8b de bd 3c
       0.050950702 -0.0043649347 0.02550248 0.023177406
000370 f2 86 8b bd 73 bd ca 3d a9 6c ca 3d c6 24 99 bb
       -0.06812848 0.09899416 0.098840065 -0.004673573
000380 af 4b 02 3d f1 bc 9b bd f0 01 f2 3c 6e 43 03 bd
       0.03181046 -0.07604397 0.02954194 -0.032046728
000390 cb 61 6d bd 9c 51 8c bd e4 7b 27 bd 65 0c 29 3d
       -0.05795459 -0.06851503 -0.040889636 0.041271586
0003a0 b3 9e a7 bd 86 a5 4a bd 6f 21 1e bd dd ed cc bc
       -0.08184566 -0.04947426 -0.038606104 -0.025015766
0003b0 26 1d 9e bd b4 a4 fb 3d e2 61 c8 3c aa a2 70 3c
       -0.077204034 0.12287274 0.024460737 0.01468722
0003c0 eb 0e a1 3d a8 da 55 bd 8b f0 4c bd c1 98 c1 ba
       0.078641735 -0.05221048 -0.050034087 -0.0014770256
0003d0 92 26 4c bd 55 90 3f bc 14 23 37 3c 7c a6 a8 bd
       -0.04984147 -0.011692126 0.011177797 -0.082348794
0003e0 06 0c 77 bd 57 3d 09 bd f0 fa 34 3d 5e dd 0c 3d
       -0.0603142 -0.033505764 0.044184625 0.0343908
0003f0 57 1d b3 bd 09 ac be bd 82 17 c2 bc 29 cd b2 3d
       -0.087458305 -0.09310157 -0.02369285 0.087305374

network.2.bias f4 [256]
000000 d4 e4 7b 3d f3 a8 54 bd ad 38 f0 bc 09 0f 9b bd
       0.061497524 -0.051918935 -0.0293239 -0.07571227
000010 43 53 b9 3c 9f f7 97 3d 85 39 8d bd 6b f3 22 bd
       0.02262271 0.07420277 -0.068957366 -0.039782923
000020 d7 ef 0d 3d 29 d0 77 3d 9f 71 40 3d 24 0c 7f bd
       0.034652557 0.06050125 0.046983358 -0.062267438
000030 99 d1 c1 3d bb 0a 61 bd 91 fb 48 bd 8a 30 58 bb
       0.09463806 -0.054941874 -0.049068037 -0.0032987916
000040 5b d9 b9 3b 0f 6e c5 bd 94 f6 8e bd a0 fd 96 3c
       0.0056716627 -0.09640133 -0.06980625 0.018431485
000050 33 2a b3 bd b3 97 4e bd 16 2e bc 3d 40 ff d1 bc
       -0.08748283 -0.05043764 0.09188478 -0.025634408
000060 12 b6 2f 3c 27 8e 2f bc 6d 18 0b bd da 03 9b bd
       0.010724561 -0.010715044 -0.03395884 -0.07569094
000070 bb d6 bb 3c fd 18 b0 bd c3 39 5c 3d 50 62 44 bb
       0.02292954 -0.08598516 0.053766023 -0.0029965825
000080 d3 e4 2b bd 11 42 a0 bd e2 30 a2 3d 94 53 a0 3d
       -0.04196627 -0.07825101 0.0791948 0.07828441
000090 c3 7f bc 3d 5b 91 3e 3d 20 d0 d2 3c 61 58 81 bd
       0.09204056 0.04652534 0.025734007 -0.06315685
0000a0 ce 31 f3 3b b7 57 56 bd 50 30 16 3d 9a 40 85 3d
       0.0074217087 -0.052329745 0.03666717 0.065064624
0000b0 14 3c 5e bd 91 17 7c 3a 9a ae 8d 3c da 9c c5 bc
       -0.054256514 0.0009616549 0.01729517 -0.024122644
0000c0 76 73 1f bd bb cd 7f 3c 87 fb 41 bd 82 ab 02 bd
       -0.03892847 0.015613015 -0.047359016 -0.031901844
0000d0 27 ee 97 bd f8 be a1 3d 93 e3 68 bd 0b 82 84 bd
       -0.07418471 0.078977525 -0.056857657 -0.06470116
0000e0 42 93 b0 3c c4 0e 6b bc d3 ed dc bc ea d4 1b bd
       0.021554593 -0.014346782 -0.026968872 -0.038044848
0000f0 b8 bd 68 bd 2e 2f 7a bd ff 2b b8 3d 8d 00 86 bd
       -0.056821555 -0.06108015 0.089927666 -0.06543074
000100 85 6e 6d 3d 03 8b 0e 3d db e7 85 3d e1 67 4b bb
       0.057966728 0.03480054 0.065383635 -0.0031037258
000110 1a d8 ac 3d 2f 13 21 3c cf c3 89 3d 15 1b 35 bd
       0.084396556 0.009831234 0.06726801 -0.04421528
000120 c6 1e 5d bd 5f 86 c4 3c a7 8c 32 bd 4a 5e a0 3d
       -0.053984426 0.023989854 -0.043591168 0.07830484
000130 07 33 97 bd 13 7b 12 3c 6e e4 84 3d 8c 0b 3b bc
       -0.073827796 0.008940476 0.06488882 -0.011416327
000140 4b 5b 72 bd 0f cb dc bc 3d 7d 20 bd b3 47 76 bc
       -0.059169095 -0.026952295 -0.039181937 -0.015031743
000150 40 21 49 3d 32 bf 70 bd f6 aa 5c bd 36 45 60 bd
       0.049103975 -0.058776088 -0.05387398 -0.054753505
000160 71 69 88 3b cf 75 ea 3c d9 06 f7 3c 7c ba 05 bd
       0.00416296 0.028620629 0.030154632 -0.03264855
000170 7f 62 ba bc c2 11 92 3c 59 03 59 3d f3 38 a2 bc
       -0.022752045 0.017830733 0.05298171 -0.019802546
000180 8b 5f 2d 3b 2f a7 50 bd 6f c4 2a bc 30 e3 4b bd
       0.0026454653 -0.05094069 -0.01042281 -0.04977721
000190 10 72 97 bd d2 95 fc bb a4 9e 9f 3c 77 20 4c bd
       -0.073948026 -0.0077082897 0.019484825 -0.04983565
0001a0 0e 40 81 bd dc 4c 50 bd ae f2 87 bd fb 20 b0 3b
       -0.063110456 -0.05085455 -0.06638084 0.0053750253
0001b0 c3 0e 9c bd 40 81 6d bd 0b 72 ae bc 47 37 33 bd
       -0.07620003 -0.05798459 -0.021294614 -0.04375389
0001c0 6d 1c c2 3d 91 7a 70 ba 7a 6c 78 bd 16 15 b8 3d
       0.09478078 -0.0009173537 -0.060650326 0.08988397
0001d0 ea 29 4b bd 86 2e e5 bc 71 7a 4d bd cf 4f 52 bd
       -0.04960052 -0.027976286 -0.050165597 -0.051345643
0001e0 9b 54 82 bd 33 5c 80 3d 59 ca 1c 3c 4c e2 97 3d
       -0.063637935 0.062675856 0.009569728 0.074162096
0001f0 e7 0f a1 bd ad 9d 6f bd 1c 97 e7 bb 33 5b 39 bd
       -0.07864361 -0.05849998 -0.007067574 -0.04525299
000200 cc a9 b2 bc 26 4c 5e 3c 5b ef 41 3d ea 3a 05 ba
       -0.021809481 0.01356796 0.047347408 -0.0005082326
000210 39 e4 02 bd 2b 2b 69 bc 58 bf 7c 3d dc 5b fc bc
       -0.03195593 -0.014231483 0.061705917 -0.03080552
000220 38 04 ad 3d 9d 61 80 3c 3c db 18 3d 5f 17 be bc
       0.0844807 0.015671546 0.037318453 -0.023204504
000230 7b 15 1c 3c e7 e7 19 3d f4 b8 89 bd 2c 79 53 3d
       0.009526606 0.037574675 -0.0672473 0.05162923
000240 95 6f 1b 3c 9e 69 a7 3d 5a 36 26 bd 6d 05 62 3d
       0.009487052 0.08174442 -0.040579177 0.055180956
000250 0f a5 91 3d 4a da 96 3d 7b da 7f 3d 9b 82 87 3d
       0.071115606 0.07365854 0.06246422 0.06616708
000260 62 2d e5 3b dd 6e c4 3c c1 f3 b3 3d d6 85 37 bd
       0.0069939354 0.023978645 0.08786727 -0.04480537
000270 97 c1 b5 3d 75 58 82 3d dd 28 7d 3d 51 e4 5e 3d
       0.08874815 0.06364528 0.06180655 0.05441696
000280 72 75 89 3d f1 cb 3f 3d 1d 58 9a 3d 6f 0d 29 bd
       0.06711854 0.046825353 0.075363375 -0.041272577
000290 91 de b6 bb d8 e8 75 3d 35 26 63 bc 4b 6f 89 bd
       -0.005580731 0.06003651 -0.01386409 -0.067106806
0002a0 ee 83 90 bd aa f0 dc 3d dc a5 6c bd ed 53 42 bc
       -0.070564136 0.107880905 -0.057775363 -0.01186083
0002b0 26 51 4f 3c 78 0e 27 3d 85 9d d2 3d 88 96 01 bd
       0.012653625 0.040785283 0.10283951 -0.0316377
0002c0 05 52 89 bd 2d 89 f9 bc 25 c8 8f 3c 59 4e 17 3d
       -0.06705097 -0.030460918 0.017551491 0.036939953
0002d0 64 a9 38 bd 31 a6 9b 3d 28 c5 a6 3c 9b b0 54 3d
       -0.04508342 0.07600058 0.020357683 0.051926237
0002e0 59 2b ba bd 04 42 8d 3d ff 0c 99 3d 5f 9b 08 3d
       -0.09090299 0.06897357 0.07473182 0.0333513
0002f0 03 c1 9f bd d1 5a ad 3b ee 62 50 3d 62 fb 1b 3d
       -0.07800486 0.005290367 0.050875597 0.038081534
000300 c6 ca 3e 3c ee 81 1d bd 45 b5 98 bd 03 8b 8b bd
       0.011645025 -0.03845399 -0.074564494 -0.06813624
000310 11 1e 8a bd 58 45 af bd 78 2e 53 bd 4f 1f b0 bd
       -0.06744016 -0.08558148 -0.051557988 -0.08599722
000320 38 c3 80 3d e1 61 51 3d 7e 1e bf 3d 29 62 5c bd
       0.06287235 0.051118735 0.09331988 -0.05380455
000330 8e 44 09 bd a8 ec 6f bc 16 33 4f 3b 6f 27 35 bd
       -0.033512644 -0.014643826 0.0031616143 -0.04422706
000340 df 39 16 bc 50 2e 1a bd bf 93 8d bd 4f 55 ad 3c
       -0.009169071 -0.037641823 -0.06912946 0.021158842
000350 1c 2d 9b 3d d4 f0 86 3d 6e 79 53 bd 82 3d f2 3c
       0.07576963 0.06588903 -0.051629476 0.029570345
000360 25 23 87 39 c0 74 8f 3d cb fc 96 3d 6b c9 7a 3d
       0.0002577539 0.0700469 0.07372435 0.061227243
000370 1d 19 86 3d 38 b3 46 bd 55 b2 ee 3a 1d 78 aa 3d
       0.06547759 -0.04851076 0.0018211106 0.08323691
000380 d6 a9 9e bd df 76 74 3d 51 90 03 bc d2 c6 93 bd
       -0.077472374 0.059683677 -0.008030013 -0.07215656
000390 16 5e 43 3d db 2a 6e bd 7c 32 3d bc f2 6d 8f 3d
       0.04769715 -0.05814634 -0.011547681 0.07003392
0003a0 0b 66 74 bd e9 df 67 bd a8 73 86 bd 96 8f 8b 3d
       -0.05966763 -0.05661002 -0.065650284 0.06814496
0003b0 9e 06 1e 3d 06 d8 3b 3d a5 de 63 3d 11 e8 5c 3d
       0.03858053 0.045860313 0.055632252 0.053932253
0003c0 80 cb da bc cd 69 9d 3d 3d 9d c7 3d b4 bf 41 3d
       -0.026708364 0.076861955 0.09746788 0.047301963
0003d0 c1 fa 93 bc e8 28 b1 bc 25 77 a2 3d 26 dc f0 bb
       -0.018063905 -0.021625951 0.07932881 -0.0073504625
0003e0 b9 ad 55 3d 9b fb c9 3b 79 09 db 3c 8d b0 03 3c
       0.052167628 0.006164027 0.026737915 0.008037698
0003f0 85 17 e0 bc d3 bd 23 bc 90 9e 9c bd 77 fa 9f bc
       -0.027354965 -0.009993988 -0.07647431 -0.01952861

network.4.weight f4 [9, 256]
000000 fd 5d 6e 3d 3f 41 8a 3d 80 8e f6 3c 44 3c 53 3c
       0.058195103 0.06750726 0.030097246 0.012892786
000010 8a e2 79 bd 60 c4 49 bb fa 17 25 3d f1 0a bd 3c
       -0.06100706 -0.0030787215 0.04030607 0.023076506
000020 bb f7 c5 3d 56 f0 6e 3d 52 5d bf 3c 14 1e 23 3d
       0.096663915 0.05833467 0.023359928 0.039823607
000030 7b 5f 39 bb 10 1d 20 bc 9b 30 a2 bd 20 b0 21 3d
       -0.002828567 -0.009772554 -0.07919427 0.039474607
000040 f4 c7 10 3d 65 36 05 3d 92 a2 6e 3c 51 1e 57 3d
       0.03534694 0.032522578 0.014565127 0.052519146
000050 f0 01 31 bc e9 67 3e 3d c4 ef 1f 3d 38 90 e5 bc
       -0.010803685 0.046485815 0.039047018 -0.02802287
000060 8b ca 1a bc 0f e5 86 bd fe ff af 3d e6 1b a7 bb
       -0.009447704 -0.06586658 0.085937485 -0.0050997613
000070 0c be 09 bd a2 ba 4d bd 1a 76 01 3d 0c 8d 79 3b
       -0.03362851 -0.050226815 0.03160677 0.0038078455
000080 98 03 60 bd 4e ba 1b 3d 11 25 80 3d f7 fd a6 bc
       -0.054690927 0.03801947 0.0625707 -0.020384772
000090 52 99 f3 3c 18 dd e4 bb c6 93 de bc 67 64 21 3c
       0.029736195 -0.0069843642 -0.027170073 0.009850598
0000a0 dc 9b 46 bd 9a ba a2 3c 17 fb f3 bc 1f 48 ac 3d
       -0.048488483 0.01986437 -0.029782815 0.084121935
0000b0 9b c6 56 bd 18 41 43 3d 3b 3b 29 3d 48 41 42 3d
       -0.0524355 0.0476695 0.041316252 0.04742554
0000c0 e1 69 fa 3d 50 6e f5 3b b6 0a c1 bd 94 e4 49 bd
       0.12227226 0.007489957 -0.09425871 -0.049290255
0000d0 30 92 f3 3c 4e 23 b2 3d 9d e6 71 3d d0 5d 86 bc
       0.029732794 0.0869814 0.05905782 -0.016402155
0000e0 92 c5 25 3d 56 e5 ef bb ee 46 f1 3d 37 c6 ab bc
       0.04047162 -0.00732104 0.11781107 -0.02096854
0000f0 81 b6 66 3c 80 d1 e8 3a 5c 23 7e bc af 65 7c bd
       0.014081598 0.0017762631 -0.01551136 -0.06162041
000100 76 1e 43 bd bd ac 25 bd 6d d8 59 bd 9f 8b ab bd
       -0.04763647 -0.04044794 -0.053184915 -0.0837624
000110 c5 f9 48 3d 1e d9 0a 3c ce 01 ac bd dd 25 23 bd
       0.049066324 0.008474616 -0.08398782 -0.03983103
000120 14 04 27 bd 0d 19 0a bd 00 b3 11 3b 42 ea 5a bd
       -0.040775374 -0.033715297 0.0022231936 -0.053446062
000130 17 2d c1 3d 37 61 ed 3c 58 f5 87 bb 9c cf 3a 3d
       0.09432428 0.02897702 -0.0041491203 0.045608148
000140 70 8c 0d bd 1c 45 ac bc bd a5 68 bd 3e 07 b8 3c
       -0.03455776 -0.021029048 -0.056798685 0.02246439
000150 bf b6 dc 3c 3c f3 21 3d 17 9c 02 bd 15 8f 92 3d
       0.026942609 0.039538607 -0.03188714 0.07156197
000160 ca c3 6a bd 74 fc 09 bd b2 99 77 bd ea 7b 4e 3d
       -0.057315625 -0.033688024 -0.06044931 0.050411142
000170 b0 36 36 3c b8 a1 b4 bb 81 bf 2c 3d e6 e4 44 b9
       0.011121437 -0.0055124424 0.04217482 -0.00018777288
000180 19 e0 84 3b dc 77 f1 3b 25 13 8e bd ef 32 77 3c
       0.004055035 0.0073690247 -0.06937245 0.015087827
000190 6c 8d 2a bc 80 27 40 ba 60 0d 84 3d 91 ca 48 bd
       -0.010409694 -0.00073301047 0.064478636 -0.049021307
0001a0 90 8b 0d bc d5 be d9 3d e7 c3 32 3d ee ff c8 3c
       -0.008639231 0.106321014 0.04364386 0.0245361
0001b0 ed 0a 48 3d 98 a3 66 3d dc e6 0f bd b7 b8 4e 3d
       0.048838545 0.05630836 -0.035132274 0.050469127
0001c0 8a 83 4c bd 3b 4a 3b 3d 43 45 d6 3c ee 2e db bd
       -0.049930133 0.04572509 0.026156073 -0.107023105
0001d0 34 10 8b bc fc c8 90 3d b5 82 81 3d a3 34 34 bd
       -0.0169755 0.07069585 0.063237585 -0.04399551
0001e0 f8 2b 25 3c 67 f5 93 bc ae 21 10 bd e5 71 8a 3a
       0.010081284 -0.018061353 -0.03518837 0.0010562508
0001f0 6b ae ca bc 9a 1c a4 3d 48 b4 da bc 34 58 80 3d
       -0.024741372 0.08013268 -0.026697293 0.062668234
000200 08 72 a0 3c 15 9f e9 3b 42 7f 46 bd fd 42 c2 bc
       0.019585624 0.0071295598 -0.048461206 -0.023713583
000210 00 9d 9c ba c8 4c 44 3b 83 47 97 3b 8a 52 21 3d
       -0.0011948645 0.0029952992 0.004616679 0.039385356
000220 7b 50 bb bd ef aa 14 bd 9c ac 52 3c 5b c2 74 bd
       -0.0914621 -0.036295827 0.012858536 -0.059755664
000230 c8 f3 0c bc f8 f8 c4 3c 44 5d 35 3d 5b b4 8b 3d
       -0.008603044 0.024044499 0.0442784 0.068215095
000240 16 1a 1c bd 8c d7 10 bc fe cc 3b 3c d2 c5 2d bc
       -0.038110815 -0.008840453 0.011462448 -0.010606246
000250 05 f4 04 bd 59 d3 bd 3d 4f 64 96 bd 43 10 87 3d
       -0.032459278 0.09268827 -0.07343351 0.065948986
000260 07 90 53 3c 62 5a 0d 3d ab 1b 24 bd 50 b7 9b 3d
       0.012912757 0.034510024 -0.04006545 0.076033235
000270 9f 17 3b bd 4a c5 61 bd e8 0b bf 3a 2d 9d 36 3c
       -0.045676824 -0.05511979 0.0014575692 0.011145872
000280 84 43 94 3c 3a 25 f2 3d 60 c2 72 bd a0 70 91 bb
       0.0180986 0.11823507 -0.0592674 -0.004438475
000290 43 2a b2 bd 97 bc e6 bc ca a3 60 3d be a1 5c bd
       -0.08699467 -0.028166099 0.0548437 -0.053865187
0002a0 37 55 c2 3c a1 71 d3 3d 78 c8 ed bc 2d 94 96 3d
       0.023722274 0.10324407 -0.029026255 0.07352481
0002b0 27 fc 85 bd 66 73 1f bd 7c 3c 7f bd 2f 3b 85 3d
       -0.06542235 -0.038928412 -0.06231354 0.06505429
0002c0 0a c8 54 3b 4c 8c 24 bd ac ad 35 3d 47 a9 1e 3c
       0.0032467865 -0.04017286 0.04435508 0.009683914
0002d0 10 49 e8 3d 53 3c 68 ba f3 60 4c bd 7d 1c c9 3d
       0.113420606 -0.00088590867 -0.049897145 0.09819887
0002e0 d5 e2 ab 3a 30 b5 fd 3c 00 14 86 ba 3a 13 b3 bd
       0.0013113866 0.030970186 -0.0010229349 -0.087439016
0002f0 22 57 bc 3d 78 e1 ce 3c 1b 1b df bc 8b da 87 3d
       0.09196307 0.025253996 -0.027234605 0.06633481
000300 41 ca f8 bb a3 08 10 3d 95 05 77 3d 15 19 ef bc
       -0.00759247 0.035164487 0.060308058 -0.029186765
000310 c9 98 2a bd d9 5c bb 3c 72 40 8b bc 80 56 3e bc
       -0.041649614 0.022871422 -0.016998503 -0.011617303
000320 81 8a 93 3d ef c1 63 bd 48 6b 2c bd b8 7f b8 ba
       0.07204152 -0.05560487 -0.0420945 -0.0014076149
000330 c3 a1 83 bc 6a 98 3f 3d 9c 9d 07 3d 6e b8 1f bd
       -0.016068345 0.046776213 0.033109292 -0.038994245
000340 a2 ff 89 3d f4 d2 31 bd 8c 0d b8 bc c4 b9 41 bd
       0.06738211 -0.04341407 -0.022467397 -0.0472963
000350 0b 81 e3 3d 1c 12 03 3d ce 0a 7c bd 80 34 57 bd
       0.11108597 0.031999692 -0.06153374 -0.052540302
000360 fc bd 95 3d e8 65 2f 3d 5a 02 27 3d 24 cb 2b 3d
       0.07311627 0.042821795 0.040773727 0.041941777
000370 f1 ad c2 3c 80 c8 c3 3a 75 5a 93 3d d4 c5 73 3d
       0.023764582 0.0014937073 0.07194988 0.059514835
000380 91 c9 f4 3c cc e4 57 bd 20 e3 0d 3d 68 d0 ea 3c
       0.02988127 -0.052708432 0.03464043 0.028663829
000390 db 10 43 bd 45 fe 46 3d 9f cf 89 bd 6a 97 26 bd
       -0.047623497 0.048582334 -0.06729054 -0.040671743
0003a0 43 60 77 bd 3a 5b 4a 3d ec f1 17 3d 00 03 b0 3b
       -0.060394537 0.049403407 0.03709595 0.0053714514
0003b0 ca e3 3a 3d f8 ff ce bc 98 04 8d bd d7 2b 28 3d
       0.045627393 -0.02526854 -0.06885642 0.041057434
0003c0 ac 14 3e 3d 4a 2c c4 bb 4c 3e 8d 3d 00 d3 e8 bc
       0.046406433 -0.005986725 0.06896648 -0.028420925
0003d0 e8 42 c0 3d 90 21 24 bd c8 13 f3 3c 87 61 f3 3c
       0.09387761 -0.04007107 0.029672518 0.02970959
0003e0 aa eb 1f bc 04 d3 20 3d eb ea 09 bd 25 0e a2 bd
       -0.009760777 0.03926374 -0.0336713 -0.07912854
0003f0 aa e8 ce 3d 1c b6 ea 3c d2 e3 09 3d fe b1 90 3c
       0.10102971 0.02865129 0.033664532 0.017662998

network.4.bias f4 [9]
000000 ab 48 02 3c 03 23 9c 3b 64 1b ca bb 60 61 e7 3b
       0.007951896 0.004764916 -0.006167816 0.0070611686
000010 4b ba 6c 3d 7b 5a 5e 3c f3 a6 23 bd 12 3a ce 3c
       0.05779485 0.013571377 -0.039954137 0.025174174
000020 37 36 27 bd
       -0.040823188
