saved_models/critic.pth (torch, 144783 bytes, 5 tensors)

network.0.weight f4 [128, 18]
0	0x3de7abf7	0.113120966
1	0xbd1f2904	-0.038857475
2	0xbdf0ca14	-0.11757293
3	0x3de79e00	0.11309433
4	0xbcd03852	-0.02541748
5	0xbcdc9c5a	-0.026930023
6	0x3e12b9f1	0.14328744
7	0xbc29143d	-0.010319767
8	0xbeaeeb3f	-0.34163854
9	0xbea4a75b	-0.32158932
10	0x3e20bc63	0.15696864
11	0x3daca386	0.08429627
12	0x3e5da0aa	0.2164332
13	0x3dabb643	0.08384373
14	0xbe7d32d2	-0.24726418
15	0xbe38d25b	-0.18048994
16	0xbdb88fee	-0.090118274
17	0x3e87d10b	0.26526675
18	0xbd5a91c9	-0.053361688
19	0xbca35f3c	-0.019942872
20	0x3e2afe2d	0.16698523
21	0x3e7be161	0.24597694
22	0xbd5f94a4	-0.054585114
23	0xbeb1924a	-0.34681922
24	0x3c5fb627	0.013654268
25	0xbdb8afed	-0.0901793
26	0xbe3ae599	-0.18251647
27	0x3dcea801	0.10090638
28	0x3d919cdd	0.071099974
29	0x3edffb95	0.4374663
30	0xbe9a45ea	-0.30131465
31	0x3e1675c2	0.14693359
32	0x3e9e59ee	0.30927986
33	0xbe8320e0	-0.2561102
34	0xbe9ea487	-0.309849
35	0xbdce823e	-0.100834355
36	0xbe6511e8	-0.22370112
37	0x3e461d91	0.19347216
38	0x3e65b8f6	0.22433838
39	0xbdfafb3c	-0.122549504
40	0xbee37bda	-0.4443043
41	0x3e79e8d2	0.2440522
42	0x3d927191	0.07150567
43	0x3e57673f	0.21035479
44	0xbcdbdc61	-0.026838483
45	0xbeb9d543	-0.36295518
46	0xbed1ef6d	-0.4100298
47	0x3ebb32bf	0.36562154
48	0x3de54bdd	0.111961104
49	0x3d15712a	0.036484875
50	0x3ddabc17	0.106804065
51	0x3e5d5514	0.21614486
52	0x3dcfc2b9	0.10144562
53	0xbe8706f7	-0.263725
54	0x3e53e3c5	0.20692356
55	0xbd7a9d86	-0.061185382
56	0xbe703714	-0.2345851
57	0x3d7129d7	0.058877792
58	0xbddb8e27	-0.10720473
59	0x3e6f01ee	0.2334058
60	0x3e890304	0.26760113
61	0xbceedb54	-0.029157318
62	0xbe5f27b8	-0.21792495
63	0xbe916cf5	-0.2840344
64	0x3e42396d	0.18967219
65	0xbda902b1	-0.082524665
66	0xbe20f3ec	-0.15718049
67	0xbe1397d9	-0.14413394
68	0xbc8a4822	-0.016880099
69	0x3d036778	0.032081097
70	0x3e3be774	0.18350011
71	0x3d73d94d	0.059533406
72	0xbdb48912	-0.088152066
73	0x3decc6d4	0.11561361
74	0x3eab3d04	0.3344499
75	0x3d99a08f	0.07501327
76	0x3e837050	0.25671625
77	0xbe04924e	-0.12946436
78	0xbbc144d1	-0.005898096
79	0x3eb7929f	0.3585405
80	0xbe5751ee	-0.21027347
81	0x3e0682cd	0.13135834
82	0xbdffa79f	-0.12483143
83	0x3dda2dfc	0.10653302
84	0xbde09404	-0.10965732
85	0x3e3c8fd6	0.18414244
86	0xbdf7af35	-0.12093965
87	0x3e283b08	0.16428769
88	0x3e254bdf	0.16142224
89	0xbd8c5c88	-0.068535864
90	0xbe156d9c	-0.14592594
91	0xbd93e93f	-0.072222225
92	0xbe3a1305	-0.18171318
93	0x3e82a8bf	0.25519368
94	0x3dcb2e46	0.09920935
95	0xbb63ff91	-0.003478978
96	0x3ea10d40	0.3145542
97	0x3e7d1f63	0.24719004
98	0xbe2b9ebc	-0.16759771
99	0xbe8a67b4	-0.27032244
100	0x3da80c39	0.08205456
101	0x3e522ba1	0.20524456
102	0x3e143369	0.14472736
103	0xbde63116	-0.11239831
104	0xbea0917a	-0.3136099
105	0xbd881064	-0.06643751
106	0x3e4310fc	0.19049448
107	0x3eade439	0.33963183
108	0xbd811fd1	-0.063048966
109	0xbe6c2d96	-0.23064265
110	0xbe7c27b7	-0.24624525
111	0xbe265bd9	-0.16245975
112	0x3c8e02b7	0.017335279
113	0x3e335ff1	0.17517067
114	0x3dbbaba8	0.091636
115	0x3de58ea8	0.1120885
116	0x3ddc7cc9	0.107659884
117	0x3dea2f23	0.11434772
118	0x3e129d18	0.14317739
119	0xbdc5c670	-0.096569896
120	0x3e0882d1	0.13331152
121	0xbe60005d	-0.21875139
122	0x3d8345bc	0.06409785
123	0x3d1f568c	0.038900897
124	0x3c8966cb	0.016772648
125	0x3e52c201	0.20581819
126	0x3dfc0753	0.123060845
127	0xbe0e47cc	-0.13894576
128	0x3e1e0aae	0.15433761
129	0x3cbd37e1	0.023097934
130	0xbe1f1dea	-0.15538755
131	0x3e13f098	0.14447248
132	0x3e35a8df	0.177402
133	0x3c5a27c4	0.013315145
134	0xbeba9b58	-0.36446643
135	0xbf062f8e	-0.5241631
136	0x3e352092	0.17688206
137	0x3e07f9d1	0.13278891
138	0xbcbf4174	-0.02334664
139	0xbdb6a446	-0.089180514
140	0xbe73deff	-0.23815535
141	0xbe4c00c4	-0.19922167
142	0x3e135a8a	0.14390007
143	0x3c82ceef	0.015967814
144	0x3de190f0	0.11013973
145	0xbe88201e	-0.26587003
146	0x3de2f555	0.110819496
147	0x3dfbd9b0	0.1229738
148	0xbc5688ca	-0.0130941365
149	0xbe9814be	-0.29703325
150	0x3cfb5663	0.03068084
151	0xbc40bb0a	-0.011763344
152	0xbdb195b6	-0.08671133
153	0xbe277083	-0.16351514
154	0x3e677764	0.22604138
155	0xbd432b4a	-0.047648706
156	0x3d48dde3	0.049039733
157	0x3dd747f1	0.105117686
158	0xbe911e93	-0.2834364
159	0x3df0513b	0.117342435
160	0xbe594a34	-0.21219712
161	0x3e39fa04	0.1816178
162	0x3d266fc1	0.04063392
163	0xbe0047af	-0.12527345
164	0xbe5db074	-0.21649343
165	0x3ce0d0fc	0.027443402
166	0x3df84855	0.12123171
167	0x3e1b41dc	0.15161842
168	0x3e83ddd1	0.2575517
169	0x3d77b2bb	0.060473185
170	0xbbb9b769	-0.005667616
171	0xbeda6a32	-0.42659146
172	0xbcb601f8	-0.022217736
173	0x3e02c49b	0.12770312
174	0xbe86c491	-0.26321843
175	0xbe16328d	-0.14667721
176	0x3e2d5a48	0.16928971
177	0x3e06049b	0.13087694
178	0x3d1c5dfd	0.03817557
179	0x3e3e2f04	0.18572623
180	0x3e1a40a3	0.1506372
181	0xbda09c2c	-0.078422874
182	0xbc74beb4	-0.014938045
183	0xbe371b7c	-0.17881578
184	0x3e3e00fb	0.18555062
185	0xbe2358fe	-0.15951917
186	0xbe031444	-0.128007
187	0x3e8bb37a	0.27285367
188	0x3c334dad	0.010943812
189	0xbe63196f	-0.22177671
190	0x3e1b1b94	0.15147239
191	0xbe150260	-0.14551687
192	0xbd23d35e	-0.039996497
193	0x3d89102e	0.06692539
194	0xbe6fdf81	-0.23425104
195	0xbe953fe4	-0.29150307
196	0xbe1801d6	-0.1484445
197	0x3de50824	0.11183193
198	0x3e740a78	0.23832119
199	0xbc8a0480	-0.016847849
200	0x3d856970	0.06514251
201	0xbe49a82b	-0.19693057
202	0xbe3c4749	-0.18386568
203	0xbe06e876	-0.13174614
204	0x3d5af7d3	0.053459
205	0xbecccf05	-0.40001693
206	0x3bdc8e21	0.0067308103
207	0x3d5e355d	0.05425011
208	0xbe51864e	-0.2046139
209	0x3dab6ae9	0.08370001
210	0xbd5540a2	-0.05206359
211	0x3d871880	0.0659647
212	0xbdf7d0cc	-0.12100372
213	0x3daba690	0.08381379
214	0x3d731814	0.059349135
215	0x3e3a1db2	0.1817539
216	0x3d8e68a2	0.06953551
217	0xbe33d2e6	-0.1756092
218	0xbe190beb	-0.14945953
219	0xbeb72517	-0.35770485
220	0xbe03efda	-0.12884465
221	0x3e68f55a	0.22749844
222	0x3cc45c41	0.023969771
223	0xbcbfad14	-0.02339796
224	0xbdc8ec2a	-0.0981067
225	0xbe7a8031	-0.24462964
226	0xbe431606	-0.1905137
227	0x3ecc59fd	0.39912406
228	0xbdf50181	-0.119631775
229	0x3d93c15a	0.07214613
230	0xbe07fb2c	-0.13279408
231	0xbe440696	-0.19143137
232	0x3ec7af4c	0.39000928
233	0xbdac280e	-0.08406077
234	0x3e3924da	0.18080464
235	0x3db66824	0.08906582
236	0xbd72bd7a	-0.05926273
237	0xbd488961	-0.04895914
238	0xbd4b9359	-0.04970107
239	0x3dbb4129	0.09143288
240	0xbe553cac	-0.20823926
241	0xbafe1a93	-0.0019386582
242	0x3e87e85f	0.26544473
243	0xbe722281	-0.23645975
244	0x3e2fcfac	0.17169064
245	0xbe089ea5	-0.13341768
246	0xbdda56d3	-0.10661092
247	0x3e9fd1f2	0.31214863
248	0xbe5c7783	-0.21529965
249	0xbd8e87b9	-0.06959481
250	0xbcfa1296	-0.03052644
251	0x3dc3400e	0.09533702
252	0x3e1c7ce9	0.15282024
253	0x3e0b0dd8	0.135795
254	0xbe153025	-0.14569147
255	0xbda4c6a1	-0.08045698

network.0.bias f4 [128]
0	0x3dae634d	0.08515034
1	0xbd51de9a	-0.05123768
2	0xbe6ce770	-0.23135161
3	0x3b38a3fa	0.002817391
4	0xbd990925	-0.07472447
5	0x3dbb3c9c	0.0914242
6	0xbe575db3	-0.21031837
7	0x3e009be4	0.12559468
8	0x3dbc43dd	0.091926314
9	0x3e67fb48	0.2265445
10	0x3c136301	0.008995772
11	0xbe561074	-0.20904714
12	0x3e7f1cbd	0.24913307
13	0xbe2cb6c4	-0.16866595
14	0x3e49bbba	0.19700518
15	0x3e134f63	0.14385752
16	0x3db7cd54	0.0897471
17	0x3bffb302	0.007803322
18	0x3dca0615	0.09864441
19	0xbd6fe37f	-0.058566567
20	0x3d4f8730	0.050666034
21	0xbd93d55c	-0.072184294
22	0x3e24cb5c	0.160932
23	0x3dd49afa	0.10381122
24	0x3e47ab35	0.19498904
25	0xbd8a4613	-0.06751647
26	0xbd58816e	-0.05285781
27	0xbda831ea	-0.08212645
28	0xbddc4f4b	-0.107573114
29	0xbe72bd5f	-0.23705052
30	0x3c39677b	0.011316176
31	0xbd809fb9	-0.06280465
32	0xbe20aac7	-0.15690146
33	0xbe58abed	-0.21159334
34	0xbe6333e7	-0.22187768
35	0x3e07cfff	0.13262938
36	0xbc8c3da5	-0.017119238
37	0x3c101d22	0.008796008
38	0xbb02d7b5	-0.0019964997
39	0xbdec069b	-0.115246974
40	0x3e556000	0.20837402
41	0xbd0b7bdd	-0.034053672
42	0xbe4b20d8	-0.19836748
43	0x3cea5231	0.028603645
44	0x3d90817d	0.07055948
45	0x3e3b72b2	0.18305472
46	0x3de44a6c	0.11147007
47	0xbd5136ba	-0.051077582
48	0x3dee90e7	0.11648732
49	0x3e2b584f	0.16732906
50	0xbdcc1c98	-0.09966391
51	0x3d156ae9	0.03647891
52	0xbc5eb89d	-0.01359382
53	0xbdf14c22	-0.11782099
54	0xbb4961d0	-0.0030728467
55	0xbd69f227	-0.0571157
56	0xbe266029	-0.1624762
57	0xbd8665d7	-0.06562393
58	0x3e003476	0.12520012
59	0xbe05609f	-0.1302514
60	0x3e2ad7df	0.16683911
61	0x3c887216	0.016655963
62	0x3d25bf70	0.040465772
63	0x3dca9fca	0.098937586
64	0x3d6909c7	0.05689409
65	0xbdedfac4	-0.11620095
66	0xbd635525	-0.055501122
67	0xbdab0c2f	-0.08351933
68	0x3e10fc4f	0.14158748
69	0x3e3e55ae	0.18587372
70	0xbca14f9e	-0.019691285
71	0x3db3a73a	0.0877213
72	0xbe58e5da	-0.21181431
73	0xbdac33b5	-0.084083
74	0x3d14803f	0.036255118
75	0xbd9ee4e3	-0.077585004
76	0x3d98a9f2	0.074542895
77	0x3e216f54	0.15765125
78	0x3e1fa432	0.1558998
79	0xbdc12841	-0.09431506
80	0xbd4b70e7	-0.04966822
81	0xbdbe6ed0	-0.092984796
82	0x3d759d8e	0.05996471
83	0xbe40b2cc	-0.18818206
84	0xbe32d7cb	-0.17465131
85	0xbe0046b3	-0.1252697
86	0x3d8ddf7e	0.069273934
87	0x3dc1e4b6	0.09467451
88	0xbe4a03cf	-0.19728015
89	0xbdbe9ec8	-0.09307629
90	0x3e3534af	0.17695878
91	0x3d50455f	0.050847407
92	0xbd1d35aa	-0.038381256
93	0x3d5ec0d8	0.05438313
94	0xbe3d852f	-0.18507837
95	0xbdbdb512	-0.09263052
96	0x3cb95716	0.022624534
97	0x3cf0321c	0.029320769
98	0xbdae9989	-0.08525378
99	0xbe174410	-0.14772058
100	0xbcbc49de	-0.022984441
101	0x3de84491	0.11341203
102	0x3e1c76e2	0.15279725
103	0xbd3fc1c8	-0.046815664
104	0xbe54ebf4	-0.20793134
105	0x3e526983	0.20548062
106	0x3cf9fd12	0.030516181
107	0xbe0a4334	-0.13502198
108	0x3df35011	0.11880506
109	0x3e4a9d96	0.19786677
110	0xbe04545d	-0.12922807
111	0x3d9dcc7f	0.0770502
112	0xbe01818a	-0.12647071
113	0x3d775a41	0.060388807
114	0xbe30adb4	-0.17253762
115	0xbd0292e7	-0.03187838
116	0x3e22cfe3	0.15899615
117	0x3d36dacd	0.04464226
118	0xbe2ad648	-0.16683304
119	0xbd8b5c32	-0.06804694
120	0xbbeb67e2	-0.0071840147
121	0xbcd6cb7e	-0.02622008
122	0x3dbe4313	0.09290137
123	0xbdf74188	-0.12073046
124	0xbd478c83	-0.048717987
125	0xbc9147f2	-0.017734502
126	0xbd1b9f0f	-0.037993487
127	0xbe110726	-0.14162883

network.2.weight f4 [256, 128]
0	0xbe3eb9a9	-0.18625511
1	0x3ec187a8	0.3779881
2	0x3d45f8bb	0.04833291
3	0xbd9964c5	-0.074899234
4	0x3dfd3237	0.12363093
5	0xbe4683bf	-0.19386195
6	0xbd74b1f1	-0.05974001
7	0xbd890cb6	-0.066918775
8	0xbca3a6e8	-0.019977048
9	0x3d044e03	0.03230096
10	0xbda06a4c	-0.078327745
11	0xbe045850	-0.12924314
12	0xbeb0f736	-0.34563607
13	0x3d8f7c32	0.0700611
14	0x3b910cdd	0.0044265823
15	0x3d77dfed	0.060516287
16	0x3e4f4e54	0.20244724
17	0xbd9d4971	-0.076800235
18	0xbd8fcfca	-0.070220545
19	0xbd4039d8	-0.046930164
20	0xbe4a51c6	-0.19757757
21	0xbdbf141a	-0.09330006
22	0xbe738c8c	-0.23784083
23	0x3e9d5a57	0.30732986
24	0xbd129499	-0.035786245
25	0xbea88f15	-0.32921663
26	0x3e21c796	0.15798792
27	0xbda374c0	-0.07981253
28	0xbc3b0bae	-0.011416359
29	0xbd941a04	-0.072315246
30	0x3cfed918	0.031109378
31	0x3d575055	0.052566845
32	0xbc45ef73	-0.012081015
33	0xbd326cdb	-0.043560844
34	0xbdacd306	-0.08438687
35	0x3e8f301e	0.27966398
36	0xbcb95d67	-0.022627546
37	0x3e0422b6	0.12903866
38	0xbc860cdc	-0.016363554
39	0xbe5e0542	-0.21681693
40	0x3de9a9bc	0.114093274
41	0xbd8525be	-0.065013394
42	0x3e4c81b4	0.19971353
43	0xbe65db40	-0.22446918
44	0x3c5179c8	0.012785383
45	0x3d708451	0.058719937
46	0x3e3e7b21	0.18601657
47	0x3c9e0b50	0.019292504
48	0xbcdf1551	-0.027231844
49	0xbe17c806	-0.14822397
50	0x3ea37d98	0.31931758
51	0xbd87e0ad	-0.066346504
52	0xbd4496ce	-0.04799538
53	0xbe6502cc	-0.22364348
54	0x3d899c86	0.067193076
55	0xbec656ee	-0.38738197
56	0x3de84816	0.11341874
57	0x3d92ea84	0.071736366
58	0x3d052d61	0.03251398
59	0x3d684194	0.056703165
60	0x3dda7070	0.10665977
61	0x3e24e548	0.16103089
62	0x3d03e0e3	0.03219689
63	0x3dde099f	0.10841679
64	0x3ddf71da	0.10910387
65	0xbd9db069	-0.07699663
66	0x3e0acfd1	0.13555838
67	0x3c8cab4f	0.01717153
68	0xbd20678d	-0.039161254
69	0x3d7ac9c0	0.06122756
70	0x3c4b0c5c	0.012393083
71	0xbbec7f82	-0.0072173486
72	0x3c1cb3db	0.009564365
73	0xbe194557	-0.14967857
74	0x3d0e714c	0.034776017
75	0x3e52e91b	0.20596735
76	0x3d3561b3	0.044282626
77	0xbdbb5605	-0.09147266
78	0x3d2c4b4b	0.042063992
79	0x3d309416	0.043109976
80	0xbdca4073	-0.09875574
81	0x3e600549	0.21877016
82	0xbe705be5	-0.23472555
83	0xbe8882d2	-0.26662308
84	0x3aa75151	0.0012765323
85	0x3e78d9db	0.24301855
86	0x3cb8efaf	0.022575228
87	0xbccda9dd	-0.025105411
88	0x3e2f8a18	0.17142522
89	0x3d054c5a	0.032543518
90	0xbe182cd6	-0.14860854
91	0x3ea2cdc6	0.31797618
92	0xbd990699	-0.074719615
93	0x3c8e4361	0.017366113
94	0x3e117021	0.1420293
95	0x3dd435cb	0.10361823
96	0xbbc3f26e	-0.0059798276
97	0xbd41b0aa	-0.04728762
98	0x3c89fecf	0.016845135
99	0xbd0ca611	-0.03433806
100	0xbe3c20aa	-0.18371835
101	0x3d9ad327	0.07559805
102	0x3e8603f8	0.26174903
103	0x3c4ec9d5	0.012621363
104	0xbeb9b0a6	-0.36267585
105	0xbd8b01c0	-0.06787443
106	0x3bb00e58	0.0053728037
107	0x3d5e1122	0.054215558
108	0x3ddaf519	0.1069128
109	0xbe8aeb4a	-0.27132636
110	0x3de94236	0.11389582
111	0xbb16c1ee	-0.0023003775
112	0xbb8ce372	-0.0042995745
113	0xba873ed1	-0.0010318403
114	0x3e21a3bb	0.15785114
115	0xbd3fc9c6	-0.046823286
116	0x3da0f207	0.07858663
117	0x3de264ff	0.1105442
118	0x3d81c822	0.063370004
119	0x3dd4c2de	0.103887305
120	0xbd705134	-0.05867119
121	0x3c62ab14	0.0138347335
122	0x3d7752dc	0.060381755
123	0xbeabef7e	-0.33581156
124	0xbc1e784a	-0.009672234
125	0xbeab904b	-0.33508524
126	0xbe1b6fb4	-0.1517933
127	0xbe5e4b0f	-0.2170832
128	0x3d7eef1b	0.062239747
129	0xbcc9485f	-0.024570642
130	0x3cb2bf88	0.021819845
131	0x3d0d5387	0.034503486
132	0x3d6b0ba6	0.057384156
133	0x3b33ecc2	0.002745435
134	0x3d07e9c3	0.033181917
135	0x3bcecf22	0.0063113132
136	0xbdb5ae30	-0.08871114
137	0x3d2207a4	0.039558068
138	0x3d0412d4	0.03224452
139	0x3c7126bc	0.014718708
140	0xbd10395f	-0.035210963
141	0xbd3e7f66	-0.046508215
142	0x3cad6247	0.021165026
143	0x3c603a2a	0.013685742
144	0xbd0a2dd8	-0.033735126
145	0xbbe5ead2	-0.007016518
146	0x3d803a78	0.06261152
147	0xbd0fb4db	-0.035084587
148	0xbd71f43c	-0.05907081
149	0xbdc8d0cd	-0.098054506
150	0x3da04351	0.078253396
151	0xbc711d4f	-0.01471646
152	0xbd666e7c	-0.05625771
153	0x3d9e9611	0.07743467
154	0xbd240d57	-0.040051784
155	0x3ca0abc3	0.019613152
156	0x3d96b3d5	0.07358519
157	0x3d8956c3	0.067060016
158	0x3d532fd1	0.051559273
159	0x3d41c64d	0.047308255
160	0xbc496826	-0.012292897
161	0x3d1cda40	0.038294077
162	0xbdacc8bd	-0.08436725
163	0xbd25d259	-0.040483806
164	0x3d836246	0.064152285
165	0x3d01cc70	0.031689107
166	0xbd8c5958	-0.068529785
167	0x3cc18501	0.023622992
168	0xbd8aa8ff	-0.06770515
169	0xbb783a73	-0.0037876635
170	0x3d4a4ba1	0.04938853
171	0x3cc8098d	0.024418617
172	0xbdc6921c	-0.09695837
173	0xbdc35874	-0.095383555
174	0x3b819497	0.003954481
175	0x3d0d43ac	0.034488365
176	0xbd5dc7f6	-0.054145776
177	0xbd14e50d	-0.036351252
178	0x3d19c0d8	0.037537426
179	0xbdc371da	-0.095432
180	0xbcf56c22	-0.029958788
181	0xbd9cf91c	-0.07664701
182	0x3d4eb376	0.050464116
183	0x3d90688c	0.07051191
184	0x3d0e6c97	0.034771528
185	0x3d484c0a	0.04890064
186	0x3cc93361	0.024560632
187	0x3ce45c76	0.02787612
188	0xbd823be9	-0.06359083
189	0xbbefa945	-0.0073138797
190	0x3d2735d0	0.040822804
191	0xbd21b8c4	-0.039482847
192	0xbd61a75a	-0.05509124
193	0x3be6d597	0.007044505
194	0xbd1cf3b0	-0.038318336
195	0x3cf71c7e	0.030164953
196	0xbcb562e6	-0.022141885
197	0x3c5c86d2	0.013459878
198	0xbda1e872	-0.079056635
199	0xbbf89774	-0.007586414
200	0xbd8f3658	-0.06992787
201	0x3cc0888c	0.02350261
202	0x3c844973	0.016148305
203	0x3ceece31	0.029151054
204	0x3d47b08d	0.048752356
205	0x3c3fa032	0.011695908
206	0xbd6a558a	-0.057210483
207	0xbdc177c6	-0.09446673
208	0xbbfba8da	-0.007680041
209	0xbced6910	-0.028980762
210	0x3c0784a6	0.008271372
211	0x3d89e8e7	0.06733876
212	0xbb9805a7	-0.0046393457
213	0xbd1e19c1	-0.03859878
214	0xbd8e3157	-0.069430046
215	0x3c0fbf98	0.008773707
216	0x3d599a23	0.05312551
217	0x3af945f5	0.0019018041
218	0xbdaa0550	-0.083017945
219	0xbc514ca9	-0.012774625
220	0x3d680787	0.056647804
221	0xbbc92ddc	-0.0061395
222	0xbda1817d	-0.07886026
223	0xbd69fa4f	-0.05712348
224	0xbd41fff8	-0.04736325
225	0x3d87c937	0.066301756
226	0xbcd9cbb3	-0.02658639
227	0xbda6772c	-0.08128199
228	0xbad8f0df	-0.0016551277
229	0xbda8d908	-0.082445204
230	0xbdd22061	-0.10260082
231	0x3c8b640e	0.017015483
232	0xbd798418	-0.06091699
233	0x3ccefb1c	0.025266223
234	0x3c9821eb	0.01857086
235	0xbcad7396	-0.02117328
236	0x3c5fe6be	0.013665853
237	0xbdb0772a	-0.08616479
238	0xbc0401c8	-0.008057065
239	0xbd9a8888	-0.075455725
240	0x3d9f34e8	0.07773763
241	0xbdb0c494	-0.08631244
242	0xbd8a23db	-0.0674512
243	0xbd41d858	-0.047325462
244	0x3ceea992	0.029133592
245	0x3c86b6c1	0.016444566
246	0x3d824dc4	0.06362489
247	0x3d9cfec4	0.0766578
248	0xbd66e5a6	-0.056371354
249	0x3dad842a	0.08472474
250	0xbd15e3c4	-0.036594167
251	0xbb64d3e8	-0.0034916345
252	0xbdc1625a	-0.09442587
253	0xbd0005d0	-0.031255543
254	0xbd834318	-0.064092815
255	0x3d22c704	0.039740577

network.2.bias f4 [256]
0	0x3dbeb66c	0.09312138
1	0xbd1b3c48	-0.037899286
2	0xbdb1b90e	-0.086778745
3	0xbd8e3dee	-0.06945406
4	0x3df840e1	0.1212175
5	0x3c74d52c	0.014943402
6	0x3d8ca16d	0.06866727
7	0x3cc1b301	0.023644926
8	0xbcd1ccfb	-0.025610438
9	0x3cdfc183	0.027313953
10	0x3dee957c	0.11649606
11	0xbc25476d	-0.01008783
12	0xbc6ed1a1	-0.014576347
13	0x3d535994	0.0515991
14	0x3db5925c	0.088658065
15	0x3ccde6b8	0.02513443
16	0x3db495f1	0.088176616
17	0x3ce2a233	0.027665233
18	0xbd25c93e	-0.040475123
19	0xbdb2b1f4	-0.08725348
20	0x3dc73a7a	0.097279504
21	0x3d0abf87	0.03387406
22	0xbcc33fed	-0.023834193
23	0x3dbce21c	0.092228144
24	0x3b1dd4ca	0.002408313
25	0xbbf54bfd	-0.007485865
26	0x3cf53e30	0.02993688
27	0x3d4a4d36	0.04939004
28	0x3ca2a976	0.019856196
29	0xbcf44ab2	-0.029820774
30	0x3d021716	0.031760298
31	0x3d50a02c	0.050934
32	0x3bec65d3	0.007214287
33	0xbded24ef	-0.1157931
34	0xbd2df802	-0.042472847
35	0x3de1f49a	0.11032982
36	0x3caa9241	0.020821692
37	0x3d01867b	0.03162239
38	0x3c742fa8	0.01490394
39	0xbc0fe59f	-0.008782773
40	0x3dabc55e	0.08387254
41	0x3dbce585	0.09223465
42	0xbcb1c801	-0.021701815
43	0x3d854daa	0.06508954
44	0xbde7670a	-0.1129895
45	0xbd3d8e91	-0.04627854
46	0xbd89888d	-0.06715498
47	0x3dd645d1	0.10462535
48	0x3d06baa6	0.032892846
49	0x3d6f568d	0.05843215
50	0xbc55b5a9	-0.013043799
51	0x3de047bc	0.10951182
52	0x3b3968fd	0.0028291338
53	0x3db70de6	0.08938198
54	0xbd0c9c77	-0.034328904
55	0x3d5da4c6	0.05411222
56	0x3d8ab514	0.06772819
57	0xbdb97f1b	-0.090574466
58	0xbc97982c	-0.018505178
59	0x3e06be8a	0.13158622
60	0x3d5495f9	0.051900838
61	0x3cabac84	0.020956285
62	0x3d15ac88	0.03654149
63	0xbdc8f928	-0.09813148
64	0x3c1aec69	0.009455779
65	0x3da94552	0.08265175
66	0xbca875cc	-0.020563982
67	0xbd904ad6	-0.07045524
68	0xbb18052c	-0.0023196442
69	0xbd1cd99b	-0.038293462
70	0xbd161928	-0.036645085
71	0x3aea81e6	0.0017891496
72	0xbc3dcfc7	-0.0115851825
73	0xbd0e98c3	-0.034813654
74	0x3c8194f0	0.01581809
75	0xbdc4e969	-0.09614832
76	0x3c71c951	0.01475747
77	0x3cb82805	0.02248002
78	0x3db5740f	0.08860027
79	0x3d1a0299	0.037600134
80	0x3dd88d8c	0.10573873
81	0x3dd02c83	0.1016474
82	0x3da45783	0.08024504
83	0xbd63e8ca	-0.055641927
84	0xbd4033d0	-0.046924412
85	0xbc8b4ff1	-0.017005892
86	0x3d8bd0f2	0.068269625
87	0xbccf7444	-0.025323994
88	0xbb351f66	-0.0027637123
89	0x3d1747e9	0.036933813
90	0x3de2d69a	0.11076088
91	0x3d0f1797	0.034934606
92	0x3d432ffe	0.04765319
93	0x3d48eff0	0.049056947
94	0x3e049e9f	0.12951134
95	0x3d0e43a5	0.03473248
96	0xbdbca8b8	-0.09211868
97	0xbcb03ea3	-0.021514243
98	0xbda0baeb	-0.07848152
99	0xbd1b3372	-0.03789086
100	0x3d56479d	0.05231439
101	0x3de1edb4	0.110316664
102	0x3dde6cf8	0.10860628
103	0xbbc09381	-0.005876959
104	0x3dea7cd1	0.11449588
105	0xbd72da55	-0.05929025
106	0x3dcf7d07	0.10131269
107	0xbd641152	-0.05568058
108	0xbd941998	-0.07231444
109	0xbc5068c2	-0.012720289
110	0x3b22dc63	0.00248506
111	0x3d3b0b4f	0.04566508
112	0xbdaa0e73	-0.08303537
113	0xbd8da4f0	-0.06916225
114	0xbcc01c1e	-0.023450907
115	0x3df0b85f	0.11753916
116	0x3d45e91b	0.04831801
117	0x3cd3996d	0.025829995
118	0xbc9f89ca	-0.019474883
119	0x3d363b87	0.044490363
120	0x3dc60acc	0.09670028
121	0x3d59e985	0.053201217
122	0xbc96f4e5	-0.018427322
123	0xbd890697	-0.0669071
124	0xbdeb3e54	-0.114864975
125	0x3d4f2e95	0.050581533
126	0x3deb2927	0.114824586
127	0xbd91ab09	-0.071127005
128	0x3cf68b86	0.030095827
129	0x3bc04d87	0.005868617
130	0x3c18b47a	0.009320373
131	0xbc4d8ea0	-0.0125462115
132	0xbd162d5b	-0.036664348
133	0xbdb1b602	-0.08677293
134	0x3d914adc	0.070943564
135	0xbcf2e864	-0.029651828
136	0xbd226d2e	-0.039654903
137	0x3b106c96	0.0022037379
138	0xbd0bc23e	-0.03412079
139	0x3dc20a00	0.094745636
140	0x3d217a22	0.039423116
141	0x3d35f74e	0.0444253
142	0x3df3becd	0.11901627
143	0xbdc34c73	-0.09536066
144	0xbd2a1114	-0.041520193
145	0x3de80b1c	0.11330244
146	0xbd1545ea	-0.03644363
147	0x3c61f365	0.01379094
148	0x3db6f224	0.089329034
149	0xbd0d871f	-0.03455269
150	0x3bdd5e85	0.0067556524
151	0x3da29513	0.0793859
152	0xbcb6e986	-0.02232815
153	0xbc933046	-0.017967355
154	0x3d3c6512	0.045994826
155	0xbd0df53e	-0.03465771
156	0x3dc67d57	0.096918754
157	0x3d00f60e	0.031484656
158	0x3dc09049	0.0940252
159	0xbd50bd0a	-0.05096153
160	0x3c4f5cca	0.0126564
161	0x3dd9ac9c	0.10628626
162	0x3ddd31db	0.10800525
163	0xbd97c6e7	-0.074109845
164	0x3dcbe34f	0.09955465
165	0xbc1440db	-0.009048666
166	0x3da9fab8	0.08299774
167	0xbc3333fb	-0.010937686
168	0x3dcd160e	0.10013972
169	0x3d6f8fb6	0.058486663
170	0xbd76bcb1	-0.060238544
171	0xbc876414	-0.016527213
172	0x3dffbc91	0.12487138
173	0xbd2b0d3b	-0.041760664
174	0xbdb498f3	-0.08818235
175	0xbd30b7f3	-0.043144178
176	0xbd471f79	-0.048614
177	0xbbef317c	-0.0072996
178	0x3cc259cb	0.023724457
179	0xbd7f0612	-0.06226165
180	0xbd0aa361	-0.033847217
181	0xbd9c2480	-0.07624149
182	0x3cda1b4a	0.02662434
183	0xbd128f04	-0.03578092
184	0x3dcc32d5	0.09970633
185	0x3de029a0	0.10945439
186	0xbc99496e	-0.018711772
187	0x3d2fa23a	0.04287932
188	0xbe04797a	-0.12936965
189	0xbda9a982	-0.08284284
190	0x3caa5516	0.020792525
191	0xbd3ddef6	-0.04635521
192	0xbd9a98ee	-0.075487
193	0x3c10b8f4	0.008833159
194	0x3d9adab5	0.07561246
195	0x3d8b541f	0.06803154
196	0xbd9467d0	-0.07246363
197	0x3c300f7a	0.010745877
198	0x3d4bff4f	0.049804028
199	0x3b5ccd74	0.0033691796
200	0x3d376f76	0.04478403
201	0xbd8a45e8	-0.06751615
202	0x3dea96eb	0.114545666
203	0xbc507dc0	-0.012725294
204	0x3dc2456a	0.09485896
205	0x3d6ced71	0.05784363
206	0x3ceecf8d	0.029151702
207	0xbdb11e31	-0.08648337
208	0x3cd5bddd	0.02609151
209	0x3d18a0de	0.03726279
210	0x3dd7c384	0.105353385
211	0x3db49c0e	0.088188276
212	0x3ca1d86b	0.019756516
213	0xbd5b29ce	-0.053506665
214	0x3d61b009	0.05509952
215	0xbcacc3ec	-0.021089517
216	0xbd6ef779	-0.058341477
217	0xbd0928d3	-0.0334862
218	0xbca18134	-0.01971493
219	0xbc06c076	-0.008224597
220	0x3c3dc2ee	0.011582119
221	0x3d439a38	0.047754496
222	0x3d911c1c	0.070854396
223	0x3d9db693	0.07700839
224	0x3dcc2cca	0.0996948
225	0x3dc108ed	0.094255306
226	0x3dc94843	0.09828236
227	0x3de1ef46	0.11031966
228	0x3dac9f31	0.08428801
229	0xbd8c7f92	-0.068602696
230	0xbd82f8f2	-0.06395139
231	0x3dd92130	0.10602033
232	0xbdb3281d	-0.087478854
233	0x3d729c79	0.059231255
234	0xbd034331	-0.0320465
235	0x3da492e5	0.080358304
236	0x3c7db5e8	0.015485264
237	0x3dd11e06	0.10210805
238	0xbd0d25e0	-0.03445995
239	0x3cee548b	0.029093048
240	0x3ce6d7ea	0.028179128
241	0x3df40fb0	0.11917055
242	0x3d0c9345	0.034320135
243	0x3dfcbfbb	0.12341257
244	0x3d63ebe0	0.05564487
245	0x3bfb6fad	0.007673225
246	0x3d8bff83	0.06835844
247	0x3d7302a0	0.059328675
248	0xbca167ab	-0.019702753
249	0xbdabaecb	-0.083829485
250	0x3e005af1	0.12534691
251	0x3c11576e	0.0088709425
252	0x3dd664f0	0.10468471
253	0x3d2b208b	0.041779082
254	0x3d9d1c3e	0.076714024
255	0x3df5fc2d	0.12010989

network.4.weight f4 [1, 256]
0	0x3e3ce400	0.1844635
1	0x3bd4df52	0.0064963484
2	0xbd191702	-0.037375458
3	0x3c4c314f	0.012462928
4	0x3e58233b	0.2110719
5	0x3e556553	0.20839433
6	0x3dba075a	0.090834334
7	0xbe61b8b5	-0.22043116
8	0xbe593e41	-0.21215154
9	0x3e6c534a	0.23078647
10	0x3e5d3106	0.21600732
11	0xbd0780e3	-0.0330819
12	0xbdfda919	-0.123857684
13	0xbe68861c	-0.22707409
14	0x3e80c5b3	0.25150833
15	0xbe4587ae	-0.19290039
16	0xbe495afb	-0.19663613
17	0xbe806b96	-0.25082082
18	0xbe53e674	-0.2069338
19	0x3cf1534a	0.02945866
20	0xbe90f868	-0.2831452
21	0xbe5d6448	-0.21620286
22	0xbd05ccc6	-0.03266599
23	0xbe6645c0	-0.22487545
24	0x3e788cf6	0.24272522
25	0x3e3d19f9	0.18466939
26	0xbcd36810	-0.025806457
27	0xbe85ac04	-0.261078
28	0x3ca40d44	0.020025857
29	0x3b23560f	0.002492312
30	0x3e3e4fce	0.1858513
31	0xbe98a2bf	-0.29811665
32	0xbd332282	-0.04373408
33	0x3db42952	0.08796944
34	0xbeadfd8f	-0.33982512
35	0xbe7c1412	-0.24617031
36	0xbe9bed0d	-0.30454293
37	0x3bb86f15	0.0056284764
38	0xbe66299a	-0.22476807
39	0xbe6ac784	-0.22927672
40	0x3e7036c1	0.23458387
41	0x3e613cf7	0.21995912
42	0x3e45994e	0.19296762
43	0xbe80e76c	-0.2517656
44	0xbca42742	-0.02003825
45	0xbe8dc258	-0.27687335
46	0xbcdda125	-0.027054379
47	0x3e3ec137	0.18628393
48	0x3ba76c1d	0.0051093237
49	0xbd387149	-0.045029912
50	0x3b776b88	0.0037753303
51	0x3e5958ff	0.21225356
52	0x3e705fab	0.23473994
53	0x3e719662	0.23592523
54	0xbe6610c0	-0.22467327
55	0x3e411157	0.18854271
56	0xbe3dfe40	-0.1855402
57	0x3b4c46d1	0.003117014
58	0xbe818653	-0.25297794
59	0xbe91229b	-0.28346714
60	0xbe7657fb	-0.24057
61	0xbe90990f	-0.28241774
62	0xbe5f020c	-0.21778125
63	0xbc8e519b	-0.017372897
64	0x3e5fe8df	0.21866177
65	0xbe785064	-0.24249417
66	0xbe6b3d7f	-0.22972678
67	0xbc9a462d	-0.01883229
68	0xbc906d7f	-0.017630337
69	0x3e86cc7f	0.26327893
70	0x3e4766ad	0.19472761
71	0x3e69a5d6	0.22817168
72	0xbe9f35d7	-0.31095764
73	0x3ccc0535	0.024904827
74	0x3c9e1745	0.019298205
75	0xba4b4deb	-0.0007755446
76	0x3e311b70	0.17295623
77	0xbeac739e	-0.3368196
78	0x3e5804b9	0.21095552
79	0xbe6623ae	-0.22474548
80	0xbe7d9d65	-0.24767072
81	0x3e61bf40	0.22045612
82	0x3e4175cf	0.18892597
83	0xbc77f0a3	-0.015133056
84	0xb93365e9	-0.00017108735
85	0x3e7f8af5	0.24955352
86	0x3e3d65ca	0.1849586
87	0x3dfe6965	0.12422446
88	0x3bf956d6	0.0076092286
89	0xbe7adff5	-0.24499495
90	0x3e62c9a7	0.22147237
91	0x3e4d24c5	0.20033558
92	0x3e61aa8f	0.22037719
93	0xbe7ba699	-0.2457527
94	0xbe61f96f	-0.22067808
95	0xbe67a7c0	-0.22622585
96	0x3d12040b	0.035648387
97	0xbe5ee775	-0.21767981
98	0xbe4fc738	-0.2029084
99	0x3e2fa8fd	0.17154308
100	0xbe522582	-0.2052212
101	0xbe5c9580	-0.21541405
102	0xbe7945fb	-0.24343102
103	0xbe59c325	-0.21265848
104	0x3e66e433	0.22547989
105	0xbb6d848f	-0.003624234
106	0x3e579d95	0.21056207
107	0xbcba7fa6	-0.022765946
108	0x3b80e625	0.0039336854
109	0x3e25d128	0.16193068
110	0x3e1719a8	0.14755881
111	0xbe65f98e	-0.22458479
112	0x3b909b5e	0.0044130525
113	0x3ca26219	0.019822167
114	0xbe869b03	-0.2629014
115	0xbe84abdf	-0.25912377
116	0x3e59ca24	0.21268517
117	0x3cfe5355	0.031045595
118	0xbe8a328b	-0.26991686
119	0xbe4223d5	-0.18958981
120	0x3e828cc5	0.25498024
121	0xbe82bdde	-0.25535482
122	0xbad91a14	-0.0016563558
123	0x3c091afe	0.008368252
124	0x3bb4a1eb	0.005512466
125	0xbe91ac46	-0.28451747
126	0x3e76d9f6	0.24106583
127	0x3c4ce467	0.012505627
128	0xbe303c3e	-0.1721048
129	0x3e2b6d89	0.16741003
130	0xbbf7e01d	-0.007564558
131	0x3e385b57	0.18003593
132	0x3e5848c9	0.21121515
133	0xbb866739	-0.0041016606
134	0xbe4fb527	-0.20283948
135	0xbe5b2d83	-0.2140408
136	0xbc592730	-0.013253972
137	0xbec38e47	-0.38194486
138	0xbe3ad5d8	-0.18245637
139	0xbe905c21	-0.2819529
140	0x3e0eb358	0.13935602
141	0x3e86aece	0.2630524
142	0xbe8b456b	-0.272014
143	0x3c0df707	0.008664853
144	0xbe7309dc	-0.2373423
145	0x3e81de16	0.2536475
146	0xbe4b0aef	-0.1982839
147	0x3e8063b9	0.25076082
148	0xbe5db94e	-0.2165272
149	0xbe741ecf	-0.23839878
150	0xbe6f1858	-0.2334913
151	0xbe82a0ca	-0.25513297
152	0xbe69fa63	-0.22849421
153	0x3c71d34a	0.014759848
154	0x3e55eeca	0.20891872
155	0xbe7a114f	-0.24420665
156	0xbe448b4e	-0.19193766
157	0x3dd7f244	0.105442554
158	0x3e463d87	0.19359408
159	0xbab0cb7b	-0.0013488376
160	0x3e7efc60	0.24900961
161	0xbe846895	-0.2586104
162	0xbe80c4cb	-0.2515014
163	0xb92885ed	-0.0001607162
164	0x3e41fb22	0.18943456
165	0xbe5a2964	-0.21304852
166	0x3e5477f2	0.2074888
167	0x3c9fee89	0.019522922
168	0x3e542ae7	0.20719491
169	0x3e656196	0.22400507
170	0xbb586620	-0.0033019856
171	0xbe94cac5	-0.2906095
172	0xbe75229a	-0.2393898
173	0xbe6822dd	-0.2266955
174	0xba75cc3f	-0.00093764433
175	0xbd3fcbd8	-0.04682526
176	0xbb5b4bdb	-0.0033461961
177	0x3dd09abd	0.10185764
178	0x3e7f9d2d	0.24962302
179	0xbccc2289	-0.024918811
180	0x3e3c7f00	0.18407822
181	0xbc99e4a2	-0.018785778
182	0xbe9de952	-0.30842072
183	0xbe62ccfd	-0.2214851
184	0x3e627372	0.22114351
185	0xbe85b10e	-0.26111645
186	0x3e5b3de0	0.21410322
187	0x3c15dbd3	0.009146648
188	0xbc799f18	-0.015235685
189	0xbba9d18b	-0.00518245
190	0xbe6824cc	-0.22670287
191	0x3e49478e	0.19656202
192	0x3c218fc4	0.009860937
193	0x3e796226	0.24353847
194	0x3e33a881	0.17544748
195	0x3e7873cc	0.24262923
196	0xbc643680	-0.013929009
197	0xbc5b5780	-0.013387561
198	0xbe888708	-0.2666552
199	0x3e8cc812	0.27496392
200	0xbe589f10	-0.21154428
201	0xbcb26a2f	-0.021779148
202	0xbe89c3bd	-0.2690715
203	0xbc835b76	-0.016034823
204	0x3e820145	0.25391594
205	0xbe6a74cf	-0.22896121
206	0xbec1c852	-0.37848145
207	0x3c3357b7	0.010946206
208	0x3e2fb25e	0.17157885
209	0xbe45c70b	-0.1931421
210	0x3e678b31	0.22611691
211	0x3e84407e	0.25830454
212	0xbe693be4	-0.22776753
213	0x3d2e1142	0.042496927
214	0xbe45f086	-0.19330034
215	0x3e38e993	0.18057851
216	0x3b497db8	0.00307451
217	0x3d0746d4	0.03302653
218	0xbe6cdc83	-0.23130994
219	0xbc3083f3	-0.010773647
220	0x3e8581c3	0.26075563
221	0xbe5970af	-0.21234392
222	0x3e783f12	0.2424281
223	0x3e54e5aa	0.20790735
224	0x3e12dba2	0.14341596
225	0x3e752f04	0.23943716
226	0xbe916bd8	-0.2840259
227	0xbe84bd19	-0.2592552
228	0xbe7faaf4	-0.24967557
229	0x3c2e217d	0.010628101
230	0xbaa894c8	-0.0012861723
231	0x3e530f8e	0.20611402
232	0xbc947686	-0.018122923
233	0xbe482ef6	-0.19549164
234	0x3e807404	0.25088513
235	0xbeaf9dca	-0.3430007
236	0xbe5cc257	-0.2155851
237	0x3e61de07	0.22057353
238	0xbe93c8f6	-0.2886426
239	0x3e870b1b	0.2637566
240	0x3e83b678	0.2572515
241	0x3e48c5ee	0.19606754
242	0xbe92cb37	-0.28670666
243	0x3e7e291d	0.24820371
244	0xbeb778fe	-0.35834497
245	0x3e5a6e9e	0.2133126
246	0xbe021da8	-0.12706625
247	0x3e3bfbea	0.18357816
248	0xbe4ff609	-0.20308699
249	0x3ade8753	0.0016977586
250	0xbe83cefd	-0.25743857
251	0xbe70eceb	-0.23527877
252	0xbe88eabd	-0.2674159
253	0x3e4c54b7	0.19954191
254	0xbe5a49bd	-0.21317191
255	0xbe792d9c	-0.24333805
