actor.pth (torch, 148423 bytes, 6 tensors)

network.0.weight f4 [128, 9]
000000 e2 5a 5e be 2d f0 59 3c 3f 61 57 be 72 01 cd 3d
       -0.21714357 0.013301891 -0.2103319 0.10010041
000010 ba 69 fc bb 88 07 23 3e b3 37 2c 3d 53 15 9b bd
       -0.0077030333 0.15920842 0.042045306 -0.07572427
000020 bf 80 0c 3e 23 be 37 3e cf 8d 48 bd d2 3e 20 be
       0.13720988 0.17943625 -0.048963364 -0.15648964
000030 36 bf cd bd 98 ca 0e bc 39 25 18 be 5d 19 d9 3d
       -0.10046236 -0.008715294 -0.1485795 0.10600541
000040 66 d1 3e be 70 7c 17 bd c1 e6 2f bd ff 5a ef 3a
       -0.18634567 -0.036983907 -0.042944673 0.0018261372
000050 10 d2 9e 3e a5 3c 48 be 6a ec 13 bc 8b 09 a7 be
       0.3101964 -0.19554384 -0.0090285335 -0.32624468
000060 ae 65 8d 3d 2c 67 f6 bd 3e b3 c4 3d ed 7d 2c be
       0.069041595 -0.12031397 0.096045 -0.16844912
000070 93 37 12 3e a1 ef 95 bd 00 42 21 be 2d b8 9a 3e
       0.14279012 -0.07321096 -0.15747833 0.3021864
000080 fe 06 15 bc 32 44 34 3e b3 79 5b 3e 41 84 46 bd
       -0.009095905 0.1760414 0.21433143 -0.04846597
000090 33 1b 0c be c0 78 f9 3c 0a 2c 85 be 50 ea e8 3d
       -0.1368225 0.030453086 -0.26010162 0.113728166
0000a0 fb ff 8c 3e 10 5e 4e 3e 00 a6 d9 3c 4e 89 20 be
       0.27539048 0.2015307 0.026568413 -0.15677378
0000b0 a6 fa 24 3e 23 05 cb bd 7c fa be 3d bb 5f 57 be
       0.1611124 -0.09913089 0.0932512 -0.21032612
0000c0 98 f7 ee 3d 9b 16 89 be 4c d1 29 be 8b 90 e6 bd
       0.116683185 -0.2677506 -0.16583747 -0.11258038
0000d0 0f 6d 0a 3e 8c 00 65 3e 4a 5b 6b 3e 2f 31 78 3e
       0.13518165 0.2236349 0.22984043 0.24237512
0000e0 5a af 47 be dc f3 03 3d 60 6e 5c be 19 3f 0a 3e
       -0.19500485 0.032214984 -0.2152648 0.13500632
0000f0 a5 e1 2a be 07 69 b0 3b 84 e4 2e 3d 38 cb 58 bd
       -0.16687639 0.005383614 0.0426984 -0.05292818
000100 ef 95 99 3e bb 0d 16 be 71 d9 be 3d 19 da ae 3c
       0.29997203 -0.14653675 0.093188174 0.021344231
000110 45 06 73 3d 7d 57 16 3e 15 2e 9a 3d 23 5d 28 3e
       0.05933215 0.14681812 0.07528321 0.16441779
000120 bc 47 89 be 39 b8 cf bd d2 e3 8a bd f4 35 8d 3e
       -0.2681254 -0.101425596 -0.067817345 0.27580225
000130 f6 bb 68 3d 78 90 a6 be f6 1d 59 be b8 7a 95 3d
       0.05681988 -0.32532096 -0.21202835 0.07298797
000140 46 3f 6c be 27 20 8f 3e b6 93 17 3e 7e cc 31 be
       -0.23071012 0.27954218 0.14802441 -0.17363164
000150 c3 c5 71 be 9e bd ca 3d 73 ca 17 3d 8a 07 9c bd
       -0.23610596 0.09899448 0.037058305 -0.076186255
000160 e0 10 35 3e cb 1b 93 bd a2 98 84 3e 65 17 d9 bd
       0.17682219 -0.071830355 0.258977 -0.10600165
000170 06 8b 70 bd 08 1c e2 bd 54 39 27 bd d5 97 8a be
       -0.058726333 -0.11040503 -0.040826157 -0.27068964
000180 8b ad aa 3c ff b9 a1 be db ee 83 be 55 ec e5 3c
       0.020834705 -0.31587216 -0.2576817 0.028066793
000190 02 34 4b be a6 55 51 3e 1b 02 e7 3d 3f 77 16 be
       -0.19844058 0.20442829 0.112796985 -0.14693926
0001a0 ea 72 86 3e c7 60 a7 bd 47 24 a4 be 58 ff a2 3e
       0.26259547 -0.08172756 -0.32058927 0.31835437
0001b0 5e d5 65 be fe 27 71 be b0 f3 0d 3e 6c f9 35 3e
       -0.22444674 -0.23550412 0.1386249 0.17770928
0001c0 17 31 49 3e dd 8a 19 3d dd fd e4 3d 39 79 17 3e
       0.19647633 0.037485946 0.11181233 0.14792337
0001d0 03 8e 4e be ed 54 23 be 2c d0 17 bc 92 02 7e be
       -0.2017136 -0.15950365 -0.009265941 -0.24805668
0001e0 85 b1 ae bc 9b 9c 9e 3e 52 46 6a bd b1 90 31 3e
       -0.021324882 0.30978855 -0.05719597 0.17340352
0001f0 8d a7 84 3e 37 08 a6 3d 8f 93 43 3d 23 9c 13 be
       0.2590908 0.081070356 0.047748145 -0.1441503
000200 0d 44 a2 3e 66 28 30 be 14 c0 66 bd 05 b1 d1 bd
       0.31692544 -0.17202911 -0.056335524 -0.10238842
000210 3a b8 a0 3e 55 08 fa 3d 6d 70 8a 3e 69 c7 46 3c
       0.31390554 0.122086205 0.270389 0.012132504
000220 db 48 bb 3d e5 94 2e be a4 43 4d 3e 06 39 bf bd
       0.091447555 -0.17048986 0.20045334 -0.09337048
000230 b9 74 ab 3d cb da 1e 3e 47 df df 3d 11 20 d6 3d
       0.083718725 0.1551315 0.10931259 0.10455335
000240 5b 9a 86 3e 8a df 6e 3d 59 96 a7 be 61 dd 4c 3e
       0.2628964 0.058318652 -0.32731894 0.20006324
000250 17 5b 14 be 61 82 b8 3c 24 51 21 be 42 80 86 3e
       -0.14487873 0.022523107 -0.15753609 0.26269728
000260 e3 1e a0 bd 57 b4 93 3e c4 93 04 be 5a 35 9b bd
       -0.07818391 0.28848526 -0.12946993 -0.075785354
000270 02 39 ce 3b 3c 2d 09 3e ee 50 82 bc 8f fa 89 3c
       0.006293417 0.13396162 -0.01590773 0.016843108
000280 70 07 91 ba 77 12 60 3e c8 b8 48 3e 88 ed 93 3e
       -0.0011064839 0.21882044 0.19601738 0.2889216
000290 6d f4 3b 3e 7b db d7 3d 5a 16 fd 3d 4a e0 0b be
       0.1835496 0.105399095 0.12357779 -0.13659778
0002a0 11 61 60 3e b9 04 94 be 0e 72 35 3e 89 7a 7d be
       0.21912028 -0.28909853 0.1771929 -0.24753775
0002b0 d4 65 1d 3e bd 06 58 be 7a f2 9f be 2a 0a 9c be
       0.15370876 -0.2109632 -0.31239682 -0.30476505
0002c0 91 06 8f 3e 9e f8 68 be 0e 03 6b be e8 d7 88 bd
       0.27934697 -0.2275109 -0.22950384 -0.06681806
0002d0 9d eb 8a 3e 18 13 9d be 87 c0 84 3c 94 ac 66 be
       0.27132884 -0.3067863 0.016205085 -0.22526771
0002e0 0f 43 43 bd cf 64 81 be ea cc 86 be 53 66 94 3e
       -0.047671374 -0.25272223 -0.26328212 0.28984317
0002f0 a0 bb 48 3c b5 f0 03 bd c4 e8 9a be 15 67 fd 3d
       0.012251765 -0.032211978 -0.3025571 0.12373177
000300 fd 9e 93 3c ae 0a aa be 5e 51 56 be d1 47 11 3e
       0.018020147 -0.33211273 -0.20929477 0.14187552
000310 48 01 1a 3e 33 ab 80 be 6f 28 76 be 9c dc c3 3d
       0.15039551 -0.25130615 -0.24038862 0.09563562
000320 8c 8e 76 3d 18 a2 47 be 40 a6 8d be fd b6 80 bc
       0.060194537 -0.19495428 -0.276659 -0.015712256
000330 63 31 69 be d7 e6 a2 3e 06 37 c5 bd 7f d4 0e be
       -0.22772746 0.31816742 -0.096296355 -0.13948248
000340 2b 75 42 be 4d 1f 31 3e a0 e6 46 be bb e8 30 bd
       -0.18990009 0.17297097 -0.19423914 -0.0431907
000350 39 37 d0 3d 5e 2a 74 3e c9 0c 7c 3d 1c 18 03 3e
       0.10166783 0.23844287 0.06153563 0.12802166
000360 6c 7a 83 be 10 10 56 be f6 d3 3a 3e cb 29 a6 bd
       -0.25679338 -0.20904565 0.18244919 -0.0811344
000370 53 96 4a be d8 a0 49 be 96 3b 91 3d 20 11 3b 3d
       -0.19783907 -0.19690263 0.07091443 0.04567063
000380 7e 11 43 be 3b 46 9a be 68 0b a2 be 90 60 1f 3e
       -0.19049641 -0.30131707 -0.31649327 0.1556418
000390 f2 9c ba 3c b6 ce a4 bc 6b 1b a5 bc 83 10 81 be
       0.022779915 -0.020118099 -0.020154675 -0.2520791
0003a0 d6 87 ed bd e7 ec fe 3d ab 7e 24 be f8 90 aa 3d
       -0.11598174 0.12447529 -0.16063945 0.08328432
0003b0 00 b4 9a be 20 48 6c 3e 47 11 1c 3e b7 2e a2 3d
       -0.30215454 0.23074389 0.15240966 0.079190664
0003c0 3e de 80 bd ea 5e c3 bd 4a a2 0f bd d2 17 84 3e
       -0.06292389 -0.09539588 -0.03506688 0.25799423
0003d0 f2 25 9a be f4 4f 67 3d c0 c9 8c 3e db 2f e6 3d
       -0.30107075 0.056472734 0.27497673 0.112395965
0003e0 38 e7 4e be 6d b2 79 3d e0 ac 19 be cf 9d a1 bd
       -0.2020539 0.060961176 -0.15007353 -0.07891428
0003f0 b1 96 41 3e 34 cc 80 be 39 fd 74 3e 87 d7 43 be
       0.1890514 -0.25155795 0.23924722 -0.19125186

network.0.bias f4 [128]
000000 38 f8 3b 3e 3c 22 89 3e 84 99 a0 bc 85 42 70 bd
       0.18356407 0.2678393 -0.019604452 -0.058657188
000010 50 bc 9b be af 9a 38 3e 89 3a 96 3e 45 70 95 bc
       -0.3041711 0.18027757 0.29341534 -0.01824201
000020 2a d7 ba 3c 2c bb 8a be 56 70 6d 3e 17 02 79 3e
       0.022807676 -0.27095926 0.23187384 0.24317203
000030 c0 94 0c 3d 89 31 c3 3d 18 eb ef 3d 23 55 29 be
       0.034321547 0.095309325 0.117147624 -0.16536383
000040 3a 98 2d 3e 16 92 43 3e bd 86 c1 3d 08 a9 be 3d
       0.16952601 0.19098696 0.094495274 0.09309584
000050 06 01 80 3e 89 f0 85 3d 57 2e 25 be 27 59 ee 3c
       0.2500078 0.06540019 -0.16130958 0.029095246
000060 ab df ed 3d d6 63 99 3e 2b 80 72 3e 53 ea e1 3d
       0.11614927 0.2995898 0.23681705 0.11031022
000070 f6 89 65 3d 34 5f 7d 3d 53 aa 65 3e 00 f9 ae 3d
       0.056039773 0.06185837 0.22428255 0.08543587
000080 9b 50 01 3e 0a b9 2b 3e 1e b6 ee 3d 7b 1b 0b be
       0.12628405 0.16769806 0.1165583 -0.13584702
000090 55 68 72 3e 96 76 14 be b3 7a a7 be 89 91 76 3d
       0.23672612 -0.14498362 -0.327108 0.060197387
0000a0 5a 47 4e be f6 23 21 3c e4 d7 fe bb dc 3f 42 be
       -0.20144406 0.009835234 -0.007777201 -0.18969673
0000b0 3f 23 d4 bd e4 cc 35 3e d9 b3 3b 3e 8a 3e 94 be
       -0.10358285 0.17753941 0.18330325 -0.28953964
0000c0 03 fe 5f 3e 1f b5 66 3e 46 86 8b bd 37 00 8b 3e
       0.21874242 0.2253003 -0.0681272 0.271486
0000d0 f1 05 85 be 83 89 2e be ed f8 a3 be a0 94 9e 3e
       -0.25981095 -0.17044644 -0.32025853 0.30972767
0000e0 10 a9 18 3e 65 c0 14 bd 7c bf 1b be 95 e8 18 3d
       0.14908242 -0.036316294 -0.15209764 0.037331183
0000f0 2d 63 3f be 16 a3 fb bd c1 06 af 3d 90 89 63 3e
       -0.18690176 -0.122869655 0.0854621 0.22220445
000100 b7 5d ba 3d 26 1c a5 3d 18 b3 41 3c 21 d9 52 be
       0.09099906 0.080620095 0.011822484 -0.2059064
000110 25 f0 b2 bd 74 97 23 3e 1c 5c c6 3d c0 27 a6 be
       -0.0873721 0.15975744 0.09685537 -0.32452202
000120 16 88 0b 3e 8b ef d8 bd 39 d6 86 3e ce c5 5a be
       0.13626131 -0.10592564 0.26335314 -0.21364519
000130 85 ec 2c be 83 4f 7c bd a4 d9 a3 be 53 8f 35 3e
       -0.168871 -0.061599266 -0.32001984 0.17730455
000140 ec 5e 0b be 05 3a da bd ab 36 fe bd 4c 50 71 be
       -0.13610429 -0.106555976 -0.12412771 -0.23565787
000150 b3 d2 26 be c3 1c 4c 3e 7b 5d d3 3d 46 fd 81 bd
       -0.16291313 0.19932847 0.10320564 -0.06347136
000160 80 64 04 be 7d ec 42 bd 96 b9 27 3d 4b 9b c8 bd
       -0.12928963 -0.047588814 0.040948473 -0.09795245
000170 26 53 69 3d 3b e8 ec bd 66 1d 5f 3e 60 95 92 bd
       0.056964062 -0.11567732 0.21788558 -0.07157397
000180 55 49 59 be 2f 5d 8f bd c4 3e a3 3e 6b c4 9d 3e
       -0.2121938 -0.07000195 0.31883824 0.30813918
000190 58 46 65 3e e5 8b 07 be 06 4c 54 3e 03 92 4b be
       0.22390115 -0.1323696 0.20732126 -0.19879918
0001a0 8b 58 50 3e 1b b3 0d 3e b2 58 a9 be 78 77 5b 3e
       0.20346276 0.13837855 -0.33075482 0.21432292
0001b0 9b 14 42 be 8a f5 24 be c7 03 81 be df 3f 10 3e
       -0.18953173 -0.1610929 -0.25198194 0.14086865
0001c0 cb 35 a7 3e b2 7a 22 be 14 af bc 3d 34 b0 4f 3e
       0.32658228 -0.15867117 0.09213081 0.2028206
0001d0 8f 8f e1 3d 7c 8b 76 3e 16 40 8b 3e c3 1c 1e be
       0.1101371 0.24076647 0.2719733 -0.15440659
0001e0 1e 1d 8a be 70 ea 4c be b9 58 3a 3e 89 f1 dd 3d
       -0.2697534 -0.20011306 0.18197908 0.10837085
0001f0 4b 7f 9f 3d ce 34 6f 3e fe 67 97 be 2b 16 64 bd
       0.07787951 0.23359987 -0.29571527 -0.055685204

network.2.weight f4 [256, 128]
000000 b3 32 17 3c 31 29 8f 3c 15 27 4e 3d bc 0a e2 3b
       0.009228396 0.017475696 0.05033024 0.0068982523
000010 bc 96 89 bd 5e eb 3d bd 9e 19 6b bd ca c9 bd b9
       -0.067182034 -0.04636704 -0.057397477 -0.00036199234
000020 c2 a9 62 bd 28 aa 8c 3d de 05 21 3d 65 7b 81 bc
       -0.055337675 0.06868392 0.039312236 -0.01580591
000030 86 70 66 bd 73 02 48 3d 64 38 91 bc e8 fb 34 3c
       -0.056259654 0.04883046 -0.017727084 0.011046387
000040 b7 de a4 bc 6f a7 99 3d 3c 43 42 3d 39 08 85 3d
       -0.02012573 0.075026385 0.0474274 0.06495709
000050 9c 13 24 3c 00 c8 ad 3d 27 a2 64 bc f4 4e a6 bd
       0.010014441 0.084854126 -0.013954676 -0.08120528
000060 de ac 9b bc 2c b0 8b 3d 6a 23 28 bd f4 a8 32 3c
       -0.019003328 0.068207115 -0.0410494 0.010904539
000070 7a 8b ce bb 69 42 67 bd 40 75 8d 3d 03 80 96 3d
       -0.006303248 -0.056459818 0.06907129 0.07348635
000080 c7 56 00 3d 41 68 df bc e5 f9 b3 3d 4f 92 46 3d
       0.031332757 -0.027271392 0.08787898 0.048479374
000090 ed 67 e9 3b e5 30 aa bd 8d 0c 05 3c 75 a5 1e 3d
       0.0071229846 -0.08310107 0.008120668 0.03873201
0000a0 58 a4 14 3d 42 8e 9c bc 25 c3 1c bd e8 dd 9b bd
       0.036289543 -0.019110803 -0.03827204 -0.07610685
0000b0 8a cc 83 bd 30 fc 5c bd 51 9e 9d 3a f8 f0 63 bc
       -0.06435497 -0.053951442 0.0012025331 -0.013912432
0000c0 64 6e 53 bd bd ff 40 bd 07 3f 27 3d b6 d9 2c bd
       -0.05161895 -0.04711889 0.040831592 -0.042199813
0000d0 05 f9 05 3c d1 d0 ad 3a f1 0e b0 3d e5 d1 96 3d
       0.008177047 0.0013261085 0.085966 0.07364253
0000e0 1b 15 34 bd 2b 0c cc 3b cb 74 9b 3a 72 1b a7 3d
       -0.04396544 0.0062270365 0.0011860369 0.08159532
0000f0 25 f9 80 3d 01 32 9d 3d e0 1f 4a bd 44 21 8c 3d
       0.062975205 0.07675553 -0.049346805 0.068422824
000100 57 a4 7d bd af 59 8d 3d 27 0e 6a bc 1d 49 16 3d
       -0.061924305 0.069018714 -0.014285601 0.03669082
000110 34 b4 13 3d 94 2b 77 3b a2 62 6f 3b 34 72 80 bc
       0.036060527 0.0037715184 0.0036527296 -0.015679456
000120 6b 6a 73 bc a4 19 51 bd a5 4e aa bd 5a 82 95 bd
       -0.014856915 -0.051049843 -0.083157815 -0.07300253
000130 5b 25 5d 3d a7 7f 42 3b 25 3b ca bb 51 1b 09 bd
       0.053990703 0.0029678138 -0.0061716014 -0.033473317
000140 6b 39 fa bc 6b 78 14 3d cb 85 9f 3d a8 66 70 3c
       -0.030544957 0.036247652 0.07789191 0.014672913
000150 da 51 3b bc ea b9 8e 3d a4 90 97 3d d9 3d 87 bc
       -0.011433089 0.06969054 0.07400635 -0.016508983
000160 b4 85 06 3d 28 fb 1f bd 1f 38 a2 bd 45 4d 8e 3d
       0.032842353 -0.03905788 -0.079208605 0.06948332
000170 d2 ba aa 3d c7 72 a1 bd 04 06 cf 3a c5 8d fb 3c
       0.083364144 -0.0788322 0.001579464 0.03070725
000180 1f 1b 72 3d 29 9a 45 bc 6a 64 58 3c 35 77 20 bc
       0.059107896 -0.01206068 0.013207534 -0.009794046
000190 96 7e 36 b8 4d 6f 8e bc 7c c6 65 3d d5 39 96 bd
       -4.3510074e-05 -0.017387057 0.056097493 -0.07335249
0001a0 a0 67 83 bd 74 33 5d bc db 89 17 bd 38 5f 8b bb
       -0.06416249 -0.013501037 -0.036996704 -0.0042532943
0001b0 e7 88 2f bd 8c b8 0f 3d b9 55 9e bd 08 0b 5e 3d
       -0.04285517 0.035088107 -0.07731194 0.05420974
0001c0 1c 9f 53 bd 30 52 48 3c 4b 48 d7 3c d4 5c ec bc
       -0.05166541 0.012226626 0.02627959 -0.028852858
0001d0 8b 4c 8d 3b d0 8f 53 bd 19 67 55 3d 0b 92 57 bd
       0.004312103 -0.051650822 0.052100275 -0.05262951
0001e0 a3 5f e7 3c 03 82 65 3d 4c 9c 2e bd 77 91 26 bb
       0.028243845 0.056032192 -0.042629525 -0.0025416294
0001f0 b3 f4 25 3d d7 80 99 3d 74 92 45 3d 83 9a ab bc
       0.040516566 0.074952774 0.04823537 -0.0209477
000200 72 eb b3 3d 2e 63 68 bd d9 c4 aa 3d 0b 38 62 39
       0.08785142 -0.05673521 0.08338327 0.00021573917
000210 b3 a3 23 3d bc 9f 3e bd 93 5e d7 3c dd 01 01 3c
       0.039951038 -0.046539053 0.026290214 0.007873979
000220 dd 3f 93 ba 42 f5 24 bd 92 97 8d bd 2e 2e 96 3d
       -0.0011234243 -0.04027296 -0.06913675 0.07333027
000230 1f 8d 40 3d 60 1a 76 3c 23 a1 47 3d b6 08 86 3b
       0.047009584 0.015020937 0.048737656 0.004090394
000240 b8 77 a7 3d 71 d4 95 3d 4b d1 8b bd 7c 97 2f bb
       0.081771314 0.073159106 -0.06827029 -0.0026793173
000250 90 88 56 3d 6b 1c 61 3d 81 50 a3 bc 02 5b 81 3d
       0.05237633 0.054958742 -0.019935848 0.063161865
000260 af 28 ab 3d a0 9e fa b9 d7 2b 89 3d 9f a7 32 3c
       0.08357369 -0.000478019 0.06697815 0.010904222
000270 42 f4 27 bd 9a dd 9f bd 38 08 a0 3c 8f 81 b2 bd
       -0.041004427 -0.07805939 0.019535169 -0.087161176
000280 fe ac 8c 3c ee a3 ed ba ac c2 d7 3b b9 60 8e bc
       0.017172333 -0.001813052 0.006584486 -0.017380105
000290 ae 9c b3 bd 59 57 a1 3d 9c ff 91 3c 99 b3 7c bd
       -0.08770119 0.07877988 0.01782208 -0.061694715
0002a0 37 43 3a bb 7a 57 36 3b ca 85 97 bd 8c 94 e1 3c
       -0.002842141 0.0027823136 -0.07398565 0.027536653
0002b0 5f b4 b3 bd 0d cd 15 3b 74 3d c1 3b 2f 8b 9d bd
       -0.087746374 0.0022857815 0.0058972184 -0.07692563
0002c0 9c 86 8a 3d 57 cb 76 3d 5d 79 21 3d 28 e6 9a bd
       0.06763956 0.060252514 0.03942238 -0.0756343
0002d0 88 fd 2a 3c cd 67 59 bd 77 d7 60 bc d3 99 8e bd
       0.010436423 -0.053077508 -0.013723246 -0.069629334
0002e0 73 f1 36 3d 45 be 47 3d d3 7c 07 3c dc e2 26 3d
       0.044663858 0.04876544 0.0082695065 0.040743694
0002f0 bb e8 0a 3d f4 c7 9d bd a4 a5 80 bd 70 f8 4e 3d
       0.033913355 -0.07704154 -0.062815934 0.050529897
000300 9e ee 43 3b 27 32 3b bd ae 13 76 3d 45 cc 34 bd
       0.0029896866 -0.045702126 0.06007736 -0.04414012
000310 eb 8e 27 3d 9a 47 a3 bd 1c 7d ab bd 2d df 4f 3d
       0.04090778 -0.07972641 -0.08373472 0.050749946
000320 ba 89 3a bd b9 75 61 bc 5f a1 7b 3d 22 ed 85 ba
       -0.045541503 -0.013760977 0.061433192 -0.0010217766
000330 21 17 ad 3d 5f 68 81 3d 43 24 74 3d 6c 13 2b 3d
       0.08451677 0.06318735 0.059604894 0.04176657
000340 28 0d e6 3c 8a 56 4b bd ab cb 87 3c 51 d5 fa 3c
       0.028082445 -0.049643077 0.016576609 0.030619295
000350 98 d7 73 bd 97 e2 f3 bc 3d 79 aa bd f8 e6 a4 bd
       -0.059531778 -0.029771132 -0.083239056 -0.08051866
000360 83 b6 e9 3b 48 b2 19 bd fc 6e 6d 3d 78 7e 8e 3d
       0.007132353 -0.037523538 0.05796717 0.06957716
000370 49 1c f4 bc 48 04 ba 3b 0d 2a 28 bd db cb 90 3d
       -0.029798644 0.00567678 -0.041055728 0.07070132
000380 1c fa 21 bd 10 76 29 3d 58 8f 7a bd 1e 9a 80 bd
       -0.039545164 0.04137236 -0.06117186 -0.062793955
000390 54 f0 0d bd 5f b6 6b 3d 2d 96 86 bc 3c 63 42 3d
       -0.034653023 0.05754697 -0.016429031 0.04745792
0003a0 d4 c9 0a bd 98 c7 a8 3d b9 42 bb 3c 0d 4f a2 3c
       -0.033883885 0.082411945 0.022858964 0.019813085
0003b0 22 52 14 bc 99 17 84 3d d1 ba 42 bd 9d 85 84 3d
       -0.009052785 0.064498134 -0.047541443 0.06470797
0003c0 67 09 a6 bc d5 c2 e3 bc c3 b8 05 3c b8 c0 af bd
       -0.020268155 -0.027802864 0.008161726 -0.0858168
0003d0 a9 2a cc bc 99 68 54 bc fa f1 43 3b d7 c7 cf bc
       -0.024922686 -0.012964391 0.0029898868 -0.025363846
0003e0 78 45 8b bd 23 9e 11 bc 33 de b1 3d 24 3b 01 bd
       -0.068003595 -0.0088878 0.08684959 -0.03155054
0003f0 e7 6a 51 bd 2e 7b 89 bb 43 4d b7 bc 0e 18 85 3d
       -0.05112734 -0.0041955924 -0.022375708 0.06498729

network.2.bias f4 [256]
000000 ba ba ec 3c ff a3 a7 bd 73 df a8 bd 14 14 89 3d
       0.028897632 -0.08185577 -0.082457446 0.06693283
000010 4c 79 a9 3d df 81 87 bc 5e 29 e5 3c 3e d6 8f 3d
       0.08275089 -0.01654142 0.027973827 0.07023285
000020 fc 83 30 3d c3 e2 97 3c 3d 58 aa 3d b0 83 6d bd
       0.04309462 0.018540746 0.08317611 -0.057986915
000030 d6 b4 c0 bc 1a f5 5e bd 44 c1 29 3d 3a 89 13 3c
       -0.02352373 -0.054432966 0.041444078 0.009004885
000040 96 24 90 3a 12 13 1a 3d f8 94 84 bd 02 4c cf 3a
       0.0010997232 0.037615843 -0.06473726 0.0015815499
000050 b8 8b 95 3c de 46 7c bc 88 2c 77 3d 01 9f f0 3c
       0.0182551 -0.015397755 0.060345203 0.029372694
000060 1f d0 fa bc 68 fd ff 3c 36 d4 a4 bd c0 78 b3 3a
       -0.030616818 0.031248763 -0.080482885 0.0013692603
000070 66 12 5a 3c ed 31 c4 bc 44 e6 1d bd 4b 09 94 3b
       0.013310051 -0.023949588 -0.038549677 0.0045177094
000080 65 50 8a 3d cd 08 16 3c 34 ee 8f bd 4f 1c 76 3d
       0.06753615 0.009157372 -0.070278555 0.06008559
000090 84 6b 51 3b 66 aa 49 3d da d6 6f bc 07 6e 0e bd
       0.0031954953 0.04923477 -0.014638627 -0.0347729
0000a0 b2 80 57 bd 8f 3a 45 bd cd 1f b7 3b 40 1a 5e 3d
       -0.052612968 -0.04815155 0.0055885077 0.054224253
0000b0 74 b0 83 3d e7 16 1b 3d 73 b9 8b 3d 6c 65 f2 b9
       0.0643014 0.03786364 0.06822481 -0.00046233402
0000c0 e8 bd a4 bd a9 21 95 bd 2a 73 9f bd 16 8f 66 bb
       -0.08044034 -0.07281811 -0.07785638 -0.00351805
0000d0 4a ee 1b 3d fc bc 56 bd 41 37 b8 bd 1f 04 7e bd
       0.038069047 -0.052426323 -0.08994914 -0.06201565
0000e0 f8 23 6f bd a2 e3 b9 bd ca c7 f4 3c a9 26 a5 bd
       -0.05838391 -0.09076621 0.029880423 -0.080640145
0000f0 44 a7 df 3c 86 2e 5f bd 79 d3 73 3d f3 48 54 3d
       0.027301438 -0.054487728 0.059527848 0.051827382
000100 53 32 a7 bd 58 16 97 3c a6 17 5c bd 37 ce 9d bd
       -0.081638955 0.018443272 -0.05373349 -0.07705348
000110 3a b0 aa 3a 06 aa 9f bd 81 8e c1 3c 5c ef 7a 3a
       0.001302249 -0.07796101 0.023627521 0.00095724105
000120 91 c7 99 bd 4d 84 79 bd f3 7c dc bc 4b eb 67 bd
       -0.075087674 -0.060917187 -0.02691505 -0.056620877
000130 07 84 5e 3d 6a 7f 61 bd cb 6a 33 3d a9 36 ec 3a
       0.05432513 -0.055053152 0.043803018 0.0018021661
000140 c3 01 a6 3d 0e 12 65 bd ec d8 33 bd de b9 7b bd
       0.08105805 -0.05592542 -0.043908045 -0.061456554
000150 89 8b 44 3c 37 78 22 3d 2e b0 12 bd 3a 24 2b bd
       0.011996158 0.039665427 -0.03581255 -0.041782595
000160 24 be 36 3d 15 0a 79 bd cf 05 ed 3c 11 d3 56 bd
       0.044614926 -0.06080063 0.028933434 -0.052447382
000170 0a 68 c8 3c 50 08 3f bd e8 27 27 bd ea 66 a6 bd
       0.024463672 -0.046638787 -0.040809542 -0.08125098
000180 70 73 bd bc df 38 56 3d 0f fd 92 3d ec c9 ad bd
       -0.023126334 0.05230033 0.07177173 -0.08485779
000190 71 e8 4a bd b1 71 84 3d 06 fd cf 3c 88 42 b4 bd
       -0.04953808 0.064669974 0.025389206 -0.08801752
0001a0 21 a6 ba bc d8 5b 91 3c f2 a2 ee 3c 48 47 f5 3c
       -0.022784295 0.01774399 0.029130433 0.029941216
0001b0 ab 00 58 bd a3 2a 82 bd db 24 ad bd 6e 03 5c bd
       -0.052735012 -0.063557886 -0.08454295 -0.05371421
0001c0 c9 4c f6 bc f6 b8 69 bd 68 84 af ba 87 74 c2 3b
       -0.03006591 -0.057061158 -0.00133909 0.0059343013
0001d0 3c bf 31 3d f3 93 31 3d 8b 78 81 bd 2b d2 05 3d
       0.043395266 0.043353986 -0.0632182 0.032671135
0001e0 0d 31 f7 bc 15 be 2f 3d 61 5c 09 bd 34 84 a6 3d
       -0.030174756 0.042905886 -0.033535365 0.081306845
0001f0 da 99 9b 3d ea d6 80 3d 25 a2 98 bc a2 5e 51 bd
       0.07597704 0.062909916 -0.018632004 -0.05111564
000200 9d 56 05 3c a2 a2 ab 3d df f8 74 3d f6 b9 42 bc
       0.008138326 0.08380629 0.059807654 -0.011885157
000210 08 61 eb bb 57 1e 81 bd 59 41 34 3c 4c 32 aa 3d
       -0.007183198 -0.06304615 0.011001908 0.083103746
000220 ed 5e af bc 19 f4 7c 3d 08 b0 eb bc f5 b4 99 bd
       -0.021407569 0.061756227 -0.028770462 -0.07505218
000230 af cb c0 3c 48 06 15 bd 0d 78 cb 3c 2c 55 20 bd
       0.023534624 -0.036382943 0.024837518 -0.039143726
000240 2d c0 07 3a f1 cc 9a 3d 4d c8 cb bc 42 a5 50 3d
       0.0005178478 0.07558621 -0.024875784 0.050938852
000250 bf e4 b3 3d 00 c3 9b 3d 50 dc a0 3d 22 07 3f bd
       0.08783864 0.07605553 0.07854521 -0.04663766
000260 01 a6 5d bc 6d 2c 93 bd 32 d1 f6 bc a4 3e 97 3d
       -0.013528348 -0.07186208 -0.030129049 0.073849946
000270 f3 50 4a 3d 2b ec 2b 3c 6f 2a 9f 3d c2 7b e5 bb
       0.049393605 0.010493319 0.077717654 -0.0070032785
000280 4c 11 26 bd 8a 28 ab 3c be 6b b0 bd e2 97 fe 3c
       -0.04054384 0.020893354 -0.086143 0.031078283
000290 2f c6 96 bd 6c 50 64 3b 30 8d 7b bd d1 73 20 3d
       -0.07362019 0.0034837974 -0.061413944 0.03917295
0002a0 20 a4 8b bd be c7 22 bd 9b 7b 78 bc a8 58 56 bd
       -0.06818414 -0.03974127 -0.015166189 -0.052330643
0002b0 b4 66 62 bd 39 7d 32 bd 11 c1 ac bd 51 a6 97 bc
       -0.055273727 -0.043576453 -0.08435262 -0.018511923
0002c0 97 4d 8e bd d3 77 95 3c 42 d5 fd 3c 76 d7 d8 3c
       -0.06948393 0.018245613 0.030985478 0.026469927
0002d0 3d ce ab bd d5 a7 1b 3b bc b1 80 bd 6b 10 b9 3c
       -0.08388946 0.0023751159 -0.062839 0.022590837
0002e0 ff de 17 bd 4b bf 74 3c 1f 83 3f bd 7a f1 3c 3d
       -0.0370779 0.014938186 -0.046755906 0.046128727
0002f0 ed 05 c3 3c 29 3f da 3c c9 a8 8c bd 8f 51 a9 bd
       0.023806537 0.026641445 -0.06868131 -0.08267509
000300 85 cf 97 bd e4 18 08 bd 79 87 96 bd df d5 9c 3d
       -0.07412628 -0.033226863 -0.07350058 0.0765798
000310 8e 24 b4 bd 13 9c 0c 3a 49 4c 94 bd b2 ee 61 3d
       -0.08796035 0.0005363833 -0.07241113 0.05515928
000320 ea 77 9b bd 6e 57 c3 3c 96 99 89 3b cd 24 6e bc
       -0.07591231 0.0238454 0.004199217 -0.014535141
000330 b2 8f 19 3d 78 f9 96 bd cd 0f a1 bd 4d c1 21 bd
       0.037490554 -0.07371801 -0.07864342 -0.039490987
000340 6d 12 77 bd b7 18 a6 3d 7c bf 7e bd f8 5c 8d bd
       -0.060320307 0.08110183 -0.062194332 -0.06902498
000350 b6 c7 7f 3d eb 24 5c 3d 1e 16 07 3d 7d ce ae bc
       0.06244632 0.053746145 0.032980077 -0.021338696
000360 e6 74 01 3d e7 1b d8 3c 1d 77 4f bd 40 ff 94 3d
       0.031605624 0.026380492 -0.050650705 0.072752476
000370 94 a7 3d bd a3 f6 ee bb 36 56 06 bd 5f 87 c0 bb
       -0.046302393 -0.007292585 -0.03279706 -0.0058755125
000380 22 e0 91 bd 12 c9 ae bd c0 9c ad ba e8 5c 25 3d
       -0.07122828 -0.08534445 -0.0013245568 0.040371805
000390 10 9d 05 bd 7e e9 ba 3c 3c 96 a3 bd ab 66 8c bd
       -0.03262049 0.022816416 -0.07987639 -0.0685552
0003a0 b2 0a 32 bd ca e2 a5 38 86 e3 b4 bd 49 b8 12 bd
       -0.04346723 7.910056e-05 -0.08832459 -0.03582028
0003b0 02 70 ae 3c cf 18 58 3d b9 e9 66 bd 4e 6d 5b 3d
       0.021293644 0.052758034 -0.05637524 0.053571038
0003c0 5f 7c 3b bc 4b dc 9b 3d 48 7b 93 bd a5 87 2c 3d
       -0.011443227 0.07610377 -0.072012484 0.04212155
0003d0 d7 1a bf 3d b2 6e 61 3d 2f 24 84 3d 04 ea 07 bd
       0.09331291 0.055037208 0.06452214 -0.03318216
0003e0 f5 83 58 3d bc f2 5f 3d 06 32 77 bd 10 f7 0c 3b
       0.05286022 0.05467485 -0.06035044 0.0021509565
0003f0 c9 6a f1 bc 9e b8 96 3b 54 48 2c 3c a7 43 2b 3d
       -0.029469864 0.004599645 0.010515291 0.041812565

network.4.weight f4 [9, 256]
000000 2c 30 72 bd c8 61 5a 3d 5e 82 3f 3d fa 56 bc 3b
       -0.05912797 0.053315908 0.046755187 0.005747673
000010 8d 3a 73 bd f4 de b6 3c 38 04 0f 3c 64 cf 43 bd
       -0.05938201 0.02232311 0.008729033 -0.047805205
000020 40 7a 51 3d 56 7f 1e bd 54 44 6f 3d da e1 3e 3d
       0.051141977 -0.038695656 0.058414772 0.046602108
000030 dd c0 a2 3b c9 88 1f 3d fa 2a e8 3c e7 54 75 3d
       0.0049668388 0.038948808 0.028340805 0.059895422
000040 93 3a 00 3b 5c c3 5f 3d 8f 5b 4f 3c b4 4b 03 3d
       0.0019566163 0.05462967 0.012656107 0.032054618
000050 07 c2 7c bc f5 5e 89 3c 71 cd d6 bc 4d e8 94 3b
       -0.015427119 0.016768912 -0.026221009 0.004544294
000060 d0 34 21 3d 02 b4 1e 3a ca 1d 62 3d 78 2c 65 bd
       0.039357007 0.0006054045 0.05520419 -0.05595061
000070 d6 66 c7 3c be c4 6d bd 94 fa c1 3c d0 c7 7a bd
       0.024341028 -0.058048956 0.023679055 -0.061225712
000080 40 1e f8 3c 6c 22 72 bd 20 74 77 bd 98 c3 78 3c
       0.030287862 -0.05911486 -0.06041348 0.015183352
000090 f1 ba 4f bd 1f a3 58 3d 82 7f 2f 3d d0 3a 2c bc
       -0.05071539 0.05288994 0.04284621 -0.010512069
0000a0 29 34 70 bd db 5e 56 bd 4f 5f 14 bd d3 16 62 3d
       -0.058643494 -0.052336555 -0.036223706 0.055197548
0000b0 96 69 52 ba d6 86 23 3d fa 94 79 bd 1a 28 14 3d
       -0.0008026598 0.03992351 -0.06093309 0.036171056
0000c0 10 02 00 bd 27 ea 15 3d 34 fd 44 bd e0 a6 9b 3b
       -0.031251967 0.03660026 -0.048093036 0.0047501177
0000d0 de af 19 bd de f6 79 3c 90 bd 53 3d d1 fc 18 bd
       -0.037521236 0.015256612 0.051694453 -0.03735048
0000e0 32 9b 46 bd 0b 4b fa 3c 09 8a 31 bd 08 ea 03 bd
       -0.04848785 0.030553361 -0.04334453 -0.03220561
0000f0 f1 a3 5a bd c8 f7 a1 3c 13 f8 32 3b b0 c2 3d 3d
       -0.053379003 0.019771472 0.0027308508 0.046328247
000100 d0 fc 28 bb 38 7a 8e bc ce 03 43 bd 97 b1 e0 bc
       -0.0025785454 -0.017392263 -0.04761105 -0.027428431
000110 2b a4 67 bc 80 22 2a 3d 77 0e f3 3b e7 97 ec bb
       -0.014138262 0.041536808 0.007417496 -0.0072202566
000120 79 44 d5 3c 3e c1 70 bd 98 14 da bc b0 6d a7 bb
       0.026033627 -0.05877804 -0.026621148 -0.0051095113
000130 70 c3 d9 3a e8 d8 31 bc 18 19 7c bd 01 3e 47 3d
       0.0016614031 -0.010854937 -0.06154737 0.048643116
000140 b0 c7 b0 3c 53 1e 70 bb 50 14 61 3c da f1 17 3d
       0.021579593 -0.0036639168 0.013737753 0.037095882
000150 22 20 4e bd ae 76 83 bd ae 5f 73 3d 87 12 34 3c
       -0.050323613 -0.06419121 0.05941742 0.010990745
000160 4c 77 27 bc 40 1f 75 bc da 07 aa 3c c8 44 d8 3c
       -0.010221314 -0.014961064 0.020755697 0.026399985
000170 5c 8d a5 bb 02 d0 6c bd 5c 42 2f bd ec 1a 9c 3c
       -0.0050522517 -0.05781556 -0.042787895 0.019055806
000180 41 75 5a bd fc f7 db bc 56 15 27 3d 5c 49 1e bb
       -0.05333448 -0.026851647 0.040791832 -0.0024152612
000190 fc 7f 7f bd 3c e6 84 3c b9 33 b5 bc 1a 78 f6 bc
       -0.062377915 0.016223066 -0.02211939 -0.030086566
0001a0 36 df 06 3c 28 df aa 3c 8a d2 94 bc 5c 09 a1 3c
       0.008231929 0.020858362 -0.0181668 0.019657783
0001b0 50 d9 a9 3b 65 7c d6 ba 38 a8 f6 3c 40 84 01 3b
       0.0051833764 -0.0016363977 0.03010951 0.0019762665
0001c0 ed 32 5a bd 5c 61 83 bd d5 a4 80 3c c8 33 dc bc
       -0.053271223 -0.06415054 0.015703598 -0.02688016
0001d0 68 9f bb 3c 1e 21 4e 3d 51 0c 2e bd 41 dc 3b 3d
       0.02290316 0.05032455 -0.042492215 0.045864347
0001e0 45 5b 19 bd b1 e8 ad 3c e5 79 55 bd 58 8e 24 3c
       -0.037440557 0.02122912 -0.0521182 0.010043703
0001f0 9a 3e 03 3d 17 07 74 bd c0 82 c8 ba 3a 50 3c bc
       0.032042123 -0.059577074 -0.0015297756 -0.011493737
000200 9f 3d 17 bd f4 9a 06 3d 40 68 45 3d 24 86 4e 3d
       -0.036924 0.03286262 0.048195124 0.050420895
000210 4e d1 b7 3c 76 8d 85 bd f8 1c 53 3d 41 8a 82 3b
       0.022438671 -0.06521122 0.0515413 0.0039837663
000220 f5 be 6b b8 70 46 a5 3c bc 51 c7 bc 76 c3 c1 3c
       -5.620621e-05 0.020175189 -0.024330966 0.023652773
000230 90 4e 43 bd 46 7e 51 bc 9d 28 8e 3c 77 7f 56 bc
       -0.047682345 -0.012786454 0.01735335 -0.013091913
000240 48 b0 13 bd 41 ba da 3c 90 8e 07 3d 8c 41 46 3d
       -0.036056787 0.02670014 0.033094943 0.048402354
000250 16 dc 5e bd 4e 08 40 bd 18 a3 9a bc 92 90 80 bd
       -0.05440911 -0.04688292 -0.018876597 -0.062775746
000260 a8 a6 c7 3c 90 64 5c 3d 8e d5 e8 3c bc 95 11 3d
       0.02437146 0.05380684 0.028422143 0.03554319
000270 0b 9e 24 3c f6 5e 5f bd f3 55 51 bd 08 f3 e4 bc
       0.010047446 -0.05453392 -0.05110736 -0.027947918
000280 3b e3 27 bd c9 34 4d bd df 04 46 3d 78 a4 e5 bc
       -0.04098819 -0.050099168 0.04834449 -0.028032526
000290 e6 22 12 3d a9 b5 21 3d 76 68 74 3b 43 f5 23 bd
       0.035677813 0.039479885 0.003729371 -0.04002882
0002a0 f0 43 29 bc d6 07 04 bd 0a d9 9e bc e8 a4 76 bd
       -0.010331139 -0.032234035 -0.019390602 -0.06021586
0002b0 d1 03 28 3d 0d 10 fe bc a2 e3 92 bc 07 96 43 3d
       0.041019265 -0.031013513 -0.01793081 0.0477505
0002c0 f0 e8 1d bd 40 b5 7d 3d e7 52 7c bd 5b 02 51 3d
       -0.038552225 0.06194043 -0.0616025 0.051027637
0002d0 e0 ba 10 3c b6 02 a0 3c 71 ab a5 bc 60 fb 00 3b
       0.008833617 0.019532543 -0.020223351 0.0019681081
0002e0 b8 4e 77 bd 20 21 0f 3d 93 8b 3f 3d 3a e6 42 ba
       -0.060377806 0.0349437 0.046763968 -0.0007434819
0002f0 ef 8a 4c 3c ca 70 20 3c 9a 76 70 3d d7 be 1b bc
       0.012484296 0.009792516 0.058706857 -0.009505949
000300 bb f9 b2 3c c7 f9 20 3d ee 9e 56 3d b0 d5 59 bd
       0.021847596 0.039300706 0.05239766 -0.053182304
000310 7f 34 2c 3d 98 92 2a 3d 78 71 e1 3c cd 6e 91 bc
       0.04204225 0.04164371 0.027519926 -0.01775303
000320 68 03 78 bd d4 49 20 bd 90 b9 10 3c 2d 54 63 3d
       -0.060550123 -0.039132908 0.008833304 0.0555002
000330 ae 4e 6e bc 80 a4 0b ba 60 8d 08 bd 84 a6 a3 bc
       -0.014545126 -0.00053269416 -0.03333795 -0.019976862
000340 00 64 3b 3b 62 65 ad 3c 16 fe 60 3d 00 6b 55 3c
       0.002859354 0.021166507 0.054929815 0.013025999
000350 39 d6 39 3d a4 28 55 bd 24 83 c9 3c aa 5a 4f bd
       0.045370314 -0.05204071 0.024598666 -0.050623573
000360 d8 b0 72 3d 40 97 d0 3c 64 2e 9c 3b ea 9f 08 bd
       0.059250683 0.025462747 0.0047662724 -0.03335563
000370 04 fa 60 bd cc 38 8f bc 81 62 20 3d f2 b7 d2 bc
       -0.054925933 -0.017483138 0.03915644 -0.025722478
000380 79 6f 05 3d e0 e7 3f bd 55 06 b9 3c c7 ed 19 bc
       0.03257701 -0.046851993 0.022586027 -0.009395069
000390 26 c8 2e bd 62 8f d6 bc c0 75 66 bc 44 08 78 bd
       -0.042671345 -0.026191417 -0.01406616 -0.060554758
0003a0 1e 29 59 bd 5d 5f 34 3d d8 5e 2a bd dc a7 95 3c
       -0.053017728 0.044036258 -0.041594356 0.018268518
0003b0 80 05 cb 3b e4 1f 57 bd d1 19 28 3d 96 24 27 3d
       0.006195724 -0.052520648 0.041040245 0.040806375
0003c0 10 14 00 3d c2 76 85 3c 87 96 a1 ba 38 10 fd bc
       0.031269133 0.01629198 -0.0012328186 -0.030891523
0003d0 85 f9 14 bd 2c db a8 bc ef ae 09 3c ef 73 75 3d
       -0.036370773 -0.020612322 0.008403524 0.059925016
0003e0 98 85 fa bc 77 1c 56 bc 37 3b 58 3c 7d 53 44 bd
       -0.03058128 -0.01306831 0.013197712 -0.047931183
0003f0 d9 e6 86 3c 4b 7f 53 3d a8 2e 69 bc af 85 63 3d
       0.016467499 0.051635068 -0.014232315 0.055547412

network.4.bias f4 [9]
000000 6e 5b 28 bd 31 1c 07 bd bf ad 5e 3d 60 84 82 3d
       -0.04110282 -0.03298587 0.054364916 0.06372905
000010 82 6a 5a 3d 33 f5 86 3c 5b 47 aa 3c 58 3e 11 3c
       0.05332423 0.016474342 0.020785978 0.008864962
000020 d4 56 09 3d
       0.03353007
