actor.pth (torch, 148423 bytes, 6 tensors)

network.0.weight f4 [128, 9]
00000000: 411d 993e d65b dd3d d059 fd3d 5c9f 7b3e
00000010: 43e2 19be 5a0b 2bbe 5284 d0be 695c 80be
00000020: 5e4c 8b3e bd09 f6bb f499 a03e e154 9bba
00000030: eea5 7abe b34a 233e cc19 573e 8596 ab3e
00000040: 0835 c8bc f2b5 81be 3387 23be a6e6 de3b
00000050: b4f0 a23e 8dc8 94bd 87c3 9abc 7c80 94bd
00000060: 2c1f 493e 6e68 35bb 3336 92be 8589 6ebe
00000070: e713 79be 1ccc 91bd 5f7f 19be dc55 103e
00000080: b03d 97be f176 733e 29c4 f93d 68c5 d23e
00000090: ac51 543e c272 8a3e a23e 7f3e 1699 85bc
000000a0: dc00 0a3e 7cef 4f3e 1a95 f23c 3316 49be
000000b0: c795 9fbe 780f 8b3e dd93 d6bc 34fc edbd
000000c0: a883 bf3e 9442 873c 258c 323c 9051 c5bd
000000d0: 65b7 423e 801e 0e3d 9c1f 31bd de59 e33d
000000e0: 1f05 583e 4358 4dbe c7b4 d8bc 874d 48be
000000f0: 0dc7 c43e 006c ab3e 8923 a0be 405c 3cbd
00000100: b6f5 893e 7773 013e 71e0 963e 27d4 87bd
00000110: 19b5 563e 3c24 dc3d 2d69 873e 53ec 7dbe
00000120: 91b7 273e 34a3 8ebe 1f39 33be 74d1 843d
00000130: 6584 95be 2560 81bd 696c d43d a471 46be
00000140: c077 c6bd c893 a6bd e2bb 7abe e1af aa3e
00000150: df80 633d ba9a 98be 37c2 aa3e 601e 833d
00000160: f992 24be 79d0 67bd fe45 0e3e 423b 303e
00000170: cfd1 013e 1986 9bbe ba21 8b3e c07b 7ebd
00000180: af8c 95bd 219f 7fbe c563 39bc a324 173e
00000190: cc7c fd3d 4cc3 e43d c53b d93d 0db2 dd3c
000001a0: 73ae eebd 65d9 213c 8d76 a0be 0d2d 163e
000001b0: a495 27bd b1f0 aa3e a92a a63e 5573 4b3e
000001c0: 6124 61bd 453c 8cbe 3b4c 453e e37f 503e
000001d0: 1ccd 7bbe 4497 93be 494e ebbd 2a02 b13e
000001e0: 79fc a43e 80d0 1a3e cb9d f4bd 3aef 98be
000001f0: ac1f 86be 70d7 cbbd 0f83 8abe 2ab7 1c3e
00000200: 2cad 12be f4ce 613e 30d7 edbd 7723 c83e
00000210: 5196 ff3d 2631 2d3e 7dea 9b3e 6364 7a3d
00000220: 5f1f f7bc b9a7 1abd 50ae 9fbe 72a9 c13e
00000230: 72d5 3dbe 2808 b5bc 688f 683e bf76 8e3e
00000240: 977f 243d 184e 703e a2aa 8dbe 48ec cbbe
00000250: a768 17bd 9e8c 2ab9 dfa1 e53d 83e3 803e
00000260: d63c 9b3d 3b72 99bd b7ad 5e3e daba 7a3b
00000270: ab22 a23e 5be6 9fbe 2253 2d3e df4c eb3d
00000280: 0517 86be 0cf6 bcbe f191 49be dfa8 013d
00000290: 9be7 93bd d87c 653e 60af c6bd d38d e8bc
000002a0: 47d8 9f3e 085a 7ebe 776d 37bb 4336 0dbe
000002b0: 3006 53be d659 cfbd 76d6 22be 1351 1d3e
000002c0: 5a0c 953e 8b8b 01bd 436c 7ebe 3e03 99be
000002d0: 950e 973e e1fe f13d dc85 c2bd 3850 39be
000002e0: 2193 69be 19c9 0abe f779 0cbe 673a 0dbe
000002f0: fdf2 b83e afbd 2fbe 9898 3c3e b86e 943e
00000300: 007d 3c3e 4268 4f3e 2f53 27be 1d67 8a3e
00000310: c885 95be 493f b1be 4b00 8ebd e8f6 5abe
00000320: 6f51 8cbe b8ef 143e 8722 81be 83f9 493e
00000330: 26bb c6bd d6ea 25bd 469a e03d 483a 66be
00000340: abbc d8bd 04d1 93be 03ec 40be 6ef0 09be
00000350: a615 87bd 60be 603d 8a06 9cbe 1e92 013e
00000360: 080f 443e 505b 3cbd ea5e 923b e3fe aabe
00000370: f6f4 653e 3555 8e3e 6b90 fbbd eccd 44bd
00000380: 9eee b9be ca6d 703e 8441 4e3e 912a 64be
00000390: 980c f5bc cc67 c13e 6fcd b7bc 9771 6f3d
000003a0: 870f 8abe b1a3 dabd df0a 123e 7326 e0bd
000003b0: 97e5 7d3e 67ad a3be bc9e 5e3e 4a20 13be
000003c0: e91d 0fbe 8f6d 063e d985 8dbe 8bde 4d3e
000003d0: e187 44bb f44a b33e 05b2 7fbe d71e 373e
000003e0: 588d 933e 78cd 30be 2456 38be 4c26 7abe
000003f0: 155e 803e 60e0 933e da9d ce3d 9b27 6e3e
0.2990513 0.10808532 0.12370646 0.2457251 -0.15027718 -0.16703549 -0.40725952 -0.25070503
0.272067 -0.007508485 0.31367457 -0.0011850857 -0.2447736 0.15946464 0.21005934 0.33513275
-0.02443935 -0.25334126 -0.15969543 0.006802398 0.31824267 -0.072648145 -0.018892063 -0.07251069
0.19640797 -0.0027680653 -0.28556976 -0.23294647 -0.24323998 -0.07119009 -0.14989994 0.14095253
-0.2953925 0.23775841 0.12195618 0.41166234 0.2073428 0.27040678 0.24926236 -0.016308349
0.1347689 0.203062 0.029612113 -0.19637375 -0.3116896 0.2716024 -0.026193554 -0.116203696
0.37405133 0.01651124 0.010897671 -0.096346974 0.19015272 0.034697056 -0.043243036 0.11101125
0.21095704 -0.200532 -0.026453389 -0.19560824 0.38433114 0.33480835 -0.3127711 -0.045986414
0.26945275 0.12641703 0.2946811 -0.06632262 0.20967521 0.10749099 0.2644743 -0.24797182
0.16378619 -0.2785889 -0.17502259 0.064852625 -0.29202572 -0.06317166 0.1037224 -0.19379288
-0.09690809 -0.08133656 -0.24485734 0.3333731 0.055542823 -0.29805547 0.333513 0.06402278
-0.1607169 -0.0565953 0.13893887 0.17210105 0.12677692 -0.30375746 0.2717417 -0.062129736
-0.07302224 -0.24963047 -0.011315291 0.1476007 0.12377319 0.111700624 0.10607103 0.02706244
-0.11654367 0.009878491 -0.31340447 0.14665623 -0.040914193 0.33386758 0.32454422 0.19868214
-0.054966334 -0.27389732 0.19267361 0.20361285 -0.24589962 -0.28826344 -0.11489541 0.34571964
0.3222387 0.15118599 -0.11944159 -0.29870015 -0.2619604 -0.09953201 -0.27053115 0.15304247
-0.14323872 0.22051603 -0.116133094 0.39089558 0.124798425 0.1691328 0.30452338 0.061130892
-0.030166326 -0.03775761 -0.31187677 0.3782459 -0.18538454 -0.022098616 0.22710955 0.2782497
0.04016074 0.2346729 -0.27669245 -0.39828706 -0.03696504 -0.00016264847 0.11212515 0.25173578
0.07579963 -0.07492491 0.21745954 0.0038258345 0.31667075 -0.31230435 0.16926244 0.114892714
-0.26189438 -0.3690647 -0.19684578 0.03165519 -0.072219096 0.22410905 -0.09701419 -0.02838794
0.31219694 -0.24839032 -0.002798883 -0.1379023 -0.20607829 -0.10124557 -0.15902123 0.15362959
0.29110986 -0.03162722 -0.24845986 -0.29885286 0.29503313 0.118161924 -0.09498188 -0.18097007
-0.22810031 -0.13553275 -0.13718401 -0.1379181 0.36122885 -0.17162202 0.18417585 0.28990722
0.18407059 0.20254615 -0.16340326 0.27031794 -0.2920363 -0.34618595 -0.0693365 -0.2138325
-0.2740588 0.1454457 -0.25221655 0.19724087 -0.097036645 -0.04050716 0.10966925 -0.2248317
-0.105828606 -0.28870404 -0.18840031 -0.13470623 -0.06595926 0.054869056 -0.3047374 0.12653396
0.19146359 -0.04598552 0.004466881 -0.33397588 0.22456726 0.27799383 -0.12283405 -0.048047945
-0.36314863 0.23479381 0.2014218 -0.22281863 -0.029913232 0.37774503 -0.022436826 0.058457937
-0.2696497 -0.10675753 0.1426196 -0.109448336 0.24794613 -0.31968233 0.2174024 -0.14367786
-0.13976254 0.13127731 -0.2764118 0.20104425 -0.0029988217 0.35018122 -0.24970253 0.17882858
0.28818774 -0.1726588 -0.1800161 -0.24428672 0.2507178 0.28882122 0.100887015 0.23257296

network.0.bias f4 [128]
00000000: d222 fc3d 20a1 17be b545 0d3e 838c 393e
00000010: c1d6 013d 027b 2abe e542 963d c04d 6e3e
00000020: 84ef 0a3e 30bd 7c3e d234 80be 43a9 8ebe
00000030: 5f69 56be 09e5 7c3e d4fb 4ebe 9a4b f6bd
00000040: af9e e03d ae61 b13c 9b53 3cba c011 a5bc
00000050: 65bc 0d3e 5f57 88bd 3675 5b3d f801 5fbe
00000060: eeba 693e a7a7 613e c6b1 a5bd 2be7 91bd
00000070: 3ca5 853d dedc 6b3e c54c 38be de73 7a3e
00000080: f7a9 643e b6b0 6d3d fbee 983e 8448 a53d
00000090: de18 7f3d 1029 b6bc 6ee5 3e3e 96d1 c63d
000000a0: 7447 9a3e 825b 25bd 3f81 843e 5b74 2fbe
000000b0: 3988 a83e 36fd c73e 9561 3f3c 1760 293e
000000c0: 9462 92bc 44be 6b3e aaa2 6cbe 141c a23e
000000d0: d8cb 253d f8c4 ff3c 87bf 233e 109a a6be
000000e0: 0409 82be 88f4 cc3d a7d7 b73d 8dd6 88bd
000000f0: 04fd 67be 0714 90be bb04 9bbe 76aa 733e
00000100: 8770 a63e ca1c 80be 7c53 e03d 42ae a1be
00000110: b81a 113e 4e9a 823e 43ea f93a c36d 9b3e
00000120: 149e 293e 1628 debc cbcb ad3e 536d 6ebe
00000130: 466f 45be e24d 843e a6e5 123e c668 9c3e
00000140: dbee 133d 10d6 b13e 01c3 673c bb3c bcbd
00000150: d220 90be f27b 833e 11f7 77be 2792 88bd
00000160: 38c8 4a3e 000e c5bd 3fb4 fdbc dc3d 673e
00000170: cf5d 84be eb53 aebd e064 963e 07b3 75be
00000180: ad3d 63be 0b57 113e 76f8 f3bd 099d 60be
00000190: 9080 e4bc bb5f b23d 0576 df3d e1f6 653d
000001a0: 7d0b 7b3e 5ac2 b5bd 036b 1b3e 35d4 4d3e
000001b0: 17e5 0d3e 316d 33be 54d1 9dbd 9797 cb3e
000001c0: 85b6 b93d 799a a3be fbf7 703e 0c6e 2b3d
000001d0: 98d7 ad3e 31e5 de3d 4623 08be 8f40 07bd
000001e0: 5e7b 2d3e e343 053e 648a 333e 1e33 64be
000001f0: 0f70 893d 6bec 9cbe bc81 813d 8b2a b23b
0.12311329 -0.14807558 0.13796122 0.18120007 0.031698946 -0.16648486 0.07336978 0.23271847
0.1356793 0.24681544 -0.250403 -0.2786351 -0.20938633 0.24696745 -0.20213252 -0.120261386
0.109677665 0.021653023 -0.0007184089 -0.020150065 0.13841398 -0.0665729 0.053578578 -0.21778095
0.22825214 0.2203661 -0.08090548 -0.0712417 0.065256566 0.23033473 -0.17998035 0.24458262
0.22330461 0.058029853 0.29869828 0.08070472 0.062279575 -0.022236377 0.18642208 0.09707944
0.3013264 -0.04037047 0.25879857 -0.1713423 0.3291643 0.39060372 0.01168098 0.16540562
-0.017869271 0.230218 -0.23108926 0.31662047 0.040477604 0.031221852 0.1599103 -0.32539415
-0.25397503 0.10007578 0.08976679 -0.06681547 -0.22655112 -0.2814028 -0.30277047 0.23795494
0.32507727 -0.25021964 0.109534234 -0.3157826 0.14170349 0.2550835 0.0019067008 0.3035718
0.16564208 -0.027118724 0.33944544 -0.23283891 -0.19280729 0.2584067 0.14345416 0.30548686
0.036116462 0.3473363 0.014145614 -0.09191271 -0.2815004 0.256805 -0.24215342 -0.06668501
0.1980294 -0.09621811 -0.030969737 0.22582191 -0.2585282 -0.085121 0.29373837 -0.23994075
-0.22191496 0.1419336 -0.119126245 -0.21934904 -0.027893335 0.087096654 0.10911182 0.056143645
0.24516101 -0.0887496 0.1517754 0.20100482 0.13856922 -0.17522122 -0.07705942 0.3976409
0.09068016 -0.3195379 0.23532097 0.041852996 0.33953547 0.108835585 -0.13294706 -0.033020552
0.16941592 0.13014178 0.1753326 -0.22285125 0.067108266 -0.30649123 0.06323573 0.0054372004

network.2.weight f4 [256, 128]
00000000: 4b59 b53d f1c5 f4bd 3414 52bd 2849 8f3d
00000010: 1592 ee3c 3199 8e3d 249c 5e3c 8c8a ca3d
00000020: fc5b bc3d d763 4b3d 3b6a 893d 93a1 bd3c
00000030: d132 c93d 528f ce3d 7750 9fbd 6002 9bbc
00000040: be1a f9bd 3311 60bc c4de c83d cd07 a8bd
00000050: 19de 153d c0ad 4b3d 4e33 8bbd ca93 2cbd
00000060: dca4 0bbe 6cc6 3abd 1590 5cbc 323c 9a3c
00000070: 9ef4 bb3d 22cd c13d 51b3 d13b a976 8e3c
00000080: d0f0 183d 43d0 75bd acc1 b53c 9e93 203d
00000090: c991 1ebd 14cc 03bd 76b3 d8bd ae72 993d
000000a0: a323 5bbd d00d 85bd 464b d43d 6ddb 24bc
000000b0: 6d80 6a3d 73c2 523e 35d9 e83c bb9c e8bd
000000c0: b6cd 7bbb a175 283c 7255 ae3d 6b83 d0bc
000000d0: 4e3d 67bd c81d 893d dc74 253e 29a5 ab3c
000000e0: f858 5dbb 81b8 5c3d e0a7 fdbb 930e 04be
000000f0: b4de 6d3b 22fa 683d 486c 48bc bcda e23c
00000100: dcbc d83d 49de 88bd b080 dc3d 6d46 a83c
00000110: 49f1 10bd 1e8f d5bd c115 913c a4d9 c8bd
00000120: a9e4 a33c 3224 bd3c da15 163e 217a 1a3d
00000130: 8e25 113d 3a91 13bd ff5f e03c c15c 3a3c
00000140: 8114 813c 805c 5b3d e4ce 5cbc cb1a c13c
00000150: 8e96 0fbe 938b 0ebd 3b73 0dbd 7d07 4fbd
00000160: 5432 b4bd cf3d 783c 12cd 7f3d 6cac babd
00000170: 8665 8d3c dab9 36bd ed62 b63d 5952 163d
00000180: f4da 463d 4289 febd b506 8fbd 3d20 bdbc
00000190: 983f 053e 0d51 cabc 739c 263c 1e3c f03d
000001a0: cc29 68bd c1bf 2d3d f988 a9bb 8b32 0f3d
000001b0: 1c7e 383d f7ec 1e3e c784 673d 9b9b 00be
000001c0: 0bd8 3ebe 74a9 2f3d 2538 523d 28a4 9cbd
000001d0: 3302 c63d 216f 723d 0f4b dcbd 904c bbbd
000001e0: b332 903d 567f cbbc 8508 d13d d6c3 09bd
000001f0: 9fc8 49bb f978 a83d d840 c13c 1b7d d33c
00000200: 1add 00bd cb51 fdbc dbf7 cd3d 9876 253c
00000210: c73f 98bd 95bf 76bd 375d 523c dfbe d63d
00000220: d796 cfbd 80c1 94bd cc8f 733d 36e6 b0bd
00000230: 27c9 823d 84ce d5bc c3e2 633d dda0 b33d
00000240: a16f 5c3d 9d41 73bc cc37 eabc ff8f 76bd
00000250: b47f f6bb e013 503d e827 ecbc b13e 96bd
00000260: 65eb 4839 f203 8b3d a04f 78bd 1a94 a9bd
00000270: 48af 0ebd 087c 403d bbd3 103c ca49 ec3c
00000280: e078 0ebd b0a8 1a3d 9e84 4bbd 8497 0f3d
00000290: f77b 8fbd 4214 89ba cf1a 813d 4e9a 86bd
000002a0: 4ac0 f33d c8f3 ecbc afe1 5b3c 69c6 7b3d
000002b0: 19b7 173d f8af 163d 5f12 a33d e276 1b3d
000002c0: 5f99 983c 1f7c 2bbc d58c 343d 6f81 27bc
000002d0: 5694 6fbc 5535 883d 8752 d13b cb4f 243c
000002e0: 483c f6bc b047 78bd a2fa 74bd 5e1f a33d
000002f0: 6e96 673d eb70 f4bb 544d 84bd dd83 bd3c
00000300: fa88 5fbd 310c d8bc 9627 9e3d dbea 66bd
00000310: 426d a1bd 3a77 18bd 0ddd a1bd 917d 88bc
00000320: 313b 703b f102 2c3d 8aeb a63d fd92 cfbd
00000330: 2077 353d f3d0 593c 59f9 3c3d f9ed b5bd
00000340: 9d2f bb3c fc25 603d 18e5 f63b 789e 8abd
00000350: b08f bf3d 7913 683c 269f a83c 325d 973d
00000360: fd33 a83d 6c6f 92bd 4ae2 d63c 6dfe 56bd
00000370: deed d83c b349 28bd 3d42 e43c e8a3 bfbc
00000380: 30f5 77bb 7a52 b93b 4703 ab3d 334d cd3b
00000390: 45f0 b6bc d0f1 82ba 4f13 8d3c ebf5 15bd
000003a0: 6482 4a3d 1e74 0f3d 5899 93bd a1c3 47bd
000003b0: d9d1 b13c 17a6 2d3d a55b 9c3d 8b9c 83bd
000003c0: c86c 3fbd 4db7 673d 7944 48bb 46a6 7a3b
000003d0: b725 a13d 01ce 98bb b39c b0bc 9dbb 533d
000003e0: f17a 8c3d ed36 b13d 9da4 f43d 3726 993d
000003f0: c206 9c3d e6bf a23d ecd1 b53d 659a 74bd
0.08854922 -0.11951817 -0.0512888 0.06996375 0.029122392 0.06962813 0.0135870315 0.09889707
0.09197232 0.04965576 0.06709715 0.023148334 0.098241456 0.1008593 -0.07779019 -0.01892203
-0.12163304 -0.013675976 0.09808114 -0.08204613 0.036588762 0.049726248 -0.06796895 -0.04213313
-0.13637108 -0.045599386 -0.013462086 0.018827531 0.091775164 0.09462954 0.00639955 0.017390566
0.03733903 -0.060013067 0.022187077 0.03920328 -0.03871325 -0.032177046 -0.105811045 0.074925765
-0.053500783 -0.06496775 0.1036592 -0.010062081 0.057251383 0.20581989 0.028423885 -0.11358019
-0.0038422174 0.010281951 0.08512391 -0.02545329 -0.05645495 0.066951334 0.1615786 0.020952778
-0.0033774953 0.053886894 -0.0077409595 -0.12896185 0.0036296071 0.05687917 -0.0122328475 0.027692191
0.10582897 -0.066830225 0.10766733 0.020541394 -0.035386357 -0.10427688 0.017710568 -0.09807137
0.020006495 0.023088548 0.14656773 0.037714127 0.035436206 -0.03602717 0.027389525 0.011374653
0.015756847 0.05355501 -0.013477061 0.023572346 -0.14022276 -0.034801077 -0.03453372 -0.05054425
-0.08798662 0.015151455 0.06245143 -0.09114918 0.017260324 -0.044610836 0.08905587 0.036699627
0.048548654 -0.124285236 -0.06983701 -0.023086661 0.1301254 -0.024696851 0.010169136 0.117302164
-0.056680486 0.0424192 -0.005173799 0.03496031 0.045042142 0.15520082 0.05652311 -0.12559359
-0.18637101 0.042886212 0.051323075 -0.07648498 0.09668388 0.059188012 -0.10756504 -0.091454625
0.0704092 -0.024840992 0.10206703 -0.03363403 -0.0030789746 0.08226199 0.02359049 0.02581649
-0.03146086 -0.030922791 0.1005704 0.010099076 -0.074340396 -0.0602413 0.012839607 0.104856245
-0.10136192 -0.0726347 0.059463307 -0.08637659 0.06386023 -0.02609945 0.05563618 0.087709166
0.053817395 -0.014847186 -0.02859106 -0.06019592 -0.0075225476 0.050800204 -0.028827623 -0.07336176
0.00019161178 0.06787862 -0.06062281 -0.08280201 -0.03483513 0.046993285 0.008839543 0.02884378
-0.034783244 0.03775853 -0.04968702 0.035056606 -0.07006066 -0.0010458308 0.063039415 -0.065724
0.119019106 -0.028924838 0.013420506 0.061468516 0.03703985 0.03678891 0.079624884 0.037955172
0.01862782 -0.0104666045 0.04407962 -0.0102237305 -0.014622768 0.06650797 0.006388012 0.01002879
-0.030058041 -0.06061524 -0.059809335 0.07964967 0.056539945 -0.00745975 -0.06460062 0.023134166
-0.05457399 -0.026373 0.07722394 -0.05637632 -0.078821674 -0.03722308 -0.0790349 -0.016661437
0.0036656375 0.041994993 0.08150394 -0.10135458 0.04430306 0.013294446 0.046136234 -0.0888328
0.022849852 0.054723725 0.0075346343 -0.06768507 0.09353578 0.014164799 0.0205837 0.073908225
0.08213041 -0.07150158 0.02623095 -0.052488733 0.026480611 -0.04108591 0.027863616 -0.023393586
-0.0037835352 0.005655584 0.083502345 0.0062653064 -0.022331366 -0.0009990279 0.017221121 -0.03661148
0.049440756 0.035022847 -0.072069824 -0.04877055 0.021706508 0.042394724 0.07634667 -0.064263426
-0.0467346 0.056571294 -0.003055839 0.003824608 0.07868522 -0.0046632295 -0.021559095 0.051692594
0.06859387 0.086530544 0.1194546 0.07477992 0.076184765 0.07946758 0.0887793 -0.059717555

network.2.bias f4 [256]
00000000: ad8b 313d 21c5 cf3c b374 743d 3daa a7bd
00000010: a7bb 843d 9349 893d 127d ceba e789 743d
00000020: e6bb cd3d 58f6 c33d 67a3 e4bc 9dbd b23c
00000030: 0f18 0cbd 719d 643d 5c81 86bd ad3d 0e3d
00000040: 5817 40bd c809 8b3c 5659 ae3d a351 943d
00000050: 567e 5fbd 22fb 93bd 3693 173d 2850 953d
00000060: a216 61ba 3e82 8bbd fa24 9f3d 22aa feb8
00000070: 62e1 ac3d 88fa 2a3c 1054 afbd 9c62 c23d
00000080: 029d 3a3d 53da 90bd 4458 183d 2e64 92bd
00000090: a3e3 09bc 3032 b1bc c6ba 1e3d c591 c3bc
000000a0: 190a 49bd 58d4 803d 8b6a c3bd 0d57 7a3d
000000b0: f959 173d 0751 d63d 2f9b d23d 7cb4 363d
000000c0: 6b94 953d e339 263d 94e0 753d bc55 88bd
000000d0: b8fe b13d c55d 38bc 0e8d 693d 6b87 293d
000000e0: 963a 18bd 2dc7 18bd a250 0cbd 6273 6cbd
000000f0: 6742 a03d 9dbb 993d 0ae3 b1bc a5b0 103d
00000100: 3b2a 5d3c 3ca0 9b3b 2a48 343c a10c ad3c
00000110: c63b d7bc 7bf7 b33b 29c4 0c3c 1f59 ad3d
00000120: ae94 d8bc 1d54 a33d 8f81 bd3d c37d 343d
00000130: 6a81 8cba dacc 173d 5c01 fcbc 656a 5d3d
00000140: 532a 4dbc a9d2 d83c 1f48 65bd d3cd d3bc
00000150: b6a8 213d 3961 2fbc cc32 34bd 23ac ab3d
00000160: ee41 9e3d ac32 03bd dd55 1d3d d8a5 143d
00000170: b165 913d e4ef 95bc ec60 cc3c 70c9 8d3d
00000180: f2a1 0e3b ca0a 793d 4abb aabc a4ac b33d
00000190: 68b8 373d 1a36 643d d7f7 9d3d 66a6 31bd
000001a0: 7182 3cbd 193e 27bd 7b7d aa3d ba91 d03c
000001b0: 61a3 b93d 017c 1ebd 1408 9c3d cebe 8ebd
000001c0: 56bd bb3d 6e3c 8abd be55 28bd c887 0abd
000001d0: 53ef 963c a64a 5c3d d40e b3bc 24e6 8dbd
000001e0: 8266 b93d ca71 be3b 6700 ce3d 1c8a 55bd
000001f0: 86f1 f03c 9374 83bb 517d 123d 4b4c 7b3d
00000200: dd3d 603a 7a89 dd3d 631f 563d 52eb 2bbc
00000210: 463a 563d f5a0 c13d b2e3 a13d 0f6f 0d3b
00000220: 0902 943c ea05 c53b 02be 93bd 77d5 723d
00000230: bb32 82bc 1a70 ac3c 05d1 93bd 5b0a 873b
00000240: ad43 893d 869e 293c 0138 12bd 061c 6cbd
00000250: 4a48 9f3d c92d 21bd eb4c 01bd 2138 30bd
00000260: b068 d93d 55a6 dfba bd3f 72bc 5ae1 913d
00000270: 75b0 3f3d 8677 7a3d 53d6 593d 4d7c 9b3d
00000280: 131a 89bd 4b7f 31bd e53e 79bd 9f82 d83d
00000290: 03ed 45bd 23a8 90bd 35d7 80bd 46b5 28bd
000002a0: e146 c0bd cd7a 5b3d 0da7 b53d f895 a23d
000002b0: 3263 5fbd 36e2 0b3d 28ce bb3d a264 2fbd
000002c0: acd7 2d3b c4a1 4c3d beeb 92bb 9289 863c
000002d0: e5c0 e8bc 2a34 e2bc d47c 88bd b46f 75bd
000002e0: e510 2cbd 6a0d f83c 7618 923c abb4 9ebd
000002f0: da36 87bd 5c55 3ebd 46eb aebd 2f91 c8bc
00000300: 68fe 3dbd 899b 0b3d 5a24 dc3c da9d 95bd
00000310: 9526 f4bc 5359 6fbd a17c bbbd d88e 343d
00000320: 366a 823d d388 8dbd b10b 4e3c a01c 363d
00000330: a9dc 89bd 19ba a7bc 758e bf3d 80ca 8b3d
00000340: 0dac aabc 71f9 c2bc 494d b2bb b321 9f3d
00000350: 4f5c b93c 042f 953d 4aaf d53c 0312 fa3b
00000360: a399 a1bc e2f1 1e3d 5632 0d3d c5a3 cf3d
00000370: 508f de3d d669 b43c fbb7 73bd 6582 8fbd
00000380: 91a8 9ebd 5c89 133c f587 143d 8a28 893c
00000390: e02f 72bd 4a82 903d b28d d23d ae19 ae3d
000003a0: e82a c73c 9ff8 a13b 9b17 41bc 4a90 5f3d
000003b0: 3e8f 7fbd fd90 ac3c a27f d83d e33b 1abd
000003c0: d3c6 3cbd c096 733d 317d 213d 31a4 ac3d
000003d0: a614 a83d d170 a4bd 84b7 8bbd 0f61 50bd
000003e0: 88e6 d13c f432 1dbd a574 ad3d ea8b 5b3d
000003f0: c61e 483d c15a 083d df06 d1bc 8479 9b3c
0.043346096 0.025362553 0.059681606 -0.08186767 0.06481104 0.06703486 -0.0015753827 0.059701826
0.100456044 0.09568471 -0.027909948 0.02181893 -0.03420263 0.05581421 -0.06567642 0.034726787
-0.046897262 0.016972438 0.08513133 0.072421335 -0.054563843 -0.07225634 0.037005626 0.07290679
-0.00085864414 -0.06811951 0.077707246 -0.000121433535 0.08441426 0.010435708 -0.085609555 0.094914645
0.04555989 -0.07072892 0.03719355 -0.07148014 -0.008416089 -0.021630377 0.03875234 -0.02387322
-0.049081896 0.06290501 -0.09541806 0.061118174 0.03695104 0.104646735 0.10283505 0.044605717
0.07303699 0.04058255 0.060028628 -0.066569775 0.08691162 -0.011252825 0.057019286 0.04138891
-0.037165247 -0.037299324 -0.034256585 -0.057727225 0.07825165 0.075064875 -0.021714706 0.03532471
0.013498838 0.004749326 0.011003533 0.021124186 -0.02627362 0.0054921485 0.00859169 0.08464264
-0.026438083 0.07975028 0.09253227 0.04406525 -0.0010719721 0.037060596 -0.030762367 0.054056544
-0.012522298 0.026467638 -0.055976983 -0.02585498 0.039467536 -0.010704332 -0.043993756 0.08382442
0.07727419 -0.032030746 0.038411964 0.036290973 0.07099474 -0.018302865 0.02494856 0.06923187
0.0021764007 0.060801305 -0.02084126 0.08773163 0.044853598 0.055715658 0.07713287 -0.04337158
-0.046022836 -0.040830705 0.08324715 0.025460113 0.09064365 -0.038692478 0.07618728 -0.06969987
0.09166972 -0.06749807 -0.041097395 -0.033820897 0.018424666 0.053782128 -0.021857657 -0.069286615
0.09052755 0.0058119046 0.100586705 -0.052133664 0.029412042 -0.0040116995 0.035764042 0.061352056
0.000855414 0.10817237 0.052276026 -0.010493116 0.052301668 0.09454528 0.079047576 0.0021581089
0.018067377 0.006012668 -0.072139755 0.059285607 -0.01589333 0.021049548 -0.07217602 0.0041211075
0.06702361 0.010352736 -0.03569794 -0.057643913 0.0777746 -0.039350305 -0.031567495 -0.04302228
0.10615671 -0.0017063121 -0.014785704 0.071230605 0.046799142 0.061149143 0.05318291 0.07592068
-0.066944264 -0.043334287 -0.060850997 0.10571789 -0.048321735 -0.070633195 -0.062910475 -0.0411885
-0.09388519 0.05358391 0.08869753 0.079387605 -0.05453796 0.03415128 0.091701806 -0.04282058
0.0026526256 0.04995896 -0.004483669 0.01642302 -0.028412292 -0.027612764 -0.06664434 -0.05992098
-0.0420083 0.030279834 0.01783393 -0.077493034 -0.06602259 -0.046468124 -0.085409686 -0.024483291
-0.0463852 0.034083877 0.026872803 -0.073054984 -0.029803554 -0.058434796 -0.091546305 0.04408154
0.063679144 -0.06910863 0.01257603 0.044460893 -0.06731541 -0.02047448 0.093533434 0.06825733
-0.020833993 -0.023800584 -0.005441342 0.077700995 0.022627024 0.07284358 0.02608456 0.0076315417
-0.01972658 0.038804896 0.034471832 0.101386584 0.108671784 0.022023123 -0.05950163 -0.07007293
-0.07746995 0.009004917 0.03626247 0.016742963 -0.05912769 0.07056101 0.102809325 0.08500992
0.024312451 0.004942968 -0.011785413 0.054580964 -0.062392466 0.02106523 0.10571219 -0.03765477
-0.04608805 0.05946994 0.039426032 0.084297545 0.082070634 -0.080293305 -0.06822112 -0.050873812
0.025622621 -0.03837867 0.08469514 0.05360023 0.048857473 0.033289675 -0.025515972 0.018978842

network.4.weight f4 [9, 256]
00000000: 83f4 53b8 7ed6 673d 95a1 8e3d 1e80 4d3d
00000010: 97ef 863c 7aad 9a3c 67d2 05be c06b f03d
00000020: 75f5 46bd f06a 123d 3048 6b3d d6a4 f8bd
00000030: a623 173d 3613 de3d f8ad 0e3d adca 403d
00000040: 7052 19bd f308 6bbc 576b b03d 2b97 333d
00000050: 5a40 1abd f556 5b3c cae5 76bd f7c9 0dbe
00000060: 832a 89bb 3ec0 fa3c bf17 19be 9526 be3d
00000070: dd49 9c3d 67ce 1f3d f81b 0c3d 9bd3 523d
00000080: b076 6b3d 7125 333d 20a8 973b f412 f6bc
00000090: 41b4 163d cf99 9b3d b992 0b3c 3832 f93b
000000a0: c64f 1c3d af5d 38bc 7d84 ab3a 63bf b83d
000000b0: e10f 59bd 75d9 233d d665 7fbd 9c82 0cbe
000000c0: 3ce5 86bd 2fd4 b5bd d091 d2bc a244 9f3d
000000d0: 4b1a 3bbd a33e c23d c8b5 9d3b bd00 51bc
000000e0: 404e a23b 5fee 36bc b120 fb3b 0e0d 8fbb
000000f0: 24fb ef3d e9bb b43c c4a7 57bd bc73 973d
00000100: 025c 7ebd bb63 973d 8c0d 09be 8c97 d73c
00000110: 3bb1 a43d a16f 483d 05e4 4ebd 377a f6bc
00000120: 7805 f2bd 0665 723c 3777 b53d 37ed a03d
00000130: 397f 873d 0024 2539 94ed b23d f688 2bbc
00000140: ad7e 853d 0021 b13d c1d3 233d a8f4 fdbc
00000150: b7e1 133d 9dfd 6f3d f876 8a3d be05 c5bd
00000160: 3d26 9dbd 2930 d7bd f1ff cd3d 8fef 713c
00000170: 7de8 ea3c 3e40 7dbb 93d8 c03d 9a71 913d
00000180: 552f 0139 be63 9e3d 1f1a 903d fddd d4bc
00000190: a91c a13b 06de 7c3c 3ec4 b03d 374c 443c
000001a0: bc88 7c3d e05d ff3d 7e72 a63c dff8 bbbb
000001b0: e61a 8b3b 535c 57bd 4838 3f3d d9e0 2dbd
000001c0: 1641 813d 91f7 06bd 0f66 2b3d 3076 183d
000001d0: 5cc6 9dbd 48b8 1c3d 4634 293d d8d4 053d
000001e0: 1333 963d 81aa 643c d9c8 be3d 6cc4 b53c
000001f0: 47b8 81bd 6612 ec3d 3eff 9e3d a8cd 463b
00000200: 654f b03c 3a3c 6dbd 09d8 05be 1a7b 703d
00000210: 3c1e 15bd 839d a9bd 65ec c63b 10e4 663d
00000220: 4b79 0bbd d940 23bd 9a30 b1bd a2c4 bbbc
00000230: 84de 4f3d 8e39 123d 672b 583d be9e 08bd
00000240: 2aaf 9abd f09a 803c 6792 2cbc cb2a 77bd
00000250: f8f6 e3bd fa60 1ebe e197 21bd 7099 da3c
00000260: 241e 803d f142 e2bc 6817 56bc ccf7 9abd
00000270: 5d3c 13bd 9fa9 943c 83ff cabd 80bd 82bc
00000280: 7f28 b7bc a172 09bb 34bc 6bbd d1f6 d23d
00000290: a7fd 113c 3001 d73b 852e a4bc 2c37 48bd
000002a0: 6456 2cbc 32d4 253c f7d8 ab3d 8511 953c
000002b0: 00f2 0db9 5837 dcbc ebd6 913d dc79 893d
000002c0: 393c 02be dfc2 fdbc 5dd5 8e3d 578b efbd
000002d0: fca1 71bb 85b2 4bbc 67d1 913d c70b 31bd
000002e0: 1e28 8ebd 01bd bdbd cd8c 6a3d 952b 5dbd
000002f0: d561 4b3c 867a 1e3d 01ce babc bb5b 3abd
00000300: fed2 a8bd 2963 6dbc 84f0 a1bd 4029 3a3c
00000310: cecd 12bd 57d3 e4bc 0e26 823b 04e7 623d
00000320: b5a9 40bd 361e 8dbd 0000 10ba 74df 723d
00000330: 9c0a 1abd 5851 803d 7663 1e3d 29e8 24bd
00000340: 7f5a ebbd f9d9 093d 81b1 1e3d 85cc 9cbd
00000350: a7eb e5bd 4c76 263c 6362 53bd 8f1c 52bc
00000360: ccf7 2abd a0b5 dd3c c436 c6bd ce8a 853d
00000370: e713 f33d 1fde c03a d373 e03d fb28 3dbd
00000380: dc0b d83c 7237 a83b ca79 bd3c 09db c83c
00000390: 226a dc3d 20fa 03bc acf5 eb3d ffba 1c3d
000003a0: 03a8 b53d 1f1c 16bc 70f6 5fbd cf95 a63d
000003b0: a8b7 8d3c 64aa a63d 68d0 8f3b b31a 16bd
000003c0: bb8a b73d 2209 33bd d346 0ebd 4a99 463d
000003d0: b4d5 e43d a278 03bc 4174 f1bd 2252 ae3d
000003e0: 3bb0 ca3d 679f 6dbd 9d53 923d 8938 343d
000003f0: c25f 7cbc c614 783d 0293 d13d 3334 b23d
-5.053404e-05 0.05660104 0.06964413 0.05017101 0.016471667 0.018881548 -0.13068543 0.11739302
-0.04857393 0.035746515 0.05744189 -0.12140815 0.03689923 0.10843508 0.03483388 0.047068287
-0.037432134 -0.014345395 0.086142235 0.043845337 -0.037659027 0.013387431 -0.060277738 -0.13846575
-0.004185976 0.030609246 -0.14950465 0.09284703 0.07631276 0.0390152 0.03420636 0.051471334
0.057486236 0.04373688 0.0046281964 -0.030038334 0.036792997 0.07597696 0.008518868 0.0076048635
0.038162015 -0.011252805 0.0013085749 0.09020879 -0.05299366 0.040002305 -0.062352978 -0.13721699
-0.06586692 -0.088783614 -0.025704294 0.077767625 -0.04567937 0.09484603 0.00481293 -0.012756524
0.004953176 -0.011165231 0.007663809 -0.00436557 0.11717823 0.022062259 -0.05265023 0.073951215
-0.062099464 0.07392069 -0.13384074 0.02631738 0.080416165 0.048934583 -0.050510425 -0.030087573
-0.11817449 0.014794594 0.08860629 0.07857745 0.06616063 0.00015749037 0.08736721 -0.010469666
0.06518302 0.086488724 0.039996866 -0.03100045 0.03610393 0.058591474 0.06760973 -0.09620236
-0.07673309 -0.10507233 0.100585826 0.014766588 0.028675312 -0.0038643028 0.09416308 0.07101746
0.00012320031 0.07733868 0.07036232 -0.025984759 0.0049167466 0.015433794 0.0863118 0.011981062
0.061653838 0.12469077 0.020318266 -0.005736455 0.00424515 -0.05257828 0.046684533 -0.04245076
0.06311242 -0.03295094 0.041845378 0.037222087 -0.0770385 0.03826168 0.041309617 0.032673687
0.073339604 0.013956667 0.093156524 0.022188388 -0.06333976 0.11526947 0.07763527 0.0030334983
0.021522233 -0.057918765 -0.13070692 0.05871115 -0.036405787 -0.08281996 0.006070661 0.05636984
-0.03405122 -0.039856765 -0.08651848 -0.02292091 0.050749317 0.03569942 0.052775767 -0.033354513
-0.07552941 0.01569888 -0.010532952 -0.060343545 -0.1113109 -0.15466681 -0.039451484 0.026684493
0.06255749 -0.02761981 -0.013067104 -0.07566795 -0.03594624 0.018147288 -0.09912016 -0.015959501
-0.022358177 -0.0020972865 -0.05755253 0.10300983 0.008910573 0.006561421 -0.020041713 -0.04888074
-0.010518644 0.010121392 0.08390992 0.01819683 -0.0001353696 -0.026881859 0.071210705 0.06712696
-0.12718286 -0.03097671 0.069742896 -0.11696499 -0.0036870232 -0.012432699 0.071200185 -0.043224122
-0.069412455 -0.09264565 0.057263184 -0.05399664 0.012413462 0.038691066 -0.022803308 -0.045497637
-0.082433686 -0.014488974 -0.07907203 0.011362374 -0.035840802 -0.027932806 0.0039718216 0.055396095
-0.047036845 -0.06890528 -0.0005493164 0.059295133 -0.037607774 0.06265515 0.038669072 -0.040260468
-0.1149187 0.03365514 0.0387435 -0.076561965 -0.11226588 0.01016004 -0.0516075 -0.012824192
-0.041740224 0.027064145 -0.096784145 0.065206155 0.118690304 0.0014714635 0.10959592 -0.04618166
0.026372842 0.0051335627 0.023129363 0.024518507 0.10762431 -0.00805524 0.115214676 0.03826427
0.08869936 -0.009161978 -0.05467838 0.081340425 0.017299488 0.08137968 0.0043888576 -0.036646556
0.089620076 -0.04370988 -0.034735512 0.04848603 0.11173573 -0.008024367 -0.11789752 0.08511759
0.098968945 -0.058013346 0.07144854 0.04399923 -0.01540369 0.060566686 0.10233118 0.087013625

network.4.bias f4 [9]
00000000: 4872 e33b 45da 013c 304c 18bb 92ec 803d
00000010: 3f41 8fbc 3b98 2f3d 1da7 3cbc 65e3 cc3c
00000020: 80ef 61bd
0.0069411136 0.007925575 -0.002323877 0.06295122 -0.017487166 0.042869788 -0.011514452 0.025010774
-0.055160046
