actor2000.pth (torch, 148423 bytes, 6 tensors)

network.0.weight f4 [128, 9]
00000000: 0d21 84bc 1e01 3cbe a31f fe3d c346 823d
00000010: 3e1a b33d 8a0e ac3e 76e5 323e fdf3 9ebd
00000020: 7492 22bb a23c 8d3e 15ba eb3c c612 323d
00000030: b848 98be a1c3 8fbd 6621 ff3c cbac 41bd
00000040: ffa6 abbd b1b9 37bd 17cc 923d c8ae 70bc
00000050: a251 5bbe 05d1 103e 0b72 8cbe 8d5f cfbd
00000060: 9ea4 963e 0650 8a3a c4cc 3d3e 3b6c 61be
00000070: 298e 5f3e 4568 0a3d aad6 abbe 8236 65be
00000080: a148 913d e61f 68be 2676 88bd f7e1 713e
00000090: 451f 973e 2224 853e 231e 6abe a923 d7bd
000000a0: e513 76be 16f9 6dbe 27a2 87be 756d 3d3e
000000b0: b4fb a1be 54c5 c23d b1e2 29be e70d b63e
000000c0: 333c 783e a495 2e3e c8ae 85be 41d2 033e
000000d0: fb21 34bd a2e3 c83d 06c1 a0be b0a2 a3be
000000e0: e63d 5dbe c8c8 48be eb81 403d 9ede 6d3e
000000f0: b07c 70be 43b5 1fbe c63e 1cbe a3b6 7cbe
00000100: 1b6c 8c3d 7879 debd cfef 92be 42b9 b13e
00000110: 5d36 5d3e 4b7f 143d 5132 4e3e 47f1 c3be
00000120: 2139 aabe b378 26be 0434 44be 33f6 8abe
00000130: aa43 1cbd 46bd 7fbe b6e8 493d 2df8 873e
00000140: 9b5e 383e 748b 6c3e d32e 5ebe e72c 96bd
00000150: 353f debb f9d1 a63e ad2c e33c 82ea 85be
00000160: 93b1 82be e500 a53e f19b ad3e 07fc 303d
00000170: bee8 233d 1dfa c6ba e9dc d5bd 169c ec3c
00000180: 7148 a93e 0252 673d ca85 20be 2ad0 a73e
00000190: 0b98 bebd c868 69be f995 a7b9 50ab b33d
000001a0: 9128 5ebe 5145 b43e 9ba8 983c ff10 90be
000001b0: 0406 e6bd 2000 203e 66f6 ff3d 37ac 3bbe
000001c0: cd73 ae3e a35d eebd 3489 793e 21ea 41bd
000001d0: e430 abbe 9ddc abbc 4599 00be b3e0 94be
000001e0: 53e3 593e 0535 943e 6084 803e de92 e23e
000001f0: 490c 8d3e dd75 36be f861 9c3e 1ca1 953e
00000200: 2768 cb3c 6432 8a3e 2fba 5b3e 1c56 afbd
00000210: 76d9 5abe fcb5 0b3e d5db 883e 2d0d 7b3e
00000220: 65cb 49be 4840 8bbd 0edd 52bd 5ae1 b2bd
00000230: ab25 8e3e ebcc 1dbe 82c3 8ebe b28f 7b3e
00000240: 1de9 81bd 3b50 95be f47b 1b3e 8569 b73d
00000250: c7ca 96be e8c3 093e 84b8 333e dc22 2b3e
00000260: 4bdd 6fbe 3d89 78be ab4a 9c3e 5e85 94be
00000270: e63f 1f3e 4fea 053e 3184 1dbe 6b08 1c3d
00000280: 1764 b13e bdf7 e33d 0b48 2a3d 4df5 80be
00000290: 8b18 703d e83c 9a3e cf40 17bd c5c4 83be
000002a0: 7275 39be 8ed5 02be c699 1e3e c39e 233e
000002b0: 1b4f eabd 786b 043e e78e 3e3d f707 143a
000002c0: 5b64 12be 5422 963e 6848 993e 6c14 c0be
000002d0: 8b82 073e e09c 54be b92e 793e 17ac b53c
000002e0: 0316 433e 4d8e d3bd d557 ae3e b4d1 a3be
000002f0: 7be2 503e c146 1bbb b619 1a3e a93f 8abe
00000300: 663c cd3d fde2 db3c e1e7 ad3e 8d58 28be
00000310: e1b0 eb3d 77c9 8ebe 3bea 163e 5943 eebd
00000320: 67be 4bbe 36e6 89be 2f43 5dbd 77b4 803e
00000330: 63cd 7abd a233 6abd c466 753e 6161 80bd
00000340: 07aa 30be 2eb6 323e b9c5 5ebe c9f2 9f3e
00000350: ff10 b23e d83c 60be eb3c 6c3e 63bb 9a3e
00000360: 115a aa3e c814 883c 7109 473e 3884 643e
00000370: 19cf 0b3e 8426 61be 4ac7 d03e c234 43be
00000380: fc75 59be 9e17 57be e648 a23e 86de b4bd
00000390: 7edf b73e 9129 d03d 58fd 47be c344 7dbe
000003a0: 07a4 343c 85aa b13e 9bc3 32be 80fc 143c
000003b0: 78e7 95be 70b7 fc3d d6c9 4bbc 4bf6 1abe
000003c0: 73ff 25be 4696 31be 224e 8ebe 160b 9e3e
000003d0: 791a 8e3d 7acf 123e 7769 5fbe b848 38be
000003e0: 67b7 233e e63e 68bd 602f 103e 01da 2fbe
000003f0: ecfb d1bd ea88 853e a550 bf3d f731 d53d
-0.016129041 -0.18359801 0.12408378 0.06361153 0.0874524 0.33604842 0.17470345 -0.07761381
-0.002480653 0.27585322 0.028775254 0.043474935 -0.2974298 -0.07019735 0.031143855 -0.04728393
-0.08381461 -0.044854823 0.07167833 -0.014690109 -0.21417859 0.14142235 -0.27430758 -0.10125647
0.29422468 0.0010552413 0.18535143 -0.22013943 0.21831574 0.033790845 -0.33562213 -0.22384074
0.07093931 -0.22668418 -0.0666316 0.23621355 0.29516044 0.2600413 -0.22863059 -0.105048485
-0.24031027 -0.2323955 -0.264909 0.18498786 -0.31637347 0.095102936 -0.16590382 0.35557482
0.24241714 0.17049271 -0.2610991 0.12873174 -0.04397772 0.098090425 -0.31397265 -0.31960058
-0.21605644 -0.19607842 0.0469989 0.23229453 -0.23485065 -0.1559649 -0.15258321 -0.24679045
0.06856557 -0.10863012 -0.28698584 0.34711653 0.21602769 0.03625421 0.20136382 -0.38270018
-0.3324671 -0.1625698 -0.19160467 -0.2714096 -0.038150467 -0.24974546 0.049294196 0.2655653
0.18004839 0.23100072 -0.2169755 -0.07332783 -0.006782437 0.3258207 0.027731264 -0.26155478
-0.25526103 0.32227245 0.33908036 0.043209102 0.040016882 -0.0015180741 -0.10442526 0.028883021
0.3306308 0.056474693 -0.15676036 0.32776004 -0.09306344 -0.22793877 -0.0003196446 0.0877291
-0.21695162 0.35209134 0.018635085 -0.28137967 -0.11231616 0.15625048 0.12498169 -0.18327413
0.34072724 -0.116389535 0.24368745 -0.047342423 -0.33435738 -0.02097922 -0.12558468 -0.29077682
0.21278124 0.289467 0.25100994 0.44252676 0.27548435 -0.17818399 0.30543494 0.2922448
0.024829937 0.2699157 0.21457742 -0.08561346 -0.21372017 0.1364364 0.2673022 0.24516745
-0.19706495 -0.0679937 -0.051480345 -0.08734389 0.27763113 -0.15410201 -0.27883536 0.24566534
-0.06343291 -0.29162773 0.15184003 0.08955673 -0.29451582 0.13453639 0.17550856 0.16712517
-0.2342426 -0.24271102 0.30525717 -0.29008 0.15551719 0.13077663 -0.15382458 0.038093966
0.34646675 0.11131237 0.04157261 -0.2518715 0.058617156 0.30124593 -0.03692704 -0.2573606
-0.18111208 -0.12776777 0.15488347 0.15978532 -0.114408694 0.12931621 0.046523 0.0005646939
-0.14296095 0.29323065 0.29938054 -0.3751558 0.13233392 -0.20762968 0.2433423 0.022176785
0.19051366 -0.10329876 0.34051386 -0.31995928 0.20398895 -0.0023693296 0.1504887 -0.27001694
0.10021286 0.026841635 0.33965972 -0.1644003 0.11508346 -0.2788808 0.1473779 -0.11633939
-0.19896851 -0.2693345 -0.05401915 0.25137684 -0.06123103 -0.057178147 0.23964983 -0.062685736
-0.1725236 0.17452309 -0.21755113 0.31239918 0.34778592 -0.2189821 0.23070113 0.3022109
0.3327184 0.016611472 0.19437195 0.22316062 0.1365322 -0.21987349 0.40777045 -0.19063094
-0.21236414 -0.21005103 0.31696242 -0.088315055 0.35912699 0.10164178 -0.19530237 -0.24733262
0.011025435 0.3470041 -0.1745743 0.009093404 -0.2927816 0.123396754 -0.012438258 -0.15133016
-0.16210727 -0.17342481 -0.27793986 0.30867833 0.06938643 0.14336959 -0.21817575 -0.1799649
0.15987931 -0.05670061 0.14080572 -0.17173006 -0.102531284 0.2608102 0.093415536 0.10409921

network.0.bias f4 [128]
00000000: 3618 fe3d 419c 2bbe 7b8e a53e 1b12 c33e
00000010: 41d2 56be 5d9d ab3d d08b 0e3e 2610 893e
00000020: 5103 5e3e 6269 cf3d 7ba7 12be 9965 af3e
00000030: 04eb 19be 6d44 8f3e c1c3 333e f276 a73c
00000040: e1be 3abd 5089 a5bd 1593 8e3e 3f3d 823e
00000050: 95fc 003e 507c ab3e 0f5d 853e 03fe b03b
00000060: 725f 4e3e ab64 57be 7bcb 62be bd8c 843d
00000070: 8ced 16be 3aac af3d ff6e 1bbe 6fd6 f83d
00000080: d862 ab3e 6fa7 91be 951e cd3d 7c61 d73d
00000090: 3866 07bd df08 623e 7634 4cbe f95f ee3d
000000a0: 4285 1f3e 12cf 8d3e e0a8 f23c d9ba f63d
000000b0: e3f1 5ebc 13a5 463d aba1 e33c dde2 0cbe
000000c0: 99ed 863e ab93 52be 6107 613e f001 04be
000000d0: 60ba f5bc 4879 413e f8e2 443e 35f6 823e
000000e0: 08d5 673e e6a7 20be 9807 61be 6558 b7bc
000000f0: 22ab b4bd f534 6f3e 7cf3 9f3e 907a 26be
00000100: 16ed 7dbe e525 843e b302 0f3e 9dea 153d
00000110: 9c2a 983e 269a 6d3e 6754 8dbe cb78 2dbe
00000120: 38e0 4f3e c977 a13e bbc1 943e d016 8dbe
00000130: fbf7 84be 62b3 3c3e fd33 373d 46a7 4d3e
00000140: 037d 813e cc4b 5c3e 4388 b33e 210d a03d
00000150: 7a00 013e e78a 553e c53b 65be 9dfc c9bd
00000160: 3214 0f3c 80e1 f6bb e216 5d3e 4bc4 60be
00000170: a3f9 423e 9d43 f9bc 971d 9b3e 9dfd cf3d
00000180: ae47 5ebe 019c 663e 8e47 fa3d 7139 203e
00000190: 533e ae3e eedb ae3e 9c0a a9be 9e83 7cbe
000001a0: 81fd 3dbe a48a f0bc 509d 9f3e 913f f7bd
000001b0: 9f6a 9b3e 4326 af3d 9ca7 af3e 7e5b ab3d
000001c0: 81cb 8e3e 860d b33d a829 9e3c 5063 863e
000001d0: e5ed bb3d a94e 9f3d 9649 173e d5bc 983e
000001e0: d2a9 4abd ff0e cbbd cf54 8b3e 9e4c 863e
000001f0: 78f6 2abe 6bbd 6d3e 0a99 7e3a 7f55 8dbe
0.124069616 -0.16758825 0.32335266 0.3809975 -0.20978643 0.08379624 0.13920522 0.26770133
0.21680953 0.10127522 -0.14321701 0.342572 -0.15031058 0.27981892 0.17555143 0.02044246
-0.045592193 -0.08082831 0.2784659 0.25437352 0.12596352 0.3349328 0.2604756 0.0054013743
0.20153597 -0.21034496 -0.22147934 0.06472156 -0.14739054 0.085777715 -0.1517906 0.12150275
0.3347385 -0.28448054 0.10015599 0.105166405 -0.033056468 0.22073697 -0.19941887 0.11639399
0.15578178 0.27697045 0.029621542 0.12047357 -0.013607475 0.04849727 0.02778705 -0.13758416
0.26353148 -0.20564143 0.21975471 -0.12891364 -0.029996097 0.18893921 0.19227207 0.25578466
0.22639859 -0.15689048 -0.21975553 -0.022381017 -0.088217035 0.23360045 0.3124045 -0.16257691
-0.24797472 0.2581016 0.13965873 0.036600698 0.29720008 0.23203334 -0.27603456 -0.1694061
0.20300376 0.315367 0.29054055 -0.27556467 -0.25970444 0.18427804 0.044727314 0.20083341
0.2529069 0.21513289 0.35064897 0.07815004 0.12597838 0.20853768 -0.22386082 -0.09862635
0.008732842 -0.007534206 0.2159076 -0.2194988 0.19040541 -0.030427748 0.30296013 0.10155795
-0.21707031 0.22520448 0.12220679 0.15646912 0.34031925 0.34152168 -0.33015907 -0.24659583
-0.18553735 -0.029362984 0.31174707 -0.12072671 0.30354783 0.0855222 0.34307563 0.0836706
0.27889636 0.08742814 0.019306973 0.26247644 0.09176234 0.07778675 0.14774165 0.29831567
-0.04947836 -0.0991497 0.2721314 0.2623033 -0.16695583 0.23216788 0.00097121357 -0.2760429

network.2.weight f4 [256, 128]
00000000: 33ed af3d 25f9 003c 9c58 2c3d aea6 24bd
00000010: aed5 52bc 194b c5bc d49c 89bd 1a93 c83d
00000020: 93ba c2bd 50fe 343d 66c8 f63d 5f62 a63d
00000030: c8ae 0d3e e155 f03d 263f d43c 92c0 573d
00000040: 91eb b43c 7641 86bd 19c6 61bb 850d f7bc
00000050: f387 5d3d 5328 94bb f78b c93a 76fc acbd
00000060: c0b1 b7bc 05aa 893b 8a75 563c 72b9 7cbd
00000070: 2f65 8b3d 34ea bebd a80e 553d 6110 ac3d
00000080: b3ce c23d 1a3e 20bd b4aa 6a3d 602d 71bd
00000090: 6750 45bc 7035 8a3d 2d65 da3d ddb6 cfbc
000000a0: d0f7 debb 83aa 3c3d e40e 113d 64d8 933d
000000b0: 0b79 933d f236 9f3d 9f43 5a3d c213 de3d
000000c0: 2146 77bd 7706 a53d f055 4b3b 5d45 11bd
000000d0: 37f3 533d 2ab0 42bd a6ad 7e3d 6460 60bd
000000e0: a173 5abd 949d 54bd 0337 81bd 4725 12bd
000000f0: a006 a73d bc29 48bc f5c1 3c3c 1ba4 edbb
00000100: fbc3 c73c 094d 993d 4006 a23d 9094 59bd
00000110: cadf 35bd 3fc1 c53d 4964 81bc ae82 6cbd
00000120: bcdf e13c 2e95 b1bd 8d16 003d 6792 823b
00000130: 5de7 e0bc 8b87 693d 2b50 cd3d 4882 48bd
00000140: 1592 c2bc 2d64 b13d 4f98 57bc 5323 b73d
00000150: ed2e 77bd ff16 c5bd d396 ccbd 9c21 ea3d
00000160: 51f7 0a3d 245c 0dbc 3b2b 6b3d fbd4 87bd
00000170: f31a c73a 0bae 99bd 3872 c03d 0162 84bd
00000180: 4bc4 623d 2234 1d3d 0250 8f3d 248f 863d
00000190: fa04 6c3d 040a 29ba 44e3 90bd 9c77 073d
000001a0: 7118 33bd 9c8c 373d 25f9 043d f10d d63d
000001b0: 9978 5a3d facf ab3d e3cf 613d a808 ce3d
000001c0: d171 1fbd 3a93 ad3c 36cb 9f3c e1dd debd
000001d0: c565 cb3c f5dc 483d 6281 2c3c 7707 5f3c
000001e0: 2e27 4c3d 49ef 093c ac24 6abd ab0a 25bd
000001f0: e89a 71bd 4c1e a6bd 30f3 21bd a051 423d
00000200: 7cec c43d b841 d23d e88a 98bd 4c0d 8f3d
00000210: 50e4 213c 789c 9f3d b294 5a3d dfa9 85bd
00000220: a95c 7f3d 10e9 44bd f2c5 933d 8484 35b9
00000230: b45c 303d abf1 b13d 6b6b 903d cc61 5fbd
00000240: 7bf5 263d bbd7 1f3c 778a 4d3c dfaa b0bc
00000250: 334e 4b3d 9bb8 6f3d 562b bd3c 300b 11ba
00000260: 1fab cf3c 8838 92bd 4bae 98bd 473d e33d
00000270: 160c 6cbc 1f40 953c cdb8 6dbd cb28 2f3c
00000280: 1639 93bd 351e 963d 0e87 a8bc 1598 fe3c
00000290: ba87 b1bd f732 6f3d a3d4 153d 77e4 b93d
000002a0: 17d6 943d f49e b43d d2e3 1a3d 0cbb bb3b
000002b0: 7eed 49bd 2923 36bd 62af ca3c 435c 16bd
000002c0: 6dfa bcbd feda 4c3d 74c3 373d a0e0 fd3d
000002d0: 486f 5a3d 358a 3cbd 8a93 113d 7aeb 55bd
000002e0: 70fa 38bd 4f7c af3c b792 00bd e0e5 8abb
000002f0: 6cc7 1dbc 3e01 29bd b813 97bd 9810 1e3b
00000300: a232 aa3d 2643 3b3c 4ee4 a2bd e90d 8b3d
00000310: 69ef 59bd 9d48 bdbd 1957 863d 3b11 943c
00000320: bf02 a6bd 4dcb 153d f086 4e3d 58ee 02bd
00000330: 8950 9e3a a86d c23d 3efe 713d 5852 a0bd
00000340: 25b9 60bc a091 65bd b9d1 2dbd b971 753d
00000350: 7f0f 34bc cd37 4bbc bc11 b4bc 58f6 9abd
00000360: 1a47 593d 0231 37bc 5adc 9f3c 8bde bd3c
00000370: 49e4 88bd a77b c03d 5c8c c33d 53f8 723b
00000380: af4b 023d 9641 95bd 893b 9c3c ea16 1ebd
00000390: 9b69 76bd 6763 7cbd ec60 24bd 650c 293d
000003a0: 5ee7 9fbd 508f 42bd 0203 08bd 8793 f7bc
000003b0: 261d 9ebd 9032 e83d bf1b d03c 3bcf d13c
000003c0: be79 a03d d9d7 65bd df82 44bd f01a ba3b
000003d0: f4c8 2fbd 3d67 89ba 1423 373c 04d4 9dbd
000003e0: 472b 82bd 9eac 18bd 4e72 143d 6864 ef3c
000003f0: 7015 b1bd 7639 aabd c85c e2bc 29cd b23d
0.08590164 0.007871901 0.042076692 -0.04019802 -0.012868328 -0.02408366 -0.06719366 0.097936824
-0.095082425 0.044187844 0.12049942 0.081242315 0.13836205 0.1173513 0.025909018 0.052673884
0.022084983 -0.065554544 -0.003445035 -0.030157814 0.05408473 -0.0045214086 0.0015376796 -0.084465906
-0.022423625 0.004201176 0.013089547 -0.061700292 0.068064086 -0.093220145 0.05201593 0.084015615
0.09512081 -0.039121725 0.0572917 -0.058881164 -0.012043095 0.06748474 0.10663829 -0.02535575
-0.006804444 0.04606105 0.03541459 0.072190076 0.072008215 0.07774152 0.053287145 0.10843612
-0.060369615 0.08057874 0.0031026565 -0.03546654 0.05174562 -0.047531284 0.062177323 -0.054779425
-0.05333293 -0.05190809 -0.06309321 -0.03568008 0.081555605 -0.0122169815 0.011520852 -0.007252229
0.024385443 0.074853964 0.07911348 -0.053120196 -0.044402875 0.096559994 -0.01579489 -0.057741813
0.027572505 -0.08671032 0.031271506 0.0039847377 -0.027454073 0.05701403 0.100250565 -0.04895237
-0.023751298 0.08661685 -0.013158872 0.089422844 -0.060347486 -0.09623527 -0.09989705 0.11432192
0.033927266 -0.008627925 0.057414275 -0.0663242 0.0015190527 -0.07503899 0.093967855 -0.06464005
0.05536298 0.038379796 0.06997682 0.06570271 0.057621934 -0.0006448331 -0.070745975 0.033073053
-0.04372448 0.04481183 0.032464165 0.10451878 0.053337667 0.08389278 0.055129897 0.10060245
-0.038926903 0.021188367 0.019506078 -0.10882164 0.024828801 0.049038846 0.010528894 0.01361262
0.049842052 0.008418866 -0.05716388 -0.040293377 -0.05898562 -0.081112474 -0.039538562 0.047441125
0.09615418 0.10266441 -0.07448369 0.06984958 0.009881094 0.07793516 0.053364463 -0.06526541
0.062344227 -0.04807383 0.072154894 -0.00017310871 0.04305716 0.08688673 0.07051738 -0.054536626
0.040761452 0.009756024 0.01254522 -0.021565853 0.049635123 0.058525663 0.023091953 -0.0005532978
0.025350152 -0.07139689 -0.07455119 0.11095672 -0.014407178 0.018219052 -0.058037568 0.010690878
-0.07188623 0.0732998 -0.020572212 0.031078378 -0.08668466 0.058398213 0.03657974 0.09076779
0.07267397 0.088193804 0.037814923 0.005729085 -0.049298756 -0.044467125 0.024741832 -0.03670908
-0.092274524 0.050013535 0.044864133 0.123963594 0.053328782 -0.046030242 0.035541095 -0.05222652
-0.04516071 0.02142158 -0.03138992 -0.004238829 -0.009630065 -0.04126095 -0.07376808 0.0024118777
0.08310439 0.011429584 -0.07953702 0.067897625 -0.053206835 -0.092423655 0.06559581 0.018074622
-0.081059925 0.036570836 0.050421655 -0.031965584 0.0012078445 0.094935715 0.059080355 -0.07828206
-0.013716017 -0.056047082 -0.042436335 0.059922908 -0.010990023 -0.012403441 -0.021981113 -0.075665176
0.053046323 -0.011181118 0.019514252 0.023177406 -0.06684167 0.09398585 0.09548256 0.0037074282
0.03181046 -0.072879 0.019071357 -0.03859607 -0.060159307 -0.061618235 -0.040131494 0.041271586
-0.07807802 -0.047499955 -0.033205993 -0.030221714 -0.077204034 0.11337769 0.025403855 0.02561151
0.078357205 -0.05611405 -0.04797637 0.0056794807 -0.042916253 -0.0010483038 0.011177797 -0.077064544
-0.06355911 -0.037273996 0.036241822 0.029222682 -0.08646667 -0.08311741 -0.027632132 0.087305374

network.2.bias f4 [256]
00000000: cb14 7c3d 9b42 55bd c183 cdbc e996 96bd
00000010: 4353 b93c 9ff7 973d 8539 8dbd 466a 39bd
00000020: 7023 0a3d 3389 763d 9f71 403d 240c 7fbd
00000030: 19d8 b73d bb0a 61bd b040 2ebd 8a30 58bb
00000040: 5bd9 b93b 255b c0bd dadd 85bd ad44 773c
00000050: 332a b3bd df00 54bd a56b b43d 40ff d1bc
00000060: 0798 273c 1793 75bc 1be8 01bd 87f1 93bd
00000070: bbd6 bb3c fd18 b0bd 4432 403d 5951 153b
00000080: d3e4 2bbd 1142 a0bd 1026 a53d 05d0 a93d
00000090: c962 b13d ef0b 403d 75e7 1d3d 6158 81bd
000000a0: 5365 763b 05d6 55bd 5030 163d a9f1 873d
000000b0: 5066 56bd 9117 7c3a 2c36 af3c edce 9cbc
000000c0: fb09 1bbd bbcd 7f3c 1b99 30bd 1595 d8bc
000000d0: 27ee 97bd 4577 9c3d 8b05 61bd 0b82 84bd
000000e0: 646b b03c 6f6a 88bc a4cc dcbc fca9 27bd
000000f0: b3ca 4ebd 2e2f 7abd 7885 b43d 8d00 86bd
00000100: 856e 6d3d 211b 133d 56f4 943d 827e 07bc
00000110: 0be1 9e3d 7cf8 bb3b 2901 843d 2200 38bd
00000120: 0580 6fbd f71f cb3c a78c 32bd cefd aa3d
00000130: d1c3 94bd ea5c de3b aa60 933d 8c0b 3bbc
00000140: 062e 5dbd 9516 b5bc 3d7d 20bd b47b a1bc
00000150: e597 3e3d d962 75bd f6aa 5cbd 4f54 6bbd
00000160: 7169 883b cf75 ea3c d906 f73c 7cba 05bd
00000170: c67e b5bc c211 923c d576 593d f338 a2bc
00000180: 8b5f 2d3b d0b5 3ebd fe02 8ebb 30e3 4bbd
00000190: a62e 8dbd d295 fcbb 86f7 a63c 7720 4cbd
000001a0: 0e40 81bd aeaf 61bd 8785 86bd 2fc0 2c3c
000001b0: a581 9ebd 6a0d 64bd 0b72 aebc 4e1b 23bd
000001c0: 0525 bc3d 9fac ce37 a9f0 7bbd 2f49 c23d
000001d0: ea29 4bbd 51f6 02bd eaa8 45bd 47e8 56bd
000001e0: 9b54 82bd 335c 803d f7bb 023c 6835 8d3d
000001f0: e70f a1bd 12eb 7abd 2a58 83bb 2e8d 34bd
00000200: ef94 c5bc 00d7 3a3c 33bd 403d 1d09 8bbb
00000210: 39e4 02bd f57c 80bc d3ba 873d dc5b fcbc
00000220: 9b00 b03d 4e7f 763c f08d 0e3d 1508 bdbc
00000230: aff1 0e3c e7e7 193d 0788 8cbd 4153 363d
00000240: 74d9 603c f3a0 a03d 3971 02bd aece 623d
00000250: 104d 893d f926 9a3d 0eaa 853d d261 833d
00000260: 102d 643c a783 a83c 6a87 b13d a76a 3fbd
00000270: d35e bb3d 7558 823d fe5d 683d c473 463d
00000280: 7275 893d 91ca 353d fcca 9d3d 768e 12bd
00000290: 84f0 a0bb a61c 683d 3526 63bc 4b8c 6fbd
000002a0: ee83 90bd dd37 e13d dca5 6cbd 47a5 30bc
000002b0: 3aa6 5d3c 780e 273d 7df9 cd3d a23b 11bd
000002c0: 0552 89bd 3957 14bd 25c8 8f3c e457 1e3d
000002d0: 9320 45bd 43bf 943d 3242 8e3c e45e 4a3d
000002e0: 592b babd 0442 8d3d ff0c 993d e1a9 013d
000002f0: 9207 95bd d15a ad3b 1588 2a3d c35a 213d
00000300: 36e4 8c3c c78e 16bd 45b5 98bd 5746 78bd
00000310: 111e 8abd 5845 afbd 5648 50bd 4f1f b0bd
00000320: 0cce 6f3d 8fd3 493d efdf ba3d be8a 60bd
00000330: 8e44 09bd a8ec 6fbc 5c81 df3b 6f27 35bd
00000340: f460 68bc 502e 1abd 2a0a 97bd 4f55 ad3c
00000350: f8eb 933d d4f0 863d 6e79 53bd 823d f23c
00000360: 9433 7fba 6d07 8e3d 0e99 963d 6bc9 7a3d
00000370: 7631 8a3d 38b3 46bd fd3e 1b3b 8ac3 a83d
00000380: 363d 9bbd df76 743d 5190 03bc d2c6 93bd
00000390: 47e8 3a3d db2a 6ebd 4d20 abbb f26d 8f3d
000003a0: 0b66 74bd e9df 67bd c22e 6ebd 9cb6 9c3d
000003b0: 9e06 1e3d 06d8 3b3d f374 7c3d dbd8 613d
000003c0: 80cb dabc cd69 9d3d 56d3 c43d 13f5 2a3d
000003d0: 7846 d3bc 9a7d b0bc 5dc9 9d3d 26dc f0bb
000003e0: b9ad 553d 2b9a 7d3c e53c d73c 3a70 6d3b
000003f0: 2e17 e1bc 355b 91bb 909e 9cbd b2fc a3bc
0.061543267 -0.052065473 -0.02508724 -0.073530026 0.02262271 0.07420277 -0.068957366 -0.045267366
0.033725202 0.060189437 0.046983358 -0.062267438 0.08976764 -0.054941874 -0.04254216 -0.0032987916
0.0056716627 -0.093923844 -0.065364555 0.015092057 -0.08748283 -0.051758643 0.08809594 -0.025634408
0.010229117 -0.014988682 -0.031715494 -0.07223802 0.02292954 -0.08598516 0.046922937 0.0022784083
-0.04196627 -0.07825101 0.080639005 0.0829163 0.0866142 0.04688638 0.038550813 -0.06315685
0.0037597015 -0.052206058 0.03666717 0.0663789 -0.052343667 0.0009616549 0.021388136 -0.019141639
-0.037851315 0.015613015 -0.043114763 -0.026438275 -0.07418471 0.07639936 -0.054936927 -0.06470116
0.021535583 -0.016652314 -0.026953049 -0.040933594 -0.050486278 -0.06108015 0.0881452 -0.06543074
0.057966728 0.035914544 0.07273166 -0.008269908 0.07757767 0.0057364088 0.06445534 -0.044922
-0.0584717 0.024795515 -0.043591168 0.08349191 -0.072639115 0.0067859786 0.071961716 -0.011416327
-0.05399897 -0.022105495 -0.039181937 -0.019712307 0.046531577 -0.05990872 -0.05387398 -0.05745345
0.00416296 0.028620629 0.030154632 -0.03264855 -0.022155177 0.017830733 0.053091843 -0.019802546
0.0026454653 -0.04656011 -0.004333853 -0.04977721 -0.06893663 -0.0077082897 0.0203817 -0.04983565
-0.063110456 -0.05509918 -0.06568437 0.010543867 -0.077395715 -0.055676855 -0.021294614 -0.03982096
0.091867484 2.4637497e-05 -0.06150881 0.09486615 -0.04960052 -0.031973187 -0.048256792 -0.05246761
-0.063637935 0.062675856 0.007979385 0.06894952 -0.07864361 -0.061259337 -0.0040083127 -0.044079952
-0.024118869 0.011403799 0.047055434 -0.0042430297 -0.03195593 -0.015684584 0.06627431 -0.03080552
0.085938655 0.015045 0.03480333 -0.023075143 0.008724614 0.037574675 -0.06861883 0.04451299
0.01372372 0.078431986 -0.03184626 0.055372886 0.06704152 0.07526965 0.06526576 0.06415142
0.013926759 0.02057059 0.08668406 -0.04673257 0.09148946 0.06364528 0.056730263 0.048450246
0.06711854 0.044382636 0.07704732 -0.035780393 -0.004911484 0.056667946 -0.01386409 -0.058483403
-0.070564136 0.10996983 -0.057775363 -0.010781593 0.013528401 0.040785283 0.10057352 -0.03545726
-0.06705097 -0.036215995 0.017551491 0.038658038 -0.04812677 0.07263043 0.017365549 0.0494069
-0.09090299 0.06897357 0.07473182 0.03165615 -0.072768345 0.005290367 0.041633684 0.039393198
0.017198663 -0.036757257 -0.074564494 -0.060613956 -0.06744016 -0.08558148 -0.050850235 -0.08599722
0.05854611 0.049274024 0.09124743 -0.054819815 -0.033512644 -0.014643826 0.0068208408 -0.04422706
-0.014183272 -0.037641823 -0.073749855 0.021158842 0.07222742 0.06588903 -0.051629476 0.029570345
-0.0009735164 0.0693501 0.073534116 0.061227243 0.06747715 -0.04851076 0.0023688667 0.08240421
-0.075800344 0.059683677 -0.008030013 -0.07215656 0.045631673 -0.05814634 -0.0052223564 0.07003392
-0.05966763 -0.05661002 -0.05815006 0.076520175 0.03858053 0.045860313 0.06163497 0.05513845
-0.026708364 0.076861955 0.09610622 0.041737627 -0.025790438 -0.021544266 0.077044226 -0.0073504625
0.052167628 0.015478651 0.026274154 0.0036230222 -0.027476873 -0.0044359216 -0.07647431 -0.020017955

network.4.weight f4 [9, 256]
00000000: da02 623d 6293 743d 2b16 d43c a8e3 983c
00000010: 8ae2 79bd 60c4 49bb fa17 253d 4fdb e93c
00000020: 883d c03d ed3e 643d 525d bf3c 141e 233d
00000030: 7406 ff39 101d 20bc 290e b4bd 20b0 213d
00000040: f4c7 103d 475c 0f3d cc8f 273c f31d 593d
00000050: f001 31bc 1192 2d3d 6356 323d 3890 e5bc
00000060: 2912 30bc 0e60 81bd dc11 ab3d 9320 0cbc
00000070: 0cbe 09bd a2ba 4dbd 788e d53c 3d5e c23b
00000080: 9803 60bd 4eba 1b3d 66f8 743d f1d7 ccbc
00000090: 4fcf 053d fc8b 56bc 4e08 c3bc 6764 213c
000000a0: 1b2b 3ebd 4d00 643c 17fb f3bc 20c6 a63d
000000b0: 0e4b 4ebd 1841 433d bd9f 0a3d 5a37 363d
000000c0: f467 f73d 506e f53b fec0 b8bd 30d3 69bd
000000d0: 3092 f33c 9e25 ac3d 7fc4 793d d05d 86bc
000000e0: 2bb7 013d 73f0 66bb 91fa ec3d 63bf cabc
000000f0: 80c9 153c 80d1 e83a 27dd a2bc af65 7cbd
00000100: 761e 43bd 83f4 2bbd 3017 68bd 662c afbd
00000110: 4f65 3d3d cbf3 b43a ae88 9bbd c267 1ebd
00000120: 8ba6 19bd 74ce 0fbd 00b3 113b ad7f 74bd
00000130: 9b0a b53d 3326 d63c fd69 10bc 9ccf 3a3d
00000140: d1b6 22bd 61da e9bc bda5 68bd 0857 bc3c
00000150: 1583 fe3c 450b 013d 179c 02bd cad3 873d
00000160: cac3 6abd 74fc 09bd b299 77bd ea7b 4e3d
00000170: 6ded 9a3b b8a1 b4bb 4dab 1c3d e6e4 44b9
00000180: 19e0 843b 724c 093c 456f 83bd ef32 773c
00000190: 80a0 49ba 8027 40ba e639 793d 91ca 48bd
000001a0: 908b 0dbc 7d3c cd3d d803 243d 0355 f33c
000001b0: 04da 363d 1653 4c3d dce6 0fbd 6cae 3a3d
000001c0: 466c 48bd 399c 533d f5b2 cd3c ebf3 dcbd
000001d0: 3410 8bbc e9bc 823d 6410 693d feb3 44bd
000001e0: f82b 253c 67f5 93bc 0bbb 31bd 3be9 413b
000001f0: 6bae cabc 138c 973d d618 bcbc edd0 773d
00000200: d38d 673c 8750 1d3c a9f4 2ebd d861 82bc
00000210: 009d 9cba a23e 873b 019a ddbb 8a52 213d
00000220: cdd6 b7bd 5422 19bd d0b0 633c 1d56 53bd
00000230: 2c4f fabb f8f8 c43c 9616 393d c002 943d
00000240: 9cde 2cbd d8fb 35bb 25ef 763c 7f2a 41bc
00000250: 9339 0dbd f1b7 b73d 7e98 8dbd 2a93 843d
00000260: 99ff c23b 3c75 073d 2c77 32bd d4bb 983d
00000270: 92d1 30bd 4ac5 61bd 054e 9a3a 510a cb3b
00000280: 8443 943c 917c e53d 7bb9 82bd 36b4 22bc
00000290: 6be8 b9bd da6d dabc caa3 603d 4c1f 77bd
000002a0: 3755 c23c 242c cd3d 78c8 edbc b7cf 903d
000002b0: 894a 86bd 6673 1fbd 6b6d 64bd 4e81 6f3d
000002c0: 0ac8 543b b35a 0abd acad 353d a36e 693c
000002d0: 603b df3d 79f7 0d3c 1595 40bd 0653 ba3d
000002e0: d5e2 ab3a 30b5 fd3c 0014 86ba fb17 a1bd
000002f0: d3b4 b83d 78e1 ce3c f1ec b9bc 7664 733d
00000300: 1cba 81bc 91ea 143d 9505 773d 2929 05bd
00000310: c998 2abd d95c bb3c d321 9cbc 8056 3ebc
00000320: 5938 863d 09db 56bd 593a 2abd bd31 a339
00000330: c3a1 83bc 6a98 3f3d 6b4c 023d 6eb8 1fbd
00000340: 2d89 803d f4d2 31bd 95ea aebc c4b9 41bd
00000350: 0324 d63d 1c12 033d ce0a 7cbd 8034 57bd
00000360: 239f 8a3d 5449 183d 4940 063d 24cb 2b3d
00000370: 00a6 d33c 80c8 c33a 0eb6 913d a5a2 693d
00000380: b5cd 103d cce4 57bd 20e3 0d3d 68d0 ea3c
00000390: f96c 3bbd 45fe 463d 3898 90bd 6a97 26bd
000003a0: 4360 77bd 3a5b 4a3d 061e f13c 6626 fe3b
000003b0: cae3 3a3d f8ff cebc 48e7 86bd ca0d 023d
000003c0: ac14 3e3d 4a2c c4bb 0608 863d 5d06 bebc
000003d0: 43ab b73d 6ed7 1fbd 8966 be3c 8761 f33c
000003e0: aaeb 1fbc 990e 1d3d 4a50 2bbd d7e8 9abd
000003f0: bf19 ca3d 091f 0c3d d2e3 093d 5112 383c
0.0551785 0.059710868 0.025889477 0.018663242 -0.06100706 -0.0030787215 0.04030607 0.028546957
0.09386736 0.055724073 0.023359928 0.039823607 0.00048642198 -0.009772554 -0.08791763 0.039474607
0.03534694 0.035000112 0.010227155 0.053007077 -0.010803685 0.042375628 0.043539416 -0.02802287
-0.010746517 -0.06317149 0.08353016 -0.008552688 -0.03362851 -0.050226815 0.026068911 0.0059316442
-0.054690927 0.03801947 0.059807204 -0.025005313 0.032668408 -0.013094898 -0.02380767 0.009850598
-0.046427827 0.013916087 -0.029782815 0.08143258 -0.050364546 0.0476695 0.033843745 0.04448638
0.12080374 0.007489957 -0.09021185 -0.05708617 0.029732794 0.084056124 0.06097841 -0.016402155
0.031668823 -0.0035238534 0.11571229 -0.024749463 0.00914228 0.0017762631 -0.019880844 -0.06162041
-0.04763647 -0.04198123 -0.05666274 -0.0855339 0.046239194 0.0013805566 -0.07594429 -0.03867317
-0.037512343 -0.035109 0.0022231936 -0.059692074 0.088399135 0.026141262 -0.008814332 0.045608148
-0.03972513 -0.028546514 -0.056798685 0.022990718 0.031068364 0.031504888 -0.03188714 0.066321924
-0.057315625 -0.033688024 -0.06044931 0.050411142 0.0047280104 -0.0055124424 0.038249303 -0.00018777288
0.004055035 0.008380042 -0.06417707 0.015087827 -0.0007691458 -0.00073301047 0.060846232 -0.049021307
-0.008639231 0.10021303 0.04004273 0.029703623 0.04464151 0.049883924 -0.035132274 0.045576498
-0.048931383 0.051662657 0.025109747 -0.10788711 -0.0169755 0.06383688 0.056900397 -0.048023216
0.010081284 -0.018061353 -0.04339127 0.002958848 -0.024741372 0.07399764 -0.022961061 0.06050198
0.014132935 0.009601719 -0.042713795 -0.015915796 -0.0011948645 0.0041273395 -0.0067627435 0.039385356
-0.08976517 -0.037386253 0.013897136 -0.051595796 -0.0076388326 0.024044499 0.045187555 0.07227087
-0.042204484 -0.0027768519 0.015071665 -0.011789917 -0.034478735 0.08970631 -0.06913851 0.06473382
0.00595088 0.033070788 -0.043570682 0.074577 -0.04316861 -0.05511979 0.0011772519 0.006196298
0.0180986 0.112054 -0.06383034 -0.009930661 -0.09077533 -0.02666371 0.0548437 -0.06033258
0.023722274 0.10018185 -0.029026255 0.070708685 -0.06557185 -0.038928412 -0.05576841 0.058472924
0.0032467865 -0.033777904 0.04435508 0.014247569 0.10899997 0.008664959 -0.047017176 0.09097867
0.0013113866 0.030970186 -0.0010229349 -0.07865902 0.090188645 0.025253996 -0.02269599 0.05942198
-0.015835814 0.036356512 0.060308058 -0.032509957 -0.041649614 0.022871422 -0.019059097 -0.011617303
0.06553716 -0.052454982 -0.04155955 0.0003112684 -0.016068345 0.046776213 0.03181116 -0.038994245
0.06276164 -0.04341407 -0.021352092 -0.0472963 0.104560874 0.031999692 -0.06153374 -0.052540302
0.06768634 0.037179306 0.03277615 0.041941777 0.02583599 0.0014937073 0.07114802 0.057039876
0.035352428 -0.052708432 0.03464043 0.028663829 -0.04575822 0.048582334 -0.070602834 -0.040671743
-0.060394537 0.049403407 0.029433262 0.0077560423 0.045627393 -0.02526854 -0.06587082 0.03175143
0.046406433 -0.005986725 0.06544499 -0.023196394 0.089682125 -0.03902381 0.023242252 0.02970959
-0.009760777 0.038344 -0.041824616 -0.07563942 0.09868192 0.034209285 0.033664532 0.011234836

network.4.bias f4 [9]
00000000: 293a 8b3b 1075 103c cc1a 3cbc 6f08 693b
00000010: e8eb 633d eee9 cd3b c816 1dbd fc64 003d
00000020: 19a8 3abd
0.0042488766 0.008816972 -0.011480998 0.0035558005 0.0556449 0.00628399 -0.038351804 0.031346306
-0.045570467
