critic.pth (torch, 144783 bytes, 5 tensors)

network.0.weight f4 [128, 18]
00000000: 7f02 60bb f3fe 03be 0a0b 3fbe 74a6 313d
00000010: 5bf1 ae3e 77c8 1dbc 3d6c 953d a545 b5bd
00000020: 8243 8d3e e947 af3e 16fc 403e 9eb0 84be
00000030: 95fd 82be c1d2 e7bc 4a86 59bd cfa5 9ebd
00000040: 22f6 853e 17ed 1a3e 85b9 1cbe 8871 513e
00000050: 2da4 a63b ab69 653e 6fc4 263e c842 f8bc
00000060: 599a 0abe 239d 65be 88ca 143e f949 61bc
00000070: aeae a63d de13 d1be a4f3 05bd 6cfc dcbe
00000080: 28ae cabd 67f7 1f3e 50da eabe a172 7f3e
00000090: 3d8d f03d df70 603d 7211 743e 693d f4bd
000000a0: fdff f63d e2f2 1cbe 36fa 46bd 4f76 b63e
000000b0: aa0d 60be 27fd c63d 9e2f a13d a09d 16b9
000000c0: 0a00 0d3d f2f3 ed3d c5fc 21bd aa90 34be
000000d0: c660 fc3d 59f9 b83c 3ec1 bb3d 10c1 b5bd
000000e0: 30e1 03be f5e4 92be 733e d8bd a6d3 373e
000000f0: f487 b4ba 12f3 ffbd b5c2 893e a799 003e
00000100: 2c85 8e3c 7a7a 12bd 18ce d0be dae4 0a3c
00000110: 7e97 a33d 25d9 39be 595d 53bc d246 0dbf
00000120: 8549 6fbc 6906 44be 0d33 f13d 654d 48be
00000130: 0645 8bbe 2728 8e3e 1174 8bbe 647a efbd
00000140: e278 6b3e d989 4f3c 0d3b bfbe cabd 733e
00000150: 2b7b e9be 8f16 5bbe 17f2 063f 1b25 c13b
00000160: ff34 293e e890 c3be facf 603d 89a4 20be
00000170: a5a8 aaba c79d 70be 97a5 073e 2fa3 673e
00000180: b65a f2bd 046e 1abe c580 853e 0b8d 043e
00000190: 5576 abbe 51c3 af3d 08fc 05bf 6f28 93bd
000001a0: c414 c53d 353d aabe 5a3a f5bc 440a 1c3e
000001b0: 78f1 10b7 ea60 adbd 6608 d2bc e5b8 81be
000001c0: be39 44be c2a6 d63d 3d1e 323d a3cd 82be
000001d0: 7ad8 8f3d e729 57bd ca4a 9bbd 9b97 86be
000001e0: 0ea3 69be 7051 86be ce7f d5bd 093b 873d
000001f0: 58d3 3e3e 488e c53d 7f7f cb3d a672 cdbd
00000200: 1226 5a3d c729 89be 4436 5cbe 5ce1 05be
00000210: 56b0 ce3d 90dc a7be 25fc 85be 29c2 aebd
00000220: 1cf0 5a3e 3c71 03be 6bb3 fcbd e4e3 a1bc
00000230: 15d3 d0bd 4464 79be 0bd5 8f3e ebac a03d
00000240: 0630 d2bd 6978 c7bc 13bd 27be 92b7 723e
00000250: 0c94 e33d bfde 6a3d 5d42 21bd 41dc 35be
00000260: 5c44 103e 8fbe 45bb e7c8 26bd 3fa7 a2be
00000270: 7cee 1b3e a4a2 f9be 7454 1a3e e302 d83d
00000280: 073a 103c 7ed7 533e cfbc 25be c22f febd
00000290: fc37 1f3e b824 e2bd 0e20 38be 4701 073e
000002a0: d76e a1be efa8 3c3e c400 16bd 3e1d 87be
000002b0: 7065 c73e 795f d7bd 3706 45be d841 84be
000002c0: f0bb 7dbe 09ad d63d b0ef 6dbe d8fb 49be
000002d0: be2d acbd 3e04 523e f400 a33d fb58 673e
000002e0: 03ed 0ebe 8f46 47be b0a1 c7bc 0eee aabd
000002f0: dbff de3d 2b3c a53d bb5f 3cbe 0a00 f53d
00000300: 0db9 fcbc b565 7bbe b86d 9abe 331a 763d
00000310: dc16 593e 94ad dc3d 2acc 3abe 0f0c 143b
00000320: c89f 193e b669 323c e7b4 d4bd 550c bc3e
00000330: 3724 d0be 1c3e 3ebe 9e19 f23d ab90 1b3d
00000340: 4238 b1be febc 7e3d 30e4 c1be 5659 e3be
00000350: fe52 c93e 6fa3 653e 7505 02bd 5097 e5bd
00000360: 52e9 fabd 2dff 6cbb 5a9f 313d e43c 86bd
00000370: c1b4 e53c ca82 603e 6d03 1cbe 3ed7 b3bd
00000380: 2d63 26bc fcf5 b23d f357 e8bd d232 8b3e
00000390: f3d5 82be a989 733d 2e4c a53e 86f8 18be
000003a0: 604f e73d 7cf7 0cbe 6891 87bd 3004 babd
000003b0: f9f8 d7bd 671c 783e 205c 88be 458a db3d
000003c0: 6e82 5f3e 4123 383e 707d 19be 50be 9bbe
000003d0: 12a3 203b 7fe3 933d 0f0d 773e 6cae 5dbe
000003e0: 0824 8c3e 80e9 b73d d8d1 31bd 737c 3a3e
000003f0: 673d a8bb b945 11be 7c8c aabd f3f3 893d
-0.0034181175 -0.12890224 -0.18656555 0.043371633 0.34168515 -0.009630314 0.072960354 -0.08851174
0.27590567 0.3423455 0.18846163 -0.25915998 -0.25584093 -0.028298737 -0.053106584 -0.07746469
0.26164347 0.15129505 -0.15305145 0.20453465 0.0050854892 0.2240359 0.16285871 -0.030305281
-0.13535441 -0.22423224 0.14530385 -0.013750547 0.08138786 -0.4083547 -0.032703057 -0.43161333
-0.09896499 0.1562172 -0.45869684 0.24946071 0.11745689 0.054795142 0.2383478 -0.119257756
0.12060545 -0.15327027 -0.048578463 0.35637137 -0.21880212 0.09716254 0.078704104 -0.00014363835
0.034423865 0.116187945 -0.0395477 -0.1763331 0.123231456 0.022579836 0.091677174 -0.088747144
-0.12878871 -0.28690305 -0.10558786 0.17951831 -0.0013773427 -0.12497534 0.26906362 0.12558614
0.017397486 -0.035761334 -0.40782237 0.008477414 0.07987879 -0.1814924 -0.012900674 -0.5518619
-0.014604931 -0.1914307 0.11777315 -0.19560774 -0.27201098 0.2776501 -0.2723699 -0.11693266
0.22995332 0.012667143 -0.3734974 0.23802868 -0.45601782 -0.21395324 0.5271315 0.005894316
0.16524123 -0.38196492 0.054885842 -0.15687765 -0.0013020231 -0.23497687 0.13246761 0.22620843
-0.11833708 -0.1508103 0.26074806 0.12944429 -0.33488718 0.085821755 -0.52337694 -0.071854465
0.09623101 -0.33249822 -0.02993505 0.15238291 -8.63929e-06 -0.084657505 -0.02563877 -0.25336376
-0.19162652 0.10481025 0.04348587 -0.25547513 0.070237115 -0.052530196 -0.07582624 -0.2628754
-0.22816107 -0.26234007 -0.104247674 0.06603057 0.18635309 0.096462786 0.09936427 -0.10031633
0.053258963 -0.26789686 -0.21505076 -0.13074249 0.10092227 -0.32785463 -0.26168934 -0.08533127
0.21380657 -0.12836164 -0.12338909 -0.019761987 -0.10196511 -0.24354655 0.28092226 0.078454815
-0.10263066 -0.024349408 -0.1638072 0.23702839 0.11112222 0.057341333 -0.03936993 -0.17759801
0.14088577 -0.0030173396 -0.04071894 -0.31768224 0.15227693 -0.48756897 0.15071279 0.105474256
0.008802897 0.20687672 -0.16185306 -0.12411453 0.155487 -0.1104216 -0.17980978 0.13184081
-0.31529877 0.18423818 -0.036621824 -0.26389498 0.38944578 -0.10516257 -0.19240652 -0.25831485
-0.24778724 0.104822226 -0.23235965 -0.19724977 -0.08407162 0.20509431 0.07959166 0.22592537
-0.139576 -0.1946051 -0.02436909 -0.083461866 0.10888644 0.08068117 -0.18395893 0.11962898
-0.030849958 -0.24550517 -0.30161834 0.06008358 0.21200126 0.10775295 -0.18241945 0.0022590195
0.15002358 0.010889461 -0.10386067 0.3672816 -0.4065263 -0.1857838 0.11821292 0.037979763
-0.34613234 0.062191956 -0.37869406 -0.44404095 0.3932113 0.22425626 -0.031743485 -0.11210501
-0.122515336 -0.0036162839 0.04336486 -0.06554583 0.028040292 0.21924892 -0.15235682 -0.087812886
-0.010155481 0.08738324 -0.113449 0.2718721 -0.25553855 0.059457455 0.32284683 -0.14938554
0.112944365 -0.13766283 -0.06619531 -0.0908283 -0.10545535 0.24229585 -0.26632786 0.10719732
0.21827099 0.17982198 -0.14989257 -0.30418634 0.002451126 0.07221126 0.24126075 -0.21648568
0.2737124 0.089800835 -0.043413013 0.18211536 -0.005134273 -0.14186753 -0.083275765 0.06735983

network.0.bias f4 [128]
00000000: a38b 60bd e01a d3bc 8e51 fbbd e234 2f3e
00000010: 4a34 4cbb ef83 883e 900c 3ebd e2d8 7a3d
00000020: 3b0f ff3d 184f 09be ccd2 23bc 048f a83d
00000030: c29c aa3c 8831 943d 0711 1fbe aac6 933b
00000040: 015d ba3d c9c3 02be ef59 51be 275e 67be
00000050: ed7f 3fbe d8b1 29bd b531 113a 20e3 2a3e
00000060: ab24 a3bd 7d8d edbd b574 47bd c2f9 1dbe
00000070: f97a 8abe f7ed efbd 15bb 85bd 874a 7dbe
00000080: 7e21 343e 7e59 b8bd 94ea 653d 1014 3cbd
00000090: 7399 243d 05c1 ae3d dc2c b13d 1295 4cbe
000000a0: eb40 fbbd 7e9d 80be 974c da3d eece 99be
000000b0: 6fd8 c93d c738 6b3e be83 5d3d 7aef 443a
000000c0: cc5d 5fbe 1be7 11be bf74 c53d 780b 7f3d
000000d0: 85f1 aabd 1741 5abd d932 f53b 7179 cdbb
000000e0: 7ea9 82be dcf3 febc 974e 3a3d 5b2c 9e3c
000000f0: 44ab f03d d70c 3fbd 19aa 07bd 0419 89bd
00000100: 3a48 efbd 454f 7a3b 8c1a 35be 9bc9 39bb
00000110: fbcd ea3d cd2b 153d 9afb f73d 703b 973d
00000120: 6b31 96bd 13ca 08bd 8322 ec3c 5253 98bc
00000130: 5533 083e 7e79 61bd b5e2 b5bd 67bd 90bd
00000140: 18e0 5d3e 357c 4a3d 87ee edbd 67dd 453e
00000150: 2760 59be ccf6 d1bd 3044 32be d539 54be
00000160: 2cba f93d 4c40 65be 1569 7b3e cc5a 34be
00000170: ffd5 bdbd 4e60 a53c eb0f fbbd 9377 51bc
00000180: bad7 93bd 5ec9 61be b2d7 a13c 6348 e9bd
00000190: f0e5 01bd ff50 1fbe 3773 f6bc 7196 d4bd
000001a0: 4263 a23d 9015 aebd 2510 1ebe 03a8 59be
000001b0: e134 09bd 2117 913d 62cf 033d d56e 6b3d
000001c0: fe2f a1be c7b1 0e3e 26b0 0c3e 9e74 0f3d
000001d0: 6429 db3d 3126 d8bd f4b1 03be 32c4 8fbd
000001e0: 96cd 0fbe 9047 2abe 0dba 633e ce6d 5b3e
000001f0: 59b8 21be eecc a4bd c642 2d3c 19a2 65be
-0.054820668 -0.025769651 -0.12271415 0.17110017 -0.0031159096 0.26663157 -0.0463987 0.06124199
0.12454077 -0.13409078 -0.009998988 0.08230403 0.020826701 0.0723601 -0.15533839 0.0045097666
0.0909977 -0.12769999 -0.20444463 -0.2259451 -0.18701144 -0.04142937 0.0005538718 0.16688204
-0.07965978 -0.115992524 -0.048695285 -0.15427306 -0.27046946 -0.1171531 -0.06529824 -0.24735461
0.17590901 -0.09001444 0.056131914 -0.04591757 0.040185403 0.08532909 0.08651134 -0.19978741
-0.122682415 -0.25120157 0.106591396 -0.30040687 0.098557346 0.22970878 0.054080717 0.00075124914
-0.21813124 -0.14248316 0.09641408 0.062266797 -0.083468474 -0.05328473 0.007482868 -0.0062705805
-0.25519937 -0.03112214 0.045485105 0.01930826 0.11751416 -0.046643104 -0.033121202 -0.066942245
-0.11683698 0.003819422 -0.17685908 -0.0028348926 0.11465069 0.036418725 0.12108536 0.07384384
-0.073336445 -0.033395838 0.02882505 -0.018594418 0.13300832 -0.055047505 -0.088811316 -0.07067376
0.21667516 0.04943486 -0.11617761 0.1932274 -0.21228085 -0.10252151 -0.17408824 -0.20725186
0.121937126 -0.22387809 0.24551804 -0.17612761 -0.09269332 0.020187523 -0.122588955 -0.012784856
-0.07218881 -0.22049472 0.019756172 -0.1139076 -0.031713426 -0.15558241 -0.030084236 -0.10380257
0.07929088 -0.085002065 -0.15435846 -0.21255498 -0.033497695 0.070844896 0.032180198 0.057478745
-0.31481928 0.13935004 0.1373907 0.035023324 0.10701254 -0.105541594 -0.12860852 -0.07019843
-0.14043269 -0.16628861 0.22238941 0.21428606 -0.1579298 -0.080469 0.010575002 -0.22425117

network.2.weight f4 [256, 128]
00000000: 407c 883e 02c8 c63d 0135 0bbe 166d 2d3e
00000010: ae42 b53e dcf6 c43d 7564 ccbc cd19 cc3d
00000020: 57c6 0b3c 82f2 91be 1762 873d 57cf 663e
00000030: 9ade 9f3c 46ad f63d f40e 8f3d 6e21 b13d
00000040: 3987 003f 9f2d 053d 317a 03bd 134b debd
00000050: 0458 79bd f4d3 a23d b286 8ebe 1198 63be
00000060: 4bf5 c83e be56 843d 74ac 293d 071e a63e
00000070: b0a5 8fbe d25e 11be b196 83bb da72 733d
00000080: f9ae ba3d 3b49 293d 1166 2c3d 52da c4bc
00000090: 250e 093e a593 8d3d 452c 573d 31c3 cf3d
000000a0: 4566 5cbe 81a8 01bc d20b e33b 097a b93d
000000b0: 9b99 853e f9de 8bbc bfa7 033e 46e0 60bd
000000c0: 5c80 02bf 0694 593e 6dcc 36bd 7407 8bbd
000000d0: 5d79 143d 50aa fcbc c6a3 4b3e d145 68be
000000e0: ef1f e93d a632 813e 50a2 133e 6ab5 bf3e
000000f0: cff8 073f 1b7d 62bd 9a6e 9bbe 48ff 04be
00000100: ea05 743e 6c3e d03c 43a9 af3d 144a a63e
00000110: b9f4 093e c873 0f3f 9eab 35be b7a0 1d3d
00000120: c581 853d b805 97bd 4d39 e8bc 225c 2ebd
00000130: f4db b53d 5d5f 4b3e cd56 8c3b 63b7 eabe
00000140: af99 163e 5f65 1b3d 861c 623e 7bc5 c73d
00000150: cfbe a5bc 3202 e0be 965b 0f3e b795 bebe
00000160: f98c 023e 5799 31be 1bda b83e b665 a13c
00000170: b944 7abd 61cb 853d df19 d3be 41a6 a23e
00000180: f4d3 193d 1eb7 b43d ad85 a53e bd7d fb3d
00000190: ef6a 643d be7b 4a3e ddfc cf3d 2cfb 843e
000001a0: a1af 8ebe ebf9 573e acef e4bd 1794 2ebd
000001b0: 98c9 8e3d bedd 94bc 3cae a8bd 02f7 ce3c
000001c0: f6f6 a0bd 7de4 5a3d ffb9 8bbd 5a16 aabe
000001d0: 1a69 1e3d e2c9 f6be 0c48 6b3e 90a0 173e
000001e0: 2e33 573e 4dc0 a13a 7f74 16bd 838b 183e
000001f0: e62f 1c3d b8a5 963b e043 123e 1120 15bf
00000200: dad4 a1bd b7d5 883b 31a3 6fbc 6bf9 c8bd
00000210: b183 d2bc 2f96 0439 3eb1 98bd 9f00 a93d
00000220: bdab 383d 2936 953d 2dc5 4cbc 9497 6e3d
00000230: e6c5 f33c 5832 b0bd 0602 1bbd 161d d4bc
00000240: c678 ae3d 09c0 173d f17b f0bc fb57 003d
00000250: e32e 01bd d95f ba3c 1b47 b1bc 3e80 e93c
00000260: e5fe b13d 33f0 afbc 6624 2abd c89a 0439
00000270: 82d1 533c d47d aabd 6c98 bebd 91f9 9c3d
00000280: d55f 18bd 36a9 e03c 1d33 ccbc e5dd b0bd
00000290: 624e a43d 9dd2 a6bd 1cae b6bc d301 963d
000002a0: e39c 2fbb d992 223c f9e3 58bd 5eda 903b
000002b0: 1042 aebc c2bb 703d 3bfb de3c 0e30 643d
000002c0: 4b2f bebd c709 99bc f494 a6bc e036 223c
000002d0: e424 83bd 4e75 19bd 92fd 763c 84e6 8e3d
000002e0: bb21 293d 7f53 11bd 4127 403c 04f6 893c
000002f0: 356f 843b c91b af3c ebc5 25bd 58a9 9d3c
00000300: 1bd7 acbd 6aac 1cbd 2c21 6fbd c4aa 38bd
00000310: 881e 1abb 653b 93bd 5b4b 723c de9e 77bd
00000320: 5ec0 5dbd 389e 9f3c 5f49 7f3d 35fe 88bc
00000330: 03ee 27bd af34 2f3d 4ce4 353d d24c 20bd
00000340: f788 87bd 13ae 313d 285d 8fbd e0ba 96bd
00000350: c581 b0bd 6ca8 6d3d 387f 12bc f9ad 84bd
00000360: 694f 803d 8cce 30bd 268f 76bb 14de 45bc
00000370: 4a3a e83c adbe a8bd 2c24 9cbc f97c 7abc
00000380: b551 b6bd 28aa 83bd 8c16 89bc 57a1 57bd
00000390: 41cc 593c 601e 8a3d dc15 b4bc 1f86 1ebd
000003a0: a743 57bd 6d7b 84bc 6e51 6bbd 2c87 0f3d
000003b0: 95ef 95bd 4275 abbd 694b 2f3d 6aa1 90bd
000003c0: 2617 acbc 95d9 d23c 75ab 86bc ece4 273c
000003d0: 0c03 4e3d 3f5e d23c dd32 a93c 0d1e 553d
000003e0: 679b 56bd 0fd8 e93c 607a 5c3d b31f 80bd
000003f0: e4de 1fbd f00f fa3c 6d61 1cbd 9f8d 51bd
0.26657295 0.09706117 -0.13594438 0.16936144 0.35402435 0.09617397 -0.024950245 0.099658586
0.008531175 -0.2850533 0.06610506 0.22540031 0.019515324 0.12044768 0.06985274 0.08648954
0.50206333 0.03251421 -0.032098953 -0.10854163 -0.060874954 0.07950583 -0.2783714 -0.22225977
0.39249644 0.06461857 0.04142423 0.32444784 -0.28056097 -0.14196327 -0.0040157665 0.059435703
0.09115405 0.041329604 0.042089526 -0.024029884 0.13384302 0.069129266 0.052532453 0.10144652
-0.21523388 -0.00791371 0.0069288993 0.090564795 0.26093754 -0.017074095 0.12856959 -0.054901384
-0.5097711 0.21247873 -0.04462855 -0.06788531 0.036248554 -0.03084293 0.19886693 -0.22682883
0.11383044 0.25233954 0.14417386 0.37443095 0.53114027 -0.05529509 -0.3035782 -0.12988007
0.23830381 0.02542039 0.08577206 0.32478392 0.1347226 0.56036043 -0.17741248 0.038483348
0.06518892 -0.07374138 -0.028347636 -0.042568333 0.08879843 0.19860597 0.0042828084 -0.45843038
0.14707063 0.037938472 0.22081193 0.09754463 -0.020232586 -0.43751675 0.13999781 -0.37223598
0.1274909 -0.17343651 0.361039 0.01970182 -0.061100695 0.06532932 -0.41230676 0.31767467
0.03755565 0.08823989 0.3232855 0.12279842 0.055766042 0.19773766 0.10155652 0.2597288
-0.2786837 0.2109143 -0.11178526 -0.0426217 0.06972045 -0.018172141 -0.082363576 0.025264267
-0.07859604 0.05344056 -0.06822585 -0.33220178 0.03867445 -0.482009 0.22976702 0.14807343
0.21015617 0.0012340635 -0.036732193 0.1489697 0.038131617 0.004597392 0.14283705 -0.58252054
-0.07901926 0.0041758674 -0.01462631 -0.09813198 -0.025697561 0.00012644449 -0.07455681 0.082520716
0.045085657 0.07285721 -0.012498182 0.058250025 0.029757451 -0.08603352 -0.037843727 -0.025892776
0.085191295 0.037048373 -0.029355975 0.031333905 -0.031538855 0.022750782 -0.021640351 0.028503533
0.086911954 -0.02147684 -0.04153862 0.00012646161 0.0129283685 -0.08324781 -0.09306416 0.076647885
-0.037200768 0.027424436 -0.024926716 -0.08636073 0.08022763 -0.0814564 -0.022299819 0.07324567
-0.0026796393 0.0099227065 -0.052951787 0.0044205626 -0.021271735 0.05877281 0.027219405 0.05570989
-0.09286364 -0.01868142 -0.020334698 0.0099007785 -0.06403521 -0.037465386 0.015075104 0.06977561
0.041291934 -0.03548002 0.011728109 0.016840942 0.004041577 0.021375554 -0.040471952 0.019245788
-0.084394656 -0.038250364 -0.058381245 -0.04508473 -0.0023516733 -0.07189063 0.014788474 -0.060454242
-0.054138534 0.019484624 0.06232583 -0.016722778 -0.04099847 0.042774852 0.044407174 -0.03913576
-0.06617921 0.0433789 -0.0700019 -0.07359862 -0.086185016 0.058021948 -0.008941464 -0.06478495
0.06265146 -0.04316573 -0.0037621944 -0.012076873 0.028348107 -0.082394935 -0.019060217 -0.015288585
-0.08902303 -0.06428939 -0.016734384 -0.0526441 0.013293327 0.06744075 -0.02198308 -0.038702127
-0.052554753 -0.016172135 -0.057450704 0.03504102 -0.07321087 -0.083719745 0.042796526 -0.07062037
-0.021007132 0.025738517 -0.016439179 0.01024745 0.050295874 0.025679706 0.020654136 0.05203061
-0.052394297 0.028545408 0.053827643 -0.06256046 -0.039030924 0.030525178 -0.03817885 -0.05116045

network.2.bias f4 [256]
00000000: ec5a 923d dda2 37bd 11aa b53d d456 96bd
00000010: ffce dc3c 1f1c c7bb 130d 25bd 7a06 d43d
00000020: adbb b5bc e372 bc3d 1294 21bd a681 60bd
00000030: 4474 5d3d bd54 09bc 75b3 023c 0085 d73c
00000040: a7e9 6f3c f65b 063d 52cd 9abd 1113 16bd
00000050: 87f4 f73d 6da4 123e fdb4 f43d b152 113e
00000060: 526d a43b d12d db3c bb5b 81bc a22e fdbd
00000070: 23b5 32bd b2eb 16bd 1e07 b83d 6191 493d
00000080: 8111 d83d 3df0 6f3d fca5 c13c 8626 82bd
00000090: ba5b 993d 71f6 1b3b 0aa1 683d fec9 5bbd
000000a0: 5c1f 46bc 17c7 003d 9a9f d13d ad1d 133e
000000b0: 18a5 e1bd 9abb c93d d521 1fbd ef02 12bd
000000c0: 46c4 cd3c f04a c53d e02e 55bd c291 8f3d
000000d0: 2b18 a53b 0394 62bd 5455 803c d295 c1bd
000000e0: f4eb 5f3c 4d98 9f3d 0eb0 e93d 3889 fcbc
000000f0: 8154 393d 26ae 643d 8d41 dd3d 9b2e 61bb
00000100: d071 97bd 807d b0bc ff33 0ebd 652f ed3d
00000110: bbcc 9d3d f793 06bd 60a6 703d 6c53 5cbc
00000120: d4fa dd3d 1198 0e3b 2776 8fbc 284e e93d
00000130: 66f3 c63d 1943 eb3c baaf 433d dab8 4bbd
00000140: 1df5 8b3c 0305 103d 0785 283c fcce e83d
00000150: 5e98 253c d692 753b 91ad 7a3d 2bc8 9dbd
00000160: 138b 113d 021b a63d 4573 bb3d 6545 923d
00000170: 661c 58bd 47c8 42bd fdb0 d93a 0db9 473d
00000180: 4b85 2e3d 60b8 a63d 0c7f 593d 44b8 6c3c
00000190: b375 ff3c 0c06 a53c b0bb c5bb 3fc9 a83d
000001a0: 017d fb3c 13ec 91bd cb6a 803c ec44 f63c
000001b0: 1d50 96bc 0016 88bd dc93 c93d 4030 123d
000001c0: c04e 883c 1417 92bd 7a31 a53c 93d9 00bc
000001d0: 3250 87bc ecaf dc3d e0b9 983c 7ccc 52bc
000001e0: 44d4 0f3d 88a2 4ebd f05c 203c e300 38bd
000001f0: 5840 063e 9f69 28bc 5008 b7bd 3fea ab3d
00000200: 8028 883d ba0a af3d 3d44 643c e1d1 c0bc
00000210: 38ff a03d 06de 573b 4d2e e5ba 8eaa bbbd
00000220: 942a 19bd 5e9e 283d 67be 05bd 92e0 88bc
00000230: 91a6 4f3d ced1 e23b b878 c73d 01b0 283d
00000240: 6725 9c3d 4ec0 6e3a a573 57bd 676d 593d
00000250: 537f e93d 4403 c33c 5f0e 853d 1891 9ebd
00000260: f678 e4bb 90cb 983d df97 9bbd 104c 6bbc
00000270: b706 953d 29a2 083e 29c9 863d 8fae 41bc
00000280: c3d2 c03d 07cb 0dbd 727f 80bd efb6 f53c
00000290: e023 a13c 68db 8b3c 1b07 a5bd 7448 903d
000002a0: f74a 8dbd 7521 2cbd b53e ad3d c3cd f0bd
000002b0: bbea 6dbd 49de 5d3d afd1 263d c7a2 b63d
000002c0: 8223 7dbc 8010 b0bc 49a6 3cbd 87ff 9d3d
000002d0: aaad 26bd 5670 13bc 7e24 423c f675 91bc
000002e0: 9a02 03be 4003 303d d97b b6bd 585b a43d
000002f0: d804 65bc 18bd 133d 8a26 3bbd 2ff3 e23c
00000300: 8409 e83d 825a a43d b96d 003d 8145 c9bd
00000310: b548 ab3d 0b26 8dbd c5a1 95bc a261 b33d
00000320: bd83 263d 3162 d5bc 49ce 183c fa48 ba3d
00000330: 310b 163d 9d3e 4bbd 30c3 6f3d adf8 a2bc
00000340: 69f9 643c 854e 903d 7a2c 34bd 0343 263d
00000350: d3d5 8ebd 2a63 733d 13ed d73c dcab 583d
00000360: afb4 5dbc 8d6e f73d 295d 93bd e557 37bd
00000370: cf9c 553c 6eaf 55bc b727 d8bb f936 9a3d
00000380: 00c6 3fbd b557 263d f2a4 383d 61fc 8fbd
00000390: 16f4 653d 9462 9c3c 2f2f 8b3c 8f7b 99bd
000003a0: da52 a33d 81bd 3fbc 41e8 a6bd a49c 90bd
000003b0: 8a46 cd3c cf34 38bd 59e4 3fbd 67f0 ec3d
000003c0: 283a 7abc ff5d a33d 9c53 8b3d 73b1 05bd
000003d0: f678 063d fee2 0bbd eda3 633d 067c 40bd
000003e0: 6b99 a23d 4651 70bc 0095 7a3d 2b76 aa3d
000003f0: 371b a13d 0eda 7e3d f329 9b3c 1856 babc
0.07146248 -0.044833053 0.08870328 -0.0734078 0.026954172 -0.0060763503 -0.04029567 0.10352798
-0.022184217 0.092016004 -0.03944785 -0.054811142 0.054065958 -0.00838202 0.007977356 0.026308537
0.014643109 0.032802545 -0.07558693 -0.036639277 0.12107187 0.14320536 0.11948583 0.141917
0.005017915 0.026755245 -0.01579081 -0.1236241 -0.043629777 -0.03684587 0.089857325 0.04921091
0.105502136 0.05857872 0.023638718 -0.06355004 0.074881986 0.0023798014 0.056794204 -0.05365943
-0.012092438 0.031439867 0.1023552 0.14366789 -0.11017817 0.09850235 -0.038850624 -0.03564733
0.025118005 0.09633434 -0.052046657 0.07010223 0.0050382814 -0.055316936 0.015665688 -0.09452404
0.013667095 0.07792721 0.11410533 -0.03082715 0.045246605 0.055830143 0.108035184 -0.0034360054
-0.07394755 -0.021544218 -0.034717556 0.115813054 0.07705065 -0.032855954 0.058752418 -0.013447624
0.10838857 0.002175812 -0.017512394 0.1139186 0.09714393 0.028718518 0.047775008 -0.049736835
0.017084653 0.03516103 0.010285622 0.11367604 0.010107128 0.0037471554 0.061200682 -0.07704195
0.035533022 0.0811062 0.09152845 0.07142142 -0.052761458 -0.04755428 0.0016608533 0.048760463
0.042607587 0.081406355 0.053099677 0.014448229 0.031184053 0.020144485 -0.006034337 0.0824151
0.030699255 -0.07125106 0.015675923 0.030062161 -0.018348748 -0.06644821 0.09842655 0.035690546
0.016639113 -0.07133308 0.020165194 -0.007864374 -0.016517732 0.10775742 0.01864332 -0.012866136
0.03511454 -0.05044797 0.009787783 -0.04492272 0.13110483 -0.010279088 -0.08937132 0.08394288
0.0664835 0.08546968 0.013932285 -0.023537578 0.07861179 0.0032938733 -0.0017485112 -0.0916339
-0.03739412 0.041166656 -0.032652285 -0.016708646 0.05069596 0.0069219833 0.09739822 0.041183475
0.076243214 0.0009107635 -0.05260052 0.05308285 0.11401238 0.023805268 0.06496882 -0.07742518
-0.0069724275 0.074607015 -0.075973265 -0.014361396 0.072766714 0.13343109 0.06581337 -0.011821403
0.094151996 -0.03461745 -0.06274308 0.029994456 0.019670427 0.017072394 -0.08057996 0.07045069
-0.06899064 -0.042024095 0.08459226 -0.11757996 -0.058085185 0.054167066 0.040727314 0.08917766
-0.01545036 -0.021492243 -0.04605702 0.077147536 -0.040692963 -0.008998951 0.011849521 -0.017756443
-0.12793961 0.04297185 -0.08910341 0.08025235 -0.013978206 0.036069006 -0.04569105 0.02770385
0.1132994 0.080250755 0.03135464 -0.0982771 0.08363477 -0.06892022 -0.018265614 0.08758856
0.04065298 -0.026047798 0.009326526 0.090959504 0.036631767 -0.04962026 0.058535755 -0.019893968
0.01397548 0.070462264 -0.04398773 0.04059125 -0.069743775 0.059420742 0.026358163 0.052898273
-0.013531848 0.12081633 -0.07195503 -0.044761557 0.013037874 -0.013042314 -0.0065965313 0.075300165
-0.046819687 0.040610988 0.04507918 -0.07030559 0.05614098 0.019089974 0.016990272 -0.0749427
0.07974787 -0.011702896 -0.08149768 -0.07061127 0.02505805 -0.044972237 -0.04684863 0.115692906
-0.015272655 0.07976913 0.068030566 -0.032639932 0.0328302 -0.034152023 0.055576254 -0.046993278
0.079394184 -0.014667815 0.061177254 0.0832332 0.07866519 0.062219672 0.018940901 -0.02274613

network.4.weight f4 [1, 256]
00000000: ed9c 83be 44b4 30bc 44a4 463e b2cf 0ebc
00000010: 8c0b 183e c03f 333e d576 2dbe 19f3 393e
00000020: 84d2 893c e50a 153e 3830 8abe 3cf9 9bbe
00000030: ca92 593e faca 273e 10b5 5dbe 2b5d 2f3e
00000040: 56e9 353e fb5d 84be d450 683c 3d0c 58be
00000050: 1d6e 513e 62a9 48bd 7522 553e 6609 363e
00000060: 1e96 d6bd 3bcc 67be ea56 fa3b a2a4 80bc
00000070: d2ff 92be fe16 693c 3cea 4a3e df5b 69be
00000080: 9818 663e 6161 a9be 5833 703e c148 513e
00000090: f22e 3b3e 4a7d 8ebe 838f 75be a702 373e
000000a0: edcf bc3c 0e35 483e fec5 89be 4012 803e
000000b0: a6d9 94bc 704f 443e 6460 69bc 4623 5ebd
000000c0: d72c 92be dd5d 24be b4b9 d43c 74c6 94be
000000d0: 663f 46bc e56d 1c3d 1d8a 8f3d 0aa6 a33c
000000e0: 0ed0 6a3e 791b 633e b1a8 563e ac65 66be
000000f0: c56f 6ebe 69fa 89be 7815 5c3e ba36 cbbc
00000100: f3f9 b43c b78a 75be 656e 73be 2125 9ebe
00000110: 1792 69be ad49 9dbe f671 623e 14da c93d
00000120: 30cc 553e 20d7 13bb 4161 883c 0578 43be
00000130: 08e0 5abe 20ca c2bc 4939 5a3e b58a 52bd
00000140: 4808 4a3e fd17 5e3e 4f35 91be dd52 623e
00000150: b498 dc3c 9872 81be d25a dbbe 7932 333d
00000160: e2bf 87be 2806 79be d009 82be 548d 603e
00000170: 6230 8ebe efda 37bc e6ab 90be 4eab 413e
00000180: 5776 64be 841c 8cbe c828 6dbe d141 3b3e
00000190: 4adf 97bb e5bf d53b 7b81 8d3c 3262 713e
000001a0: 304e 5ebe fd93 a73c 0199 8cbe c200 633d
000001b0: e432 1f3e 54ca 833c db6e 6a3e 07ab 93be
000001c0: ffd1 5fbc fb68 2dbd fa0f 68be 2f07 85bc
000001d0: ab48 4fbe dceb 563e e105 483e ac2a 073c
000001e0: 5078 5abe 7928 233c 06fb d73c 91ca 573d
000001f0: 231b 4a3e 3117 a23c 3de2 2ebc 9b80 81be
00000200: 9bc6 97be da75 77be d8e3 5c3b 0a76 85be
00000210: cebd 663e f5b8 793e 51b5 8cbe 1dba b0bb
00000220: 25fa 00bc 5e3b 13bd 69f4 9abb 9a87 95be
00000230: 2686 78be 6fcf 2f3e b287 7fbc ea38 88be
00000240: 3adc 5b3e 3d06 96be f90e 1cbe 6373 87be
00000250: 3ab4 343e 97f3 213e 31dc 65be 842a 693e
00000260: 0bd4 7aba fd6e 79be 3657 883b 53ab 023c
00000270: 3d87 283e ad9a 843e 044f 6dbe 9c81 043e
00000280: f457 0ebf ff8b 203c 19ca 863c 929f 62bc
00000290: 2c29 053d 218c 74bc 0a1b 563c 2dbd 483e
000002a0: 00a1 6e3c 9169 98be 4396 613e b417 15bc
000002b0: dab4 c0bb e88f 86be 3bb9 8abe ac78 82be
000002c0: 3af9 4bbe c941 95be 8942 23bc a88a 62be
000002d0: 8056 9e3d dfc3 573e 4c61 5ebe f472 3e3e
000002e0: f463 083d 2e97 5ebe 704b 463b 1176 753e
000002f0: 6de7 44bc aed2 663e 4b05 283b 480c 863e
00000300: ab51 363e 07fd 85be c368 8ebe 5807 a1b9
00000310: 9cbf 563e 097c 4ebc 352b 343e 0778 85be
00000320: 4b5e 173e f1b8 9f3c 1ff2 66be cc7b 143e
00000330: 09ae 693e b8b3 7c3c b3ec 80be a568 8fbe
00000340: 9556 8fbe 085a 88be b145 86be 2949 84be
00000350: 2bf2 fabb 01bb 91be f5d3 71be eb5b 683e
00000360: 9cb6 52be 41cd 3bbe 1d8a 93be 956b 6cbe
00000370: 4a7d e93d 5ba9 a1be 821b 093e 66c9 52be
00000380: 85d2 b4bb a51f 663e 262e 80be 8014 413d
00000390: 68d4 543e 286a 013e 402c 70be 3f1c e3bb
000003a0: 9e27 333e ca6a 363e b5c7 da3c 430d a1bc
000003b0: cf8d 5f3e bc47 a53a 04ef 203d e2de 50be
000003c0: dd4f 3cbc e2bf 7dbe eeda b0be c17e 50be
000003d0: 442c 5b3e 56d0 7ebe a6cf 6d3e ee34 8fbe
000003e0: 5e19 86be 6e39 6abe 68c6 2d3e b8f3 3a3e
000003f0: 820a 61be b268 253e 764c 88be 562f 86be
-0.25705662 -0.010785166 0.193986 -0.008716511 0.14848155 0.17504787 -0.16939862 0.1815914
0.016824014 0.14554937 -0.26989913 -0.30463588 0.21247402 0.16386023 -0.21651101 0.17125385
0.17764792 -0.2585295 0.014179427 -0.21098419 0.20452161 -0.04898966 0.20813926 0.17777023
-0.10477851 -0.22636501 0.0076397555 -0.015703503 -0.287108 0.014226673 0.19815916 -0.22788952
0.2247032 -0.33082107 0.23457086 0.2043791 0.18279627 -0.27829963 -0.23980527 0.17872106
0.023048365 0.19551489 -0.2690887 0.25013924 -0.01817019 0.19170928 -0.014244173 -0.054232858
-0.28549835 -0.16051431 0.025967456 -0.29057658 -0.012100076 0.03819074 0.07008765 0.019976635
0.22930929 0.22178449 0.20962788 -0.22499722 -0.23284824 -0.2694886 0.21492565 -0.02480637
0.022091841 -0.23978697 -0.23772581 -0.30887702 -0.22809635 -0.30720273 0.22113785 0.09856048
0.20878673 -0.0022558644 0.016647937 -0.19088753 -0.21374524 -0.023778021 0.21310915 -0.051401813
0.19729722 0.21688838 -0.28360984 0.22101922 0.026928283 -0.2528274 -0.42842728 0.043749306
-0.26513582 -0.24318755 -0.2539811 0.21928912 -0.27771288 -0.011221631 -0.28256148 0.18913004
-0.22310768 -0.27365506 -0.23160088 0.18286826 -0.0046347724 0.0065231198 0.017273655 0.23572615
-0.21709514 0.020456308 -0.27460483 0.055420645 0.15546757 0.016087689 0.2289385 -0.2884142
-0.013660907 -0.042336445 -0.22662345 -0.016238777 -0.20242564 0.2098841 0.19533493 0.00824992
-0.21334958 0.00995838 0.026364814 0.052683417 0.19736914 0.01978645 -0.010674057 -0.2529343
-0.2964371 -0.2416605 0.0033705141 -0.2606662 0.22533342 0.24386962 -0.27482083 -0.00539328
-0.007872139 -0.03594529 -0.004728843 -0.29205018 -0.24269924 0.17168973 -0.015596317 -0.26605922
0.21470729 -0.29301634 -0.15240087 -0.2645522 0.17646876 0.15815578 -0.22447278 0.22770125
-0.000956834 -0.24358745 0.004160787 0.007975417 0.1645784 0.25899258 -0.23174673 0.12940067
-0.55602956 0.009799003 0.01645379 -0.01383199 0.032509968 -0.014925987 0.01306797 0.19603415
0.014564753 -0.2976804 0.22029977 -0.00909989 -0.005880934 -0.26281667 -0.27094445 -0.2548269
-0.19919291 -0.29151753 -0.009964594 -0.22123206 0.07731342 0.21070813 -0.21716803 0.18598539
0.033298448 -0.21737358 0.0030257367 0.2397082 -0.012018067 0.22541305 0.002563792 0.26181245
0.17804591 -0.26169607 -0.27814302 -0.00030713785 0.2097153 -0.0126028145 0.17594607 -0.26068136
0.14782064 0.019497367 -0.225533 0.1450035 0.22820295 0.015423708 -0.25180587 -0.28009525
-0.27995744 -0.26631188 -0.26225045 -0.25837067 -0.007658263 -0.28462985 -0.23616011 0.22691314
-0.20577472 -0.18340017 -0.2881631 -0.23087914 0.1140085 -0.3157452 0.133894 -0.2058464
-0.00551826 0.22473009 -0.25035208 0.04713869 0.20784152 0.12638152 -0.2345438 -0.0069308574
0.17495582 0.17814174 0.026706556 -0.019659644 0.2183144 0.001260988 0.039290443 -0.20397523
-0.01149365 -0.24780229 -0.3454203 -0.20360853 0.21403605 -0.24884161 0.23223743 -0.2797007
-0.2619123 -0.2287347 0.16970217 0.18257034 -0.21976665 0.1615322 -0.26620835 -0.2620799
