critic.pth (torch, 144783 bytes, 5 tensors)

network.0.weight f4 [128, 18]
0.021317933 -0.21817279 0.18764286 0.20015608 0.072634004 -0.21341935 0.03173016 -0.21917614
-0.075263344 0.06406619 -0.16761735 -0.007705407 -0.08568242 -0.19457835 0.02109317 -0.03350143
-0.06966956 0.044020236 0.055323575 -0.05155789 0.09296435 -0.118718036 0.13179351 0.23101398
0.19734181 0.0078023975 -0.08516629 0.1791062 0.16035493 0.12718727 0.19453269 0.26461196
-0.102957115 0.20904155 0.046727426 0.006191857 0.035764787 0.031254917 -0.1040801 0.1230915
0.24542531 -0.1915546 0.12751827 0.19382763 0.032341868 -0.20826238 0.17206384 0.25213555
-0.1304056 0.05180435 0.22589956 -0.12033549 0.17302163 0.1262593 -0.0012390928 0.21354057
0.085627705 0.017037777 -0.13984169 -0.11074008 0.21507415 0.038511775 -0.22407947 -0.084056534
0.1357324 -0.15851267 0.10189218 0.047465183 -0.16013789 -0.0869885 0.13541938 0.12594019
-0.15107201 0.062793046 0.02627062 0.1571317 0.18286368 0.0062570125 -0.19025481 0.0448607
0.08581146 -0.1481915 -0.031799693 0.01768851 0.09546651 -0.096168175 -0.19584562 0.08138538
0.018078173 0.062344294 -0.002292126 0.011523324 0.086255975 0.18727675 -0.19282326 -0.044270538
0.05307964 -0.111210145 0.112286635 -0.21208912 0.21336001 -0.12508969 -0.08288205 -0.26198
0.07005386 -0.053134095 -0.096386716 0.23162754 -0.15442781 -0.2283765 -0.098204345 -0.044179685
0.18877217 0.04413784 0.095941946 -0.16014029 -0.22422008 0.23395592 0.1134369 -0.07365744
-0.20257692 -0.06380074 -0.073021844 -0.110591084 -0.20552921 -0.10199414 -0.00859799 -0.01892726
0.09122673 0.21433382 0.12245659 0.07172241 0.03563968 0.064404055 0.06598032 -0.0827534
-0.21843757 -0.1325039 -0.047896232 -0.22319229 0.12626967 0.049286257 -0.17283237 -0.21272257
0.10163281 0.071962 -0.17669961 -0.2095569 -0.14138581 -0.13988206 0.17843562 0.08914049
-0.02942248 0.20376801 0.1849679 0.05071305 -0.09263799 0.096210144 -0.0301231 0.09106626
0.047977988 0.0052614706 -0.19234183 -0.013282807 0.15907803 0.19335471 0.034606356 -0.14704338
0.22784667 -0.23026057 0.21753637 0.12808067 0.19428502 0.1616851 0.1118255 0.06627618
0.06336798 0.059263546 0.018161558 0.16717465 0.023355097 0.1269044 0.21131064 -0.17651622
0.24225171 0.04071426 0.21585378 0.019365763 0.042643495 -0.22045454 -0.116931364 0.110420205
-0.064401634 0.0114949355 -0.092085235 -0.18687998 -0.07869051 0.22495715 -0.14190783 0.0045322874
0.01035399 -0.20919058 0.20908137 0.04565724 -0.020281177 0.19681351 0.064957656 -0.1957369
0.17704383 -0.16337693 -0.024055947 0.15056105 0.10511535 -0.058054682 0.09820349 0.028583748
0.21737474 -0.118059635 0.039220735 0.19672687 0.12890056 0.21758892 -0.09357805 -0.16747727
0.10032865 0.07235565 -0.14602986 -0.17578512 0.039349046 -0.022844965 -0.12317965 0.10655733
-0.092045195 0.098119006 -0.18458423 0.09653124 0.03605977 -0.12996335 0.19997013 0.047792327
-0.24189785 0.248897 -0.15026566 0.046151415 0.17871235 0.14647397 -0.16061409 0.17184693
0.02325273 0.07537165 0.019985126 0.14222312 -0.06516513 -0.20403665 -0.15938221 -0.196802
00000000: f2a2 ae3c b068 5fbe 7325 403e b7f5 4c3e
00000010: 23c1 943d 9a8a 5abe 7cf7 013d b66f 60be
00000020: ab23 9abd 2235 833d e2a3 2bbe a47d fcbb
00000030: 447a afbd 8c3f 47be 95cb ac3c cc38 09bd
00000040: eaae 8ebd 904e 343d f99a 623d 5e2e 53bd
00000050: 1864 be3d 7122 f3bd e1f4 063e ee8e 6c3e
00000060: f913 4a3e 41ab ff3b aa6b aebd 9e67 373e
00000070: 1534 243e 613d 023e 9433 473e 387b 873e
00000080: 2edb d2bd fd0e 563e 4265 3f3d 10e5 ca3b
00000090: 197e 123d 2805 003d f327 d5bd 6517 fc3d
000000a0: c650 7b3e e426 44be 2694 023e c07a 463e
000000b0: e878 043d bc42 55be 8131 303e e917 813e
000000c0: 0c89 05be cc30 543d 3752 673e 7472 f6bd
000000d0: 952c 313e 1e4a 013e 0e69 a2ba 61aa 5a3e
000000e0: 945d af3d cf92 8b3c a932 0fbe b2cb e2bd
000000f0: 663c 5c3e 86be 1d3d 1775 65be d525 acbd
00000100: 6ffd 0a3e 2551 22be d9ac d03d da6a 423d
00000110: 30fb 23be 0727 b2bd 61ab 0a3e 77f6 003e
00000120: 9fb2 1abe a499 803d 7c35 d73c 22e7 203e
00000130: 9e40 3b3e a007 cd3b 28d2 42be dabf 373d
00000140: ebbd af3d 83bf 17be 6540 02bd 7ee7 903c
00000150: f283 c33d d2f3 c4bd c18b 48be 61ad a63d
00000160: ad18 943c bb5c 7f3d 7e37 16bb 53cc 3c3c
00000170: f9a6 b03d 7ac5 3f3e 7673 45be 0655 35bd
00000180: 096a 593d 25c2 e3bd 89f6 e53d e42d 59be
00000190: 0c7b 5a3e 8317 00be 10be a9bd 3e22 86be
000001a0: 6678 8f3d 23a3 59bd 6666 c5bd c52f 6d3e
000001b0: 5322 1ebe 87db 69be 5c1f c9bd c2f5 34bd
000001c0: 7e4d 413e e1c9 343d 367d c43d d1fb 23be
000001d0: f399 65be 2492 6f3e 9b51 e83d b6d9 96bd
000001e0: 5370 4fbe f6a9 82bd 7a8c 95bd 947d e2bd
000001f0: 4076 52be 4ee2 d0bd 95de 0cbc 570d 9bbc
00000200: 14d5 ba3d 537a 5b3e 85ca fa3d 33e3 923d
00000210: eafa 113d 46e6 833d b120 873d 9d7a a9bd
00000220: 19ae 5fbe 1aaf 07be d72e 44bd 858c 64be
00000230: d64c 013e 63e0 493d f8fa 30be f2d3 59be
00000240: dd24 d03d d060 933d bef0 34be 1696 56be
00000250: 71c7 10be 3e3d 0fbe d4b7 363e 4a8f b63d
00000260: 6a07 f1bc 90a8 503e 3a68 3d3e 7db8 4f3d
00000270: fdb8 bdbd d309 c53d b8c4 f6bc f380 ba3d
00000280: 9184 443d 6a68 ac3b 42f5 44be 21a0 59bc
00000290: 5ae5 223e c7fe 453e 65bf 0d3d 8a92 16be
000002a0: a350 693e 6dc9 6bbe dbc1 5e3e 9427 033e
000002b0: a7f2 463e c790 253e c504 e53d cebb 873d
000002c0: 12c7 813d 55be 723d 8cc7 943c d52f 2b3e
000002d0: 3053 bf3c 3af3 013e d161 583e abc0 34be
000002e0: d510 783e ffc3 263d c608 5d3e f3a4 9e3c
000002f0: f2aa 2e3d d6be 61be b679 efbd fd23 e23d
00000300: 01e5 83bd 4155 3c3c 2f97 bcbd 775d 3fbe
00000310: 7d28 a1bd 2b5b 663e 4950 11be 9583 943b
00000320: c8a3 293c 0e36 56be 6d19 563e 1603 3b3d
00000330: b624 a6bc 7b89 493e 8508 853d 416f 48be
00000340: fa4a 353e 484c 27be fa10 c5bc ad2c 1a3e
00000350: b746 d73d bfca 6dbd e91e c93d 7728 ea3c
00000360: 7c97 5e3e 40c9 f1bd eca5 203d c572 493e
00000370: 82fe 033e a1cf 5e3e d9a5 bfbd 297f 2bbe
00000380: 1b79 cd3d 332f 943d da88 15be 0401 34be
00000390: 772c 213d 5d25 bbbc 9d45 fcbd bb3a da3d
000003a0: 3182 bcbd 9ef2 c83d a603 3dbe 2cb2 c53d
000003b0: 69b3 133d 1d15 05be f8c4 4c3e e3c1 433d
000003c0: 12b4 77be dbde 7e3e 3edf 19be 4409 3d3d
000003d0: 5f00 373e 46fd 153e 0578 24be a4f8 2f3e
000003e0: 827c be3c 745c 9a3d d9b7 a33c f0a2 113e
000003f0: 4c75 85bd fcee 50be 1735 23be 7786 49be

network.0.bias f4 [128]
0.225969 -0.013640522 0.23888376 0.18088782 0.19595209 0.094322994 0.131853 -0.15606824
0.12887374 0.07652932 -0.08818493 -0.15941618 0.048133932 -0.07541367 0.007458322 0.20492597
-0.031148022 -0.08586305 0.08550812 -0.08358654 -0.22399345 0.19424969 0.18967809 0.039526828
0.12296607 -0.1651046 -0.17349368 -0.20886163 0.1278789 0.024273 0.18627238 0.03324973
0.12355316 0.14517666 0.13288805 -0.013428758 0.08493073 -0.035414886 -0.09023604 -0.08422145
0.016127618 -0.11236355 0.19027983 -0.1514765 0.12036214 0.023818592 -0.03772127 -0.057640087
-0.05288534 -0.10675665 0.017245568 -0.23333965 0.22494057 0.02246694 -0.10029757 0.06094647
-0.05304237 0.20381615 -0.14172031 0.124199085 -0.1301936 0.22185488 -0.03286508 -0.21027558
-0.12037588 0.0955621 0.1168602 -0.20632647 -0.023689738 0.08271957 -0.053211775 0.06825457
-0.12841953 -0.21603487 0.08651615 0.16629522 0.22722632 -0.07237959 0.03184611 -0.22754277
0.18555306 0.021313896 -0.21326327 -0.16612065 -0.18708995 -0.011108641 -0.10500611 -0.23287113
-0.014272216 -0.22242922 -0.053405337 -0.01008555 0.19764033 0.15522423 -0.23442218 -0.0021965695
0.108562894 -0.14036453 0.124908075 0.12214435 -0.008844436 0.21383004 -0.18587069 -0.028479079
0.018121181 0.14129235 0.03275662 -0.23216572 0.10730231 -0.18313281 0.1480958 -0.102019906
-0.04451149 0.20565765 0.0071143853 0.201888 0.03440987 -0.04810521 -0.05355423 0.21746324
0.036064677 -0.07868167 -0.23084144 0.17610618 0.16086796 -0.19165523 -0.2049529 -0.020971008
00000000: 6b64 673e 7f7c 5fbc f29d 743e a83a 393e
00000010: aaa7 483e 6a2c c13d 7904 073e 5ad0 1fbe
00000020: 7af7 033e 67bb 9c3d 4d9a b4bd ff3d 23be
00000030: 1628 453d 7b72 9abd f164 f43b 1dd8 513e
00000040: 232a ffbc f7d8 afbd e21e af3d 6b2f abbd
00000050: 8a5e 65be 64e9 463e f93a 423e e2e6 213d
00000060: a3d5 fb3d 2e11 29be 54a8 31be d3df 55be
00000070: b0f2 023e 2cd8 c63c 30be 3e3e de30 083d
00000080: 7009 fd3d 31a9 143e ce13 083e 4b04 5cbc
00000090: 2af0 ad3d 330f 11bd accd b8bd 4c7c acbd
000000a0: 111e 843c dc1e e6bd b7d8 423e a81c 1bbe
000000b0: 6d80 f63d 351f c33c 9e81 1abd 0318 6cbd
000000c0: 4c9e 58bd 3ba3 dabd 9446 8d3c 97f0 6ebe
000000d0: d256 663e 970c b83c d068 cdbd 01a3 793d
000000e0: f542 59bd 2eb5 503e 211f 11be 175c fe3d
000000f0: 7951 05be ed2d 633e 899d 06bd 7b52 57be
00000100: a187 f6bd 10b6 c33d 6754 ef3d 3f47 53be
00000110: fb10 c2bc e168 a93d 97f4 59bd 0dc9 8b3d
00000120: 6980 03be 3f38 5dbe 612f b13d 4b49 2a3e
00000130: 04ae 683e c03b 94bd 1171 023d f900 69be
00000140: 9f01 3e3e 7b9a ae3c b061 5abe 881b 2abe
00000150: 8294 3fbe 0401 36bc 720d d7bd c575 6ebe
00000160: 03d6 69bc 7cc4 63be 8ebf 5abd dd3d 25bc
00000170: 3a62 4a3e 1af3 1e3e 5e0c 70be 52f4 0fbb
00000180: 3956 de3d b8bb 0fbe cecf ff3d d126 fa3d
00000190: 41e8 10bc 43f6 5a3e e354 3ebe f54c e9bc
000001a0: df72 943c f1ae 103e ce2b 063d dabc 6dbe
000001b0: 50c1 db3d 2b87 3bbe 6da6 173e d0ef d0bd
000001c0: ae51 36bd eb97 523e ca1f e93b babb 4e3e
000001d0: 5df1 0c3d f809 45bd ae5b 5bbd afae 5e3e
000001e0: 8eb8 133d db23 a1bd b361 6cbe 2e55 343e
000001f0: 92ba 243e 4541 44be 2cdf 51be 64cb abbc

network.2.weight f4 [256, 128]
0.020341715 0.028717682 -0.021822961 0.079961754 0.06658635 0.0129137 0.0006504197 0.039154466
0.081097655 -0.00052607874 0.07587061 -0.05893234 -0.02418795 -0.005502088 -0.081615716 0.061627083
0.10342423 -0.025099654 0.038815953 0.027269252 -0.06300082 0.028627258 0.057442944 0.084773585
-0.011238205 0.010605458 -0.08315634 0.08245822 0.05108642 0.051198766 -0.022984024 0.13219336
0.0022883029 0.0239561 0.0064213504 0.042755842 0.08058562 0.09427372 -0.08317308 -0.034026895
-0.05202786 -0.023368621 0.00407753 -0.052685056 -0.012002531 0.0039282404 -0.036016036 -0.08028865
-0.06256998 0.03958949 -0.06369638 0.08110872 -0.003353395 0.081691876 0.038418744 0.07030326
-0.008177821 -0.0071976306 -0.038482245 -0.06991189 0.064204656 -0.023596393 -0.0577582 0.03409953
-0.03152161 -0.044433173 0.10110997 -0.02916016 0.0034288606 -0.071339 -0.003064786 0.010708852
-0.034080986 -0.027980989 0.07129281 0.028526641 0.005999037 0.039696626 -0.0017916036 0.02511421
0.0285074 0.039317068 -0.043649774 -0.050409585 0.004960273 -0.020053042 -0.018269913 0.021758426
0.100907825 0.058082998 -0.018099718 -0.034523863 0.09207487 0.066185094 -0.08294828 0.0016104742
-0.02395679 -0.05931873 0.045551788 -0.048785623 -0.01856195 -0.00054439076 -0.011134836 0.038576487
-0.060165428 -0.032253005 0.05845649 0.054949142 -0.05925777 -0.08531998 0.048712533 0.08065226
0.01728597 -0.049419306 0.0154575035 -0.04722691 0.06387629 -0.008453157 0.023683267 0.02541413
0.07502892 0.01693512 -0.08174674 -0.08467385 0.03714154 0.026654879 0.0138185825 -0.05722285
-0.019061008 0.050131034 0.08092671 -0.06490247 -0.03956764 -0.04300604 0.040844277 -0.021565123
-0.011844186 -0.036657408 -0.01849429 0.109919146 -0.001639517 0.124768965 0.06749802 -0.060477156
0.008183314 -0.026120456 -0.05326036 0.08216505 0.04597455 0.060215082 0.03093338 -0.033679973
-0.02196805 0.006026298 -0.07364697 0.08610009 -0.07654933 0.039583124 0.038118746 0.03978497
-0.055310775 -0.0111578135 -0.029229205 0.08931133 0.05872447 0.031921104 0.01514509 0.09500812
-0.06426891 -0.02772548 0.07671381 -0.013704269 0.06240183 0.07216723 0.09710087 -0.03655809
0.0821704 0.0041089454 0.0050431415 0.030216329 0.092859656 0.07430704 -0.0054858276 0.062409975
-0.0024694295 0.00614035 -0.08636652 -0.048840735 -0.07260582 0.022782816 -0.05447725 0.025071252
-0.025255242 0.057836883 0.001964418 -0.020498894 -0.07747339 0.037308037 0.07781698 -0.00666598
-0.07215352 -0.04688886 0.081816375 0.047809057 0.045243707 0.050915413 0.07007751 -0.0008233071
0.04070281 0.021907328 -0.008453878 -0.09787668 -0.08084344 0.009181767 0.032988146 0.04319335
-0.04229085 -0.07031203 -0.03301119 -0.052825354 -0.061763573 -0.012188006 -0.0093570845 0.00036286033
0.0060289176 -0.041701883 -0.05172872 -0.016518647 0.03778911 0.02906157 -0.044055853 0.08752499
0.030872812 -0.038273294 -0.0143915545 -0.054649595 0.03710939 -0.0204858 -0.031887636 -0.05183275
0.09625052 0.07182856 0.07888616 0.032135375 0.026300574 0.055296477 0.020709284 0.05468466
-0.06592985 -0.058623075 -0.06008676 0.022241963 0.087183066 0.0035823511 0.10262493 -0.014671813
00000000: aba3 a63c 5841 eb3c 11c6 b2bc fdc2 a33d
00000010: 6d5e 883d fc93 533c ed80 2a3a 6f60 203d
00000020: 8716 a63d 8ce8 09ba 0d62 9b3d 0a63 71bd
00000030: cf25 c6bc dc4a b4bb 2426 a7bd ae6c 7c3d
00000040: 15d0 d33d ca9d cdbc 7afd 1e3d c463 df3c
00000050: 9306 81bd b683 ea3c 4b49 6b3d c69d ad3d
00000060: 7320 38bc 84c2 2d3c df4d aabd dbdf a83d
00000070: fe3f 513d ccb5 513d fe48 bcbc b25d 073e
00000080: 5af7 153b 953f c43c 316a d23b c020 2f3d
00000090: 130a a53d 9512 c13d a656 aabd c95f 0bbd
000000a0: 2a1b 55bd 8d6f bfbc cd9c 853b 49cc 57bd
000000b0: 44a6 44bc 78b8 803b 8d85 13bd 606e a4bd
000000c0: b124 80bd 9728 223d 3f73 82bd 541c a63d
000000d0: a2c4 5bbb 124e a73d f95c 1d3d 28fb 8f3d
000000e0: 44fc 05bc 1ada ebbb 8f9f 1dbd f72d 8fbd
000000f0: bb7d 833d 394d c1bc dd93 6cbd f3ab 0b3d
00000100: ce1c 01bd 8fff 35bd be12 cf3d 4ae1 eebc
00000110: bcb6 603b 2e1a 92bd 94da 48bb 2e74 2f3c
00000120: 8198 0bbd 6338 e5bc f701 923d b4b0 e93c
00000130: 9293 c43b ee98 223d 3ed4 eaba 51bc cd3c
00000140: 5a88 e93c ef0a 213d 1bca 32bd 487a 4ebd
00000150: c989 a23b 4746 a4bc c9aa 95bc ba3e b23c
00000160: c3a8 ce3d 70e8 6d3d dc45 94bc e568 0dbd
00000170: c091 bc3d 0d8c 873d cae0 a9bd 8c16 d33a
00000180: 0841 c4bc 32f8 72bd 8394 3a3d 6fd3 47bd
00000190: 3b0f 98bc 72b5 0eba e36e 36bc 6102 1e3d
000001a0: 0670 76bd ba1b 04bd 1370 6f3d 5a12 613d
000001b0: 47b8 72bd 3ebc aebd cb86 473d 032d a53d
000001c0: 4e9b 8d3c e66b 4abd 7841 7d3c 0171 41bd
000001d0: 93d1 823d 1c7f 0abc 6903 c23c 4b31 d03c
000001e0: c3a8 993d 85bb 8a3c d66a a7bd 7c69 adbd
000001f0: ba21 183d 555b da3c 5667 623c 8262 6abd
00000200: d525 9cbc 3356 4d3d e7bc a53d 96eb 84bd
00000210: ad11 22bd 1a27 30bd 544c 273d 57a9 b0bc
00000220: 1e0e 42bc 1426 16bd 5681 97bc 4a1d e13d
00000230: 10e5 d6ba df86 ff3d 673c 8a3d e5b6 77bd
00000240: 4f13 063c 91fa d5bc 8927 5abd 2646 a83d
00000250: cf4f 3c3d 17a4 763d 0068 fd3c 03f4 09bd
00000260: 57f6 b3bc 4078 c53b 39d4 96bd 3e55 b03d
00000270: e5c5 9cbd ea21 223d 6722 1c3d 91f5 223d
00000280: 8d8d 62bd 43cf 36bc 1672 efbc dce8 b63d
00000290: 1289 703d b4bf 023d 1d23 783c 9e93 c23d
000002a0: 6b9f 83bd 8c20 e3bc 211c 9d3d df87 60bc
000002b0: 1099 7f3d 6acc 933d d2dc c63d f0bd 15bd
000002c0: f448 a83d 55a4 863b f040 a53b 3c88 f73c
000002d0: 342d be3d 4a2e 983d 75c2 b3bb 9aa1 7f3d
000002e0: 27d6 21bb fd34 c93b eee0 b0bd 390d 48bd
000002f0: 5cb2 94bd 07a3 ba3c 8923 5fbd 3a62 cd3c
00000300: 15e4 cebc 5ee6 6c3d 77bd 003b 4ced a7bc
00000310: 5eaa 9ebd 50d0 183d 825e 9f3d 4b6e dabb
00000320: 3ac5 93bd 890e 40bd 588f a73d 6ed3 433d
00000330: 7751 393d ae8c 503d cc84 8f3d 34d3 57ba
00000340: fdb7 263d ff76 b33c 2282 0abc 9273 c8bd
00000350: 3f91 a5bd 1f6f 163c 941e 073d 83eb 303d
00000360: 2c39 2dbd c1ff 8fbd be36 07bd 665f 58bd
00000370: cdfb 7cbd 34b0 47bc 754e 19bc 4a3e be39
00000380: 3a8e c53b 98cf 2abd 7fe1 53bd 1d52 87bc
00000390: c1c8 1a3d 8812 ee3c e973 34bd 4d40 b33d
000003a0: fbe8 fc3c 75c4 1cbd 8eca 6bbc 41d8 5fbd
000003b0: 0400 183d d6d1 a7bc 9c9c 02bd 944e 54bd
000003c0: fe1e c53d da1a 933d 118f a13d 62a0 033d
000003d0: 4d74 d73c 8f7e 623d 84a6 a93c 06fd 5f3d
000003e0: 3b06 87bd c01e 70bd 891d 76bd c734 b63c
000003f0: 098d b23d e1c5 6a3b 052d d23d 0b62 70bc

network.2.bias f4 [256]
0.002257984 0.070631914 0.080919944 -0.038875956 0.0579978 0.03653919 0.07715159 -0.019210793
-0.036896825 0.054336872 0.026903693 0.01721696 0.0014175388 0.013209537 0.04219808 -0.04490125
0.095063806 0.031425036 0.02833013 0.03487811 0.03324657 -0.076866105 0.07172423 0.030825915
0.09883789 -0.00400396 -0.052822594 -0.04959265 0.046274815 -0.03970534 -0.04407084 0.06522611
-0.078183904 0.074684575 0.07339005 0.08865107 0.0021786497 -0.061128765 0.024008412 -0.07727323
-0.05534854 -0.059019804 -0.089729734 0.050916735 -0.021623783 -0.049584456 0.06981032 -0.050644092
-0.038406424 0.008500133 0.038827173 0.020279355 -0.052269667 -0.06937354 0.06959274 0.02261088
0.07752032 0.08463904 -0.071599215 0.057325006 -0.01751389 -0.014259658 -0.051205125 0.078807436
0.0070473943 0.05074349 0.072490275 0.0052322433 0.07730419 -0.011876247 0.08027861 -0.031527676
-0.0569637 -0.010584843 0.060934857 0.021644609 -0.058094997 0.03440329 -0.027027924 -0.07974502
-0.08902311 0.043596826 -0.048582938 0.07061856 -0.035779588 -0.03795976 0.09614168 0.034643147
-0.06287576 -0.081715286 0.04103724 -0.049286507 -0.033985816 0.04197372 0.03159719 -0.06762364
0.08389154 -0.06500038 -0.037750963 -0.06670611 -0.039036788 -0.019167624 -0.01866854 -0.087885156
0.07385344 -0.0051790336 -0.051231157 0.0205394 -0.09021193 -0.049938247 0.07027096 -0.068303354
-0.04734067 0.04912743 0.013651431 -0.0794817 0.029236302 -0.057660487 -0.08327777 -0.07465121
-0.025813678 -0.013732647 -0.003951167 -0.017831018 -0.054018773 0.05229902 0.01749738 0.038092576
0.0667228 -0.07110149 -0.05266218 0.037362978 -0.054846693 -0.08563592 0.045780145 0.09919437
-0.039271627 -0.0015397856 -0.05515947 -0.030593943 0.050881453 -0.0773311 -0.027144024 0.029145168
-0.0658102 0.06051463 0.023388118 0.059657916 -0.023113202 -0.05548561 -0.05236327 -0.06340312
-0.0039423495 0.05132078 -0.096005686 -0.049641747 0.058178067 -0.0128478715 -0.0012495273 0.04567229
0.020649731 0.09034986 -0.005095756 0.03028404 -0.08578344 -0.07581421 -0.023743369 0.06405117
-0.04934 -0.0050453567 0.024350913 0.03623552 -0.027141547 0.08066429 0.051557697 0.02373207
0.018852768 -0.043837644 0.07871286 -0.0863741 0.0302246 0.060181603 0.061500844 0.06137486
0.021957504 -0.077152185 -0.049998805 0.0864391 0.023032472 -0.07347882 0.03112066 0.07559884
0.015172909 -0.041419305 -0.031872075 -0.0038976467 0.0149775995 -0.055401735 -0.047479894 -0.008006105
-0.07810452 -0.086669505 0.06872484 0.036527555 -0.061541267 0.08109327 -0.008662589 -0.034793355
0.023353081 -0.04243973 0.051854268 0.0705885 0.045409717 0.033671107 -0.066351995 0.0026967125
-0.02639407 -0.04836476 0.022091765 -0.012955268 -0.05406348 -0.02702296 -0.0389663 0.029700655
-0.042940073 -0.09062062 0.08040057 -0.07078614 0.08368657 -0.06693553 -0.06434684 0.04738373
0.08657319 0.015517519 0.0140551925 -0.06357831 -0.083321095 -0.06766311 0.0019191251 0.07664555
-0.011375552 -0.026254507 0.036450516 0.0778973 0.076198824 0.06030034 0.07403596 -0.03620785
0.008371584 -0.060847577 0.08476153 -0.035960216 -0.03633474 -0.010914565 -0.023726963 -0.04393125
00000000: affa 133b 77a7 903d 5bb9 a53d 653c 1fbd
00000010: 1a8f 6d3d 1eaa 153d a701 9e3d f45f 9dbc
00000020: 2021 17bd 5790 5e3d 2265 dc3c 950a 8d3c
00000030: b6cc b93a d06c 583c e5d7 2c3d 60ea 37bd
00000040: d0b0 c23d 8ab7 003d 9714 e83c 59dc 0e3d
00000050: 8e2d 083d fa6b 9dbd 27e4 923d a186 fc3c
00000060: 856b ca3d a733 83bb 815c 58bd aa21 4bbd
00000070: a98a 3d3d 11a2 22bd a083 34bd 4495 853d
00000080: e21e a0bd 3af4 983d 864d 963d b18e b53d
00000090: adc7 0e3b 2862 7abd 4aad c43c 6d41 9ebd
000000a0: 27b5 62bd c0be 71bd 39c4 b7bd 118e 503d
000000b0: 5c24 b1bc 1219 4bbd b7f8 8e3d 2e70 4fbd
000000c0: 0e50 1dbd 2444 0b3c 3e09 1f3d e420 a63c
000000d0: b818 56bd b713 8ebd a386 8e3d 743a b93c
000000e0: f9c2 9e3d 3c57 ad3d 9ca2 92bd a0cd 6a3d
000000f0: 4a79 8fbc 57a1 69bc 77bc 51bd cb65 a13d
00000100: d4ed e63b 68d8 4f3d c875 943d 3d73 ab3b
00000110: a951 9e3d 9794 42bc 1d69 a43d 2a23 01bd
00000120: c552 69bd 0d6c 2dbc d496 793d 0950 b13c
00000130: 05f5 6dbd 77ea 0c3d aa69 ddbc 5b51 a3bd
00000140: c051 b6bd 9692 323d e7fe 46bd 77a0 903d
00000150: 9e8d 12bd b17b 1bbd eee5 c43d f9e5 0d3d
00000160: 02c5 80bd 585a a7bd aa16 283d a6e0 49bd
00000170: b634 0bbd a3ec 2b3d 0e6c 013d 437e 8abd
00000180: 54cf ab3d eb1e 85bd c1a0 1abd 379d 88bd
00000190: 0ae5 1fbd 6c05 9dbc c4ee 98bc 22fd b3bd
000001a0: 7940 973d e2b4 a9bb c3d7 51bd 3e42 a83c
000001b0: 08c1 b8bd 0c8c 4cbd 39ea 8f3d a1e2 8bbd
000001c0: 4ae8 41bd d839 493d 40aa 5f3c 4dc7 a2bd
000001d0: f880 ef3c 672d 6cbd 898d aabd bce2 98bd
000001e0: 3577 d3bc e5fe 60bc cb78 81bb 5b12 92bc
000001f0: ca42 5dbd 7f37 563d aa56 8f3c f606 1c3d
00000200: f7a5 883d a89d 91bd 4cb4 57bd ec09 193d
00000210: eda6 60bd e361 afbd f683 3b3d 6b26 cb3d
00000220: 49db 20bd a2d2 c9ba e5ee 61bd 26a0 fabc
00000230: 1269 503d c55f 9ebd 255d debc d9c1 ee3c
00000240: 80c7 86bd 30de 773d 7098 bf3c dc5b 743d
00000250: e657 bdbc e144 63bd de7a 56bd 7fd9 81bd
00000260: d32e 81bb bd35 523d a19e c4bd 2555 4bbd
00000270: 204c 6e3d e17f 52bc 2ec7 a3ba de12 3b3d
00000280: a029 a93c 5909 b93d 4dfa a6bb 3c16 f83c
00000290: 3aaf afbd 7b44 9bbd 7481 c2bc 432d 833d
000002a0: bd18 4abd 8553 a5bb 917b c73c b26b 143d
000002b0: f357 debc 5233 a53d 2a2e 533d c269 c23c
000002c0: 1f71 9a3c 1a8f 33bd 3534 a13d e7e4 b0bd
000002d0: 9599 f73c fc80 763d 4fe8 7b3d 3564 7b3d
000002e0: 39e0 b33c f701 9ebd 8ccb 4cbd fc06 b13d
000002f0: 98ae bc3c 107c 96bd c1f0 fe3c 91d3 9a3d
00000300: cb97 783c 4aa7 29bd 4b8c 02bd a96f 7fbb
00000310: 9b64 753c eeec 62bd 477a 42bd 0a2c 03bc
00000320: 43f5 9fbd c87f b1bd 9cbf 8c3d eb9d 153d
00000330: b212 7cbd 3a14 a63d 88ed 0dbc 7a83 0ebd
00000340: f64e bf3c 48d5 2dbd 2465 543d b490 903d
00000350: 8aff 393d b7ea 093d 8ee3 87bd 54bb 303b
00000360: 6038 d8bc 201a 46bd caf9 b43c 5542 54bc
00000370: ab71 5dbd 415f ddbc 219b 1fbd ca4e f33c
00000380: eee1 2fbd 4e97 b9bd 0ea9 a43d 53f8 90bd
00000390: dd63 ab3d 7f15 89bd 47c8 83bd 7115 423d
000003a0: 494d b13d 313d 7e3c c047 663c 5835 82bd
000003b0: 40a4 aabd f592 8abd 278b fb3a 58f8 9c3d
000003c0: 8660 3abc b113 d7bc 234d 153d 9f88 9f3d
000003d0: 210e 9c3d 7dfd 763d 2aa0 973d af4e 14bd
000003e0: f828 093c 4f3b 79bd 7497 ad3d 054b 13bd
000003f0: bdd3 14bd 01d3 32bc 0c5f c2bc 41f1 33bd

network.4.weight f4 [1, 256]
0.059463046 0.040527485 0.0335141 0.041896295 0.017312147 -0.019835347 0.057069007 -0.0020324904
-0.0103776185 -0.03346609 0.04295996 -0.0011134796 -0.040388025 -0.006910216 0.05770591 0.06655867
0.036363583 -0.01463195 -0.051014863 0.00027988432 -0.021703845 0.01819155 -0.01980989 -0.018232942
0.039413095 -0.06746358 -0.021465177 0.06641933 0.036957264 0.049718037 -0.020941528 -0.0421192
-0.01985941 0.031784765 0.05130589 0.051793918 -0.038775068 -0.029607587 0.07054264 -0.027129741
0.05412506 -0.04984879 -0.004617658 -0.054081436 -0.011397523 0.05550373 0.020378307 0.03913676
-0.002775644 -0.0056522456 0.056708395 0.0061506615 -0.014882997 -0.034059435 0.06356223 0.07648376
0.035327256 0.044400956 0.020422114 -0.057639714 0.046670467 0.04613473 -0.034067232 0.03757662
0.039116587 -0.04424789 -0.040154174 0.053660586 -0.030430142 0.054924265 0.047882482 -0.013145313
0.038447443 0.05050689 -0.022563841 -0.0138681345 -0.020164715 -0.035246998 0.002559538 -0.06392553
-0.0009020584 -0.04233737 0.03463098 -0.055946987 0.07085157 0.04168041 0.06779297 0.032042846
-0.04270486 -0.0599272 0.039647456 -0.0073682116 -0.0352903 0.055418216 0.033803955 0.022731036
0.07621849 0.050547313 -0.01891622 -0.02285296 0.054515474 -0.035273213 -0.058513567 -0.046274893
-0.04353269 0.031580128 0.040831 -0.03660851 0.027703468 0.033896342 0.059458055 -0.018988213
-0.048251994 -0.02855187 0.011267171 -0.0034770519 0.023349991 -0.0075638606 -0.0017130673 0.045074258
-0.017687295 0.018976962 0.03429596 0.029684588 -0.056504402 0.022735849 0.029607978 0.03098211
-0.039057408 0.01084625 -0.0041856547 -0.041450445 -0.00016983598 0.019492038 0.033542767 0.048163712
0.06476568 -0.01680785 -0.05822872 -0.05230259 0.065082066 0.002990868 0.01716283 0.07128522
0.038100917 0.0553408 0.057614524 0.030865207 -0.07925894 0.03683985 -0.038428605 -0.06401503
-0.04490732 -0.02195447 -0.01372857 0.00077433884 -0.001734838 -0.016188495 0.03902061 0.06708273
0.0044854833 0.032833293 -0.025212565 0.07579222 -0.05102995 -0.0037872856 0.040423773 0.063716255
0.06092654 -0.017184237 -0.030393245 -0.02116996 0.036336854 0.023542574 0.020093631 -0.030870315
-0.057955418 -0.024800688 0.0007664513 -0.017930806 -0.027010433 -0.027651878 0.061727196 -0.013626845
-0.04880952 -0.011503251 -0.038712032 -0.0418086 0.037935164 -0.024299914 0.035588153 -0.034979414
0.047049478 0.028618084 -0.017094692 0.042930443 0.054015104 0.03963467 0.0063609905 0.034629192
-0.055782054 -0.058496896 0.06734278 0.062112402 0.058784932 -0.039605808 0.042071305 0.07443408
0.0341203 0.03846893 -0.00033808357 -0.011435262 -0.047213864 0.031571098 -0.0064918553 0.0037954403
0.02995615 0.04832938 0.037148736 -0.012355276 -0.020334058 -0.045320258 0.032825094 0.0013221741
-0.008788869 -0.029484374 0.059812482 0.04155461 0.07455714 0.04461219 -0.01575434 -0.031163108
0.06062013 0.057727814 -0.05729934 0.013254702 -0.035891414 0.018624073 0.012831323 0.051487092
0.06500143 0.045737293 0.06550227 -0.013240196 0.004676282 0.049164254 -0.028748862 0.03191789
0.047369674 0.0068791173 0.06451263 -0.015892914 0.08458367 0.060672402 -0.036104858 0.030132918
00000000: 868f 733d 2600 263d 1546 093d 739b 2b3d
00000010: 34d2 8d3c bd7d a2bc 31c1 693d 8833 05bb
00000020: e306 2abc bd13 09bd c8f6 2f3d 2df2 91ba
00000030: ea6d 25bd 186f e2bb 085d 6c3d e94f 883d
00000040: fbf1 143d d9ba 6fbc f6f4 50bd 70bd 9239
00000050: 43cc b1bc 7206 953c 5a48 a2bc 405d 95bc
00000060: a06f 213d 582a 8abd bdd7 afbc dc06 883d
00000070: 8060 173d 24a5 4b3d 918d abbc 2f85 2cbd
00000080: 34b0 a2bc be30 023d 2026 523d dc25 543d
00000090: 9bd2 1ebd 9c8b f2bc a978 903d 313f debc
000000a0: 3db2 5d3d 3f2e 4cbd b94f 97bb 7f84 5dbd
000000b0: adbc 3abc e157 633d 68f0 a63c de4d 203d
000000c0: 94e7 35bb 7936 b9bb 1047 683d 7d8b c93b
000000d0: d0d7 73bc e881 0bbd ea2c 823d 84a3 9c3d
000000e0: 50b3 103d c7dd 353d 474c a73c 9f17 6cbd
000000f0: 8829 3f3d c5f7 3c3d 158a 0bbd f1e9 193d
00000100: b738 203d 473d 35bd b478 24bd 34cb 5b3d
00000110: a248 f9bc 44f8 603d 6c20 443d 705f 57bc
00000120: 117b 1d3d 50e0 4e3d ced7 b8bc 2c37 63bc
00000130: 7930 a5bc 285f 10bd ecbd 273b 63eb 82bd
00000140: 1d78 6cba f369 2dbd 37d9 0d3d ab28 65bd
00000150: a11a 913d 14b9 2a3d 0ad7 8a3d 5c3f 033d
00000160: 4beb 2ebd 3976 75bd 5f65 223d 0a71 f1bb
00000170: 908c 10bd 36fe 623d 0476 0a3d 7036 ba3c
00000180: 7118 9c3d b30a 4f3d 30f6 9abc 2136 bbbc
00000190: 9e4b 5f3d a57a 10bd ecab 6fbd be8a 3dbd
000001a0: 554f 32bd 2a5a 013d 683e 273d cef2 15bd
000001b0: 62f2 e23c e4d6 0a3d 4a8a 733d 2b8d 9bbc
000001c0: e2a3 45bd 9ce5 e9bc f199 383c 40df 63bb
000001d0: 7b48 bf3c 43da f7bb 0089 e0ba c99f 383d
000001e0: f2e4 90bc 9375 9b3c ec79 0c3d 182d f33c
000001f0: 2971 67bd 8840 ba3c 6e8c f23c 32ce fd3c
00000200: a9fa 1fbd 78b4 313c d127 89bb f1c7 29bd
00000210: 0016 32b9 c4ad 9f3c 2464 093d 5047 453d
00000220: dea3 843d 9eb0 89bc 3d81 6ebd 3e3b 56bd
00000230: bf49 853d 7002 443b 1099 8c3c fcfd 913d
00000240: b50f 1c3d 09ad 623d 35fd 6b3d 08d9 fc3c
00000250: 8352 a2bd 62e5 163d 5067 1dbd 501a 83bd
00000260: bdf0 37bd dcd9 b3bc cced 60bc 00fd 4a3a
00000270: 8163 e3ba bc9d 84bc 13d4 1f3d ac62 893d
00000280: f6fa 923b 347c 063d 958a cebc f438 9b3d
00000290: c804 51bd 1c34 78bb 6693 253d ab7d 823d
000002a0: 1c8e 793d f5c5 8cbc 41fb f8bc a06c adbc
000002b0: f4d5 143d 5bdc c03c 669b a43c bee3 fcbc
000002c0: a962 6dbd d02a cbbc adeb 483a a0e3 92bc
000002d0: fc44 ddbc 3186 e2bc a8d5 7c3d 2143 5fbc
000002e0: 7eec 47bd 2278 3cbc 8290 1ebd 7f3f 2bbd
000002f0: e761 1b3d 9d10 c7bc e2c4 113d 9346 0fbd
00000300: f4b6 403d 7970 ea3c 2b0a 8cbc d5d7 2f3d
00000310: f13e 5d3d f757 223d db6f d03b 57d7 0d3d
00000320: b97b 64bd 719a 6fbd 03eb 893d 9369 7e3d
00000330: 78c8 703d b339 22bd f652 2c3d e570 983d
00000340: bac1 0b3d 9991 1d3d cf40 b1b9 f75a 3bbc
00000350: 5363 41bd b250 013d a1b9 d4bb ecbc 783b
00000360: 9a66 f53c 07f5 453d 4629 183d c96d 4abc
00000370: 9c93 a6bc bca1 39bd 9b73 063d cd4c ad3a
00000380: 30ff 0fbc 3789 f1bc effd 743d 2b35 2a3d
00000390: 6ab1 983d 46bb 363d 3f0f 81bc c649 ffbc
000003a0: d04c 783d 0074 6c3d b6b2 6abd 402a 593c
000003b0: e002 13bd 8391 983c 783a 523c 21e4 523d
000003c0: 781f 853d 0757 3b3d 0e26 863d 68ed 58bc
000003d0: 7f3b 993b 7560 493d bc82 ebbc 55bc 023d
000003e0: b406 423d 386a e13b 331f 843d db31 82bc
000003f0: 343a ad3d a083 783d b0e2 13bd 4fd9 f63c
