critic2000.pth (torch, 144783 bytes, 5 tensors)

network.0.weight f4 [128, 18]
000000 da 88 f1 3d 50 6b 78 bc a9 8a ca bd 1c c7 ec 3d
       0.117936805 -0.015162304 -0.098897286 0.115614146
000010 ee aa d8 bc ce 00 1e bc 5d 97 0b 3e 4d d3 6d 3c
       -0.026448693 -0.009643747 0.1363196 0.01451571
000020 23 e2 ae be 4b c7 84 be 25 62 44 3e 39 c8 92 3d
       -0.34156904 -0.25933298 0.19178064 0.07167096
000030 51 18 67 3e 40 1a f1 3c 8f 85 32 be 3b c9 6b be
       0.2256787 0.029431462 -0.17433761 -0.23025982
000040 15 c7 9a bd 4c 6e 86 3e be 45 44 bd 60 1a 11 bd
       -0.07557503 0.26256025 -0.047918074 -0.035425544
000050 1e d2 1d 3e e8 bf 67 3e ee 91 3c bd 6f fe a5 be
       0.15412185 0.226318 -0.046037607 -0.3242068
000060 45 f2 1f 3c 1d 6e f9 bd 0e f8 11 be c0 5e 06 3e
       0.009762351 -0.121792056 -0.14254782 0.13122082
000070 4a ac 1e 3d 49 a5 d7 3e 16 75 7a be 9f 60 1d 3e
       0.038738526 0.4211829 -0.24458727 0.1536889
000080 83 4e 8c 3e 4e d1 35 be 08 75 82 be ea 5e 10 be
       0.2740365 -0.17755625 -0.25479913 -0.14098707
000090 82 85 69 be 6f 82 43 3e cb 3c 61 3e cf eb 0f be
       -0.22804835 0.19092725 0.21995847 -0.14054798
0000a0 82 ae ce be cb 9f 82 3e 96 ca ab 3d cb 71 39 3e
       -0.40367514 0.25512537 0.083882496 0.18109815
0000b0 29 66 53 3c 00 ee a5 be 58 b4 bb be 9f 83 ac 3e
       0.012902775 -0.32408142 -0.3666103 0.3369417
0000c0 76 5e e6 3d f1 db 39 3d 3e 35 0d 3e 5a ec 3d 3e
       0.11248486 0.045375768 0.13789842 0.18547192
0000d0 eb 05 b2 3d 59 c3 7f be d1 26 51 3e 60 b6 3d bd
       0.08692535 -0.24976863 0.20424964 -0.046316504
0000e0 16 7e 66 be 2d b7 bf 3d e8 9e ee bd 99 b1 5e 3e
       -0.22509035 0.0936111 -0.11651403 0.21747436
0000f0 22 84 89 3e 27 d7 cc bb 7d fe 6e be 58 1c 55 be
       0.26858622 -0.006251234 -0.23339267 -0.20811594
000100 44 d2 5f 3e d6 74 c0 bd ec 05 15 be f3 8b 44 be
       0.21857554 -0.09397285 -0.1455304 -0.19194011
000110 9a 21 e3 bc e0 6a ef 3c f3 e2 27 3e d3 bc a2 3d
       -0.027725983 0.029225767 0.16395168 0.079461716
000120 42 51 ac bd f8 c9 bf 3d ac f1 a1 3e 3d 86 1e 3d
       -0.08413936 0.09364694 0.31629694 0.03870224
000130 77 54 8d 3e d4 3b 0e be c7 cb c2 bc 11 2a b6 3e
       0.27603504 -0.1389001 -0.02377881 0.3557897
000140 0a 63 52 be 0c ce b4 3d 31 7b d8 bd 1c 60 d0 3d
       -0.20545593 0.08828363 -0.10570372 0.101745814
000150 df fa 1b be 64 63 63 3e c7 a5 14 be 40 a5 2c 3e
       -0.15232418 0.22205883 -0.14516364 0.16859913
000160 07 8a 32 3e cb 4d 17 be 0b 20 2e be 0e ca 85 bd
       0.17435466 -0.1477577 -0.17004411 -0.065326795
000170 80 29 34 be 24 46 70 3e ea b5 58 3d d7 af 85 3d
       -0.17593956 0.23464257 0.05290786 0.065276794
000180 ab c4 b0 3e 6e 5d 6b 3e 8f 81 53 be 6f 34 82 be
       0.34525046 0.2298486 -0.20654891 -0.2543063
000190 ab c1 a8 3d 78 a8 42 3e 03 1d 0e 3e c4 03 6f bc
       0.08240064 0.19009578 0.13878255 -0.0145883
0001a0 68 f7 6d be 04 73 c9 bd c3 8f 33 3e 36 b6 a5 3e
       -0.23238909 -0.098363906 0.1753531 0.32365578
0001b0 e9 ce 2c bd 64 d1 56 be 85 cb 66 be d9 5b 26 be
       -0.042189512 -0.20978314 -0.22538574 -0.16245975
0001c0 b7 02 8e 3c 24 bc 48 3e a8 ab bb 3d 85 23 08 3e
       0.017335279 0.1960302 0.091636 0.132948
0001d0 c9 7c dc 3d 23 2f ea 3d 18 9d 12 3e 70 c6 c5 bd
       0.107659884 0.11434772 0.14317739 -0.096569896
0001e0 d1 82 08 3e 5d 00 60 be bc 45 83 3d 8c 56 1f 3d
       0.13331152 -0.21875139 0.06409785 0.038900897
0001f0 cb 66 89 3c 34 1e 68 3e 95 f7 e8 3d b1 81 08 be
       0.016772648 0.22667772 0.113753475 -0.13330723
000200 3a fc 1e 3e 94 6e 6f 3d 04 7a 21 be 3c 78 d9 3d
       0.15525904 0.058455065 -0.15769202 0.10618636
000210 5d 11 35 3e d4 26 5a 3c b1 88 b9 be 4c e7 ed be
       0.17682405 0.013314921 -0.362371 -0.46465528
000220 d8 88 59 3e 78 d5 d0 3d f0 05 4c bb 8a cb f2 bd
       0.21243608 0.10196966 -0.0031131469 -0.11855228
000230 28 6a 7a be 78 d1 5d be 6d a2 e4 3d 5a 48 42 3d
       -0.24454558 -0.21661937 0.11163793 0.04743228
000240 7e 4e f5 3d 68 1c 6f be 95 d5 0d 3e 3c d3 18 3e
       0.11977862 -0.2335068 0.13851006 0.1492433
000250 48 a5 04 bc 84 c4 9b be 4a 0b 0a 3d 37 3a 1f bc
       -0.008096047 -0.30423367 0.033702172 -0.009718469
000260 41 a0 93 bd 3e 1e c2 bd be b8 6c 3e 9b 62 8c bd
       -0.072083004 -0.094784245 0.23117349 -0.06854745
000270 f4 d7 a7 3d f5 1a 62 3d 5d 08 3f be 90 9f d1 3d
       0.08195487 0.05520149 -0.18655534 0.10235512
000280 f2 a8 89 be ff 91 49 3e b5 dd 03 3d be 23 0c be
       -0.26886708 0.196846 0.03219386 -0.1368551
000290 76 f8 6c be f6 61 15 3d 8f 9d ae 3d ef 60 10 3e
       -0.23141655 0.036470376 0.08526146 0.14099477
0002a0 4f 33 7d 3e 52 39 de 3c ce c0 20 38 8d 9b c6 be
       0.24726604 0.027126942 3.8326536e-05 -0.3879055
0002b0 3c b3 0c bd 7f ee d2 3d 9e 68 7d be b4 7e 5e be
       -0.03435062 0.10299396 -0.2474694 -0.21728021
0002c0 66 4d 2e 3e 4e 4f fe 3d d5 04 86 3d 79 5b 3d 3e
       0.17021713 0.1241747 0.065438904 0.18491925
0002d0 fe cf 3e 3e 64 05 27 bd 25 05 dc 3c aa 4c 42 be
       0.1863403 -0.040776625 0.026857922 -0.18974558
0002e0 62 86 71 3e df b8 f4 bd d3 a5 ba bd f8 56 99 3e
       0.23586419 -0.11949324 -0.0911366 0.29949164
0002f0 db 53 0f 3d be 0a 66 be 97 4e 1d 3e 7c 08 fd bd
       0.03499208 -0.22465035 0.15362011 -0.12355134
000300 79 f8 66 bd c0 7c 0e 3e 2f 2e 59 be 24 e9 7f be
       -0.056389306 0.13914776 -0.21209024 -0.2499128
000310 c6 46 1d be e0 f6 01 3e 0c dd 5b 3e 89 95 98 bb
       -0.15359029 0.12691832 0.21471041 -0.004656498
000320 41 06 92 3d fc 53 43 be c4 d9 32 be 8f 76 05 be
       0.07130099 -0.19075006 -0.17465883 -0.13033508
000330 da ad b7 3c cb e3 ad be 92 d5 81 3d 62 04 00 3e
       0.022421766 -0.33962855 0.063395634 0.12501672
000340 d9 21 3b be 03 16 a0 3d ab f2 55 bd a1 47 c4 3c
       -0.1827463 0.078166984 -0.05223338 0.023959937
000350 48 87 d6 bd b4 44 92 3d 4d 11 98 3d b7 d7 74 3e
       -0.104750216 0.0714201 0.07425175 0.23910414
000360 82 62 32 3c 32 bc 52 be 17 86 3b be 8b 71 ad be
       0.010887744 -0.20579603 -0.1831287 -0.3387569
000370 5b 16 2d be 25 0d 59 3e 6a 72 25 bd 26 d1 85 bc
       -0.16903059 0.2119642 -0.040392317 -0.016335081
000380 52 10 83 bd 25 0e 5c be ab 2c 14 be e4 b4 c9 3e
       -0.06399597 -0.2148977 -0.14470164 0.3939582
000390 60 3b 04 be 13 74 fe 3c d2 5b 38 be ca 7d 19 be
       -0.12913275 0.031061208 -0.18003777 -0.14989391
0003a0 b6 6a bd 3e e5 4e cd bd 80 c7 40 3e 6c 06 9f 3d
       0.36995476 -0.100248136 0.18826103 0.07764897
0003b0 54 19 88 bd 5c 4a 35 bd d6 00 63 bd 5c db c3 3d
       -0.06645456 -0.044260368 -0.05542072 0.09563324
0003c0 d6 89 34 be 59 ec cb bc a8 e2 80 3e 7c 9f 7a be
       -0.17630705 -0.024892973 0.25172925 -0.24474901
0003d0 7c 26 1e 3e ac c8 02 be 4f be d9 bd 82 ee b0 3e
       0.15444368 -0.12771863 -0.106320016 0.34556967
0003e0 41 5c 86 be cd ed d6 bd 10 54 af bc 29 d4 07 3e
       -0.2624226 -0.10494576 -0.021402389 0.13264526
0003f0 4a ff 22 3e be 9f 1f 3e c7 ff 05 be 01 67 61 bd
       0.15917698 0.1558828 -0.13085853 -0.055029873

network.0.bias f4 [128]
000000 ee 10 ca 3d fb 88 5d bd a7 41 6e be bd 51 f9 3b
       0.0986651 -0.054085713 -0.23267232 0.007608621
000010 e0 18 a4 bd 83 5f bf 3d 80 01 42 be e2 95 f6 3d
       -0.08012557 0.09344389 -0.18945885 0.12040307
000020 31 c5 e1 3d 3e 84 55 3e ba 5e 81 3d be ad 50 be
       0.110239394 0.20851228 0.06316896 -0.20378777
000030 4e ea 5a 3e 71 cb 29 be e1 78 51 3e 97 7b 15 3e
       0.21378443 -0.16581513 0.20456268 0.14597927
000040 5b 3f a4 3d 82 82 1d 3d d7 e4 d8 3d 21 96 5d bd
       0.080198966 0.03845454 0.10590523 -0.054098252
000050 73 58 37 3d 51 14 fc bc 10 1a 37 3e 89 61 d5 3d
       0.044762086 -0.030771406 0.17881036 0.10418994
000060 d5 9c 76 3e 09 d1 7d bd 3e 97 38 bd ea 31 a8 bd
       0.24083264 -0.06196693 -0.04506611 -0.08212645
000070 75 7a 0f be 82 58 54 be 7b 67 39 3c f2 f3 7f bd
       -0.14011557 -0.20736888 0.011316176 -0.062488504
000080 91 09 1c be ed ab 58 be f7 56 38 be 18 83 07 3e
       -0.15238024 -0.21159334 -0.18001924 0.13233602
000090 99 3a 05 bd 93 53 1e bc fe ea 9b 3c 17 8e d1 bd
       -0.032526586 -0.00966348 0.019032951 -0.102321796
0000a0 e0 20 6a 3e ed e3 23 bc a5 d4 2b be f8 de 5b 3b
       0.22864103 -0.010003072 -0.16780336 0.0033549648
0000b0 48 0f 9e 3d 1d f9 5e 3e dd f3 ee 3d b5 8c 47 bd
       0.077177584 0.21774717 0.11667607 -0.048718173
0000c0 e1 3f f1 3d e6 32 3a 3e bd 4a b0 bd 28 df 5a 3d
       0.11779762 0.18183479 -0.08608005 0.053435475
0000d0 21 90 04 bc 8a 9e fa bd 4c 90 d6 3b 33 1a 6e bd
       -0.008091004 -0.1223727 0.0065479632 -0.058130454
0000e0 64 6a 25 be ea 01 2d bd 15 cd 17 3e 1c 51 a8 bd
       -0.16153866 -0.042238154 0.14824326 -0.082185954
0000f0 23 67 35 3e 9e fc 2d 3c c2 b9 38 3d de e4 e8 3d
       0.17715125 0.010619311 0.045099027 0.11371778
000100 01 e0 a4 3d 68 c9 35 bd a8 e4 7a bc 78 d1 54 bd
       0.08050538 -0.04438153 -0.015313305 -0.051957577
000110 d2 30 38 3e 4e 02 6d 3e 3a f0 09 3d 10 ec c1 3d
       0.17987373 0.2314541 0.033676364 0.094688535
000120 22 4c 1e be ed 36 b5 bd 26 2f a0 3d 1d de 99 bd
       -0.1545873 -0.08848367 0.07821493 -0.07513068
000130 db 1f a9 3d 46 ca 1c 3e cd 38 31 3e eb e9 5b bd
       0.08258029 0.15311536 0.17306824 -0.05368988
000140 ca 97 29 bd b4 67 e5 bd aa 32 6d 3d 9c 89 2b be
       -0.041404523 -0.112014204 0.057909645 -0.16751713
000150 76 60 2b be ad 77 d8 bd 08 da db 3d 6f 96 eb 3d
       -0.16736016 -0.10569701 0.107349455 0.11503302
000160 99 01 4c be bf ec 91 bd 2d a0 36 3e 77 a5 8b 3d
       -0.19922484 -0.07125234 0.1783454 0.06818669
000170 be 92 10 bd 3c 0c b4 3d 28 65 2a be 04 b7 70 bd
       -0.035296194 0.08791396 -0.1664015 -0.058768287
000180 52 e6 11 3d e6 39 5b 3d 20 05 37 bd 10 44 17 be
       0.03562004 0.053522013 -0.044682622 -0.14772058
000190 9a d4 11 bc 48 cb 11 3e 37 24 25 3e 1b 07 52 bd
       -0.008900786 0.14237702 0.16127096 -0.051276308
0001a0 3b ca 3d be 01 39 71 3e 12 fd f9 3c 85 65 ea bd
       -0.18534176 0.23556902 0.030516181 -0.114451446
0001b0 59 62 0e 3e ef ff 45 3e 81 0d 04 be e9 89 cc 3d
       0.13904704 0.19335912 -0.12895776 0.09987242
0001c0 13 19 0a be f3 dd ff 3d f3 dd 33 be 24 72 a5 bc
       -0.13486128 0.12493505 -0.17565136 -0.020196028
0001d0 cf a8 36 3e 12 a6 68 3d 56 23 11 be 78 2c 93 bd
       0.17837833 0.056799002 -0.14173636 -0.07186216
0001e0 bd d2 ca 3b 7e cb d6 bc 1b a9 a1 3d 10 ab 01 be
       0.0061896727 -0.02622008 0.078935824 -0.12662911
0001f0 9e 63 9c 3c bc 7c e0 ba 71 10 5a bd 6d a5 10 be
       0.01909047 -0.0017127017 -0.053238336 -0.14125605

network.2.weight f4 [256, 128]
000000 3b dc 3d be e9 c1 b0 3e eb 0a 10 3c 37 46 4a bd
       -0.18541043 0.34522942 0.008791666 -0.04938337
000010 34 57 f2 3d 2d 33 50 be a1 46 1f bd a8 fc 46 bd
       0.11833039 -0.20332022 -0.038885716 -0.048580796
000020 8f a3 4e bc c0 30 05 3d 9f 70 6a bd a8 87 ba bd
       -0.012612238 0.032517195 -0.05723631 -0.091079056
000030 50 c2 a1 be bb 81 d2 3d 6b 03 97 3c 1b 8d 8f 3d
       -0.3159356 0.102786504 0.018434247 0.070093356
000040 fc d3 40 3e be ee 97 bd 8a f4 3e bd d1 e1 e5 bc
       0.18830866 -0.07418583 -0.04661993 -0.02806178
000050 9e 0c 54 be d9 c9 7e bd ca 35 46 be ea 58 9a 3e
       -0.20707938 -0.062204216 -0.19356456 0.3014596
000060 e3 af c4 bb 88 13 a5 be 31 af 10 3e c0 74 a3 bd
       -0.0060024126 -0.32241464 0.1412933 -0.07981253
000070 f5 c9 81 bd 9f 92 2f bd 18 d9 fe 3c a2 a3 40 3d
       -0.06337348 -0.04286444 0.031109378 0.047031052
000080 58 7a 35 bd db 6c 32 bd 53 4f 7d bd 95 f7 84 3e
       -0.04430613 -0.043560844 -0.061843228 0.2597014
000090 6b 1a 36 bd 08 11 78 3d 46 00 d4 bb e7 a1 85 be
       -0.044458788 0.060563117 -0.006469759 -0.26100084
0000a0 e3 02 e6 3d 25 5e 39 bd 2e df 1b 3e c4 b2 33 be
       0.11231019 -0.0452558 0.15221855 -0.17548662
0000b0 dc 31 0c 3d 76 9e 93 3d 9c 86 5d 3e e2 9e 82 3c
       0.034227237 0.072079584 0.2163338 0.015944902
0000c0 a9 7e 28 bd 47 7c 02 be b2 0f ad 3e 80 20 06 bd
       -0.041136418 -0.1274272 0.33801037 -0.03274584
0000d0 e0 c3 06 bd 24 6b 13 be 96 c1 a1 3d e9 73 a9 be
       -0.032901645 -0.1439634 0.07898252 -0.33096245
0000e0 f5 99 f9 3d 6f f4 34 3d f3 a8 96 3d 1b 8d 5b 3d
       0.12187568 0.044178423 0.07356443 0.053601366
0000f0 06 87 b6 3d 41 c6 0e 3e 93 c2 37 3d 81 44 db 3d
       0.089124724 0.13942815 0.044863295 0.107064255
000100 03 2b 08 3e 06 ce 81 bd 75 79 f2 3d aa c6 69 3c
       0.13297658 -0.06338124 0.11839572 0.014268557
000110 a7 51 06 bd 3c cc 95 3d 5e fd 85 bb 7c c9 dc 3b
       -0.032792713 0.07314345 -0.0040890416 0.006737886
000120 32 b5 1f 3d 93 9e 07 be bb a1 f4 3b 34 98 36 3e
       0.03899116 -0.13244085 0.007465569 0.17831498
000130 07 a1 27 3d 16 63 c3 bd d5 4f 31 3d 95 63 a2 3c
       0.040925052 -0.095403835 0.043289024 0.019822875
000140 3c 5d 6c bd f2 41 3b 3e d0 00 61 be 7e 9e 80 be
       -0.057706103 0.18286875 -0.21972966 -0.2512092
000150 94 a9 c1 3b 43 fe 64 3e 7e 92 d1 3c 06 9b f9 bc
       0.005910108 0.22362618 0.025582548 -0.030469429
000160 ff d7 1a 3e d6 59 35 3d 9d f2 fa bd 80 dc a8 3e
       0.15121458 0.044275127 -0.12253306 0.32980728
000170 3e 49 ca bd 97 ae 18 3d 04 76 c7 3d 89 a7 b1 3d
       -0.09877251 0.037275877 0.097393066 0.08674533
000180 59 f8 e2 bb 05 6a 3b bd 85 31 39 3d 11 a6 0c bd
       -0.006926578 -0.045755405 0.04521324 -0.03433806
000190 26 ac 04 be 9d 96 87 3d c2 56 70 3e 3b 2f d1 bc
       -0.12956294 0.06620524 0.23470595 -0.025535217
0001a0 18 fb 96 be 90 b0 6a bd 58 0e b0 3b 28 6c 31 3d
       -0.29488444 -0.05729729 0.0053728037 0.043316036
0001b0 89 e7 e6 3d 8e 0f 52 be 51 22 e9 3d 81 6c 07 bc
       0.112746306 -0.20513746 0.113834985 -0.008265615
0001c0 11 b9 d9 bc 57 e7 1c 3c e2 42 25 3e 4a 09 fd bb
       -0.026577504 0.00957664 0.16138795 -0.0077220546
0001d0 1a 5a 91 3d 3f ef f1 3d 10 0f c6 3d 4b 4c e9 3d
       0.07097264 0.11813211 0.09670842 0.11391505
0001e0 68 23 59 bd 14 ab 62 3c 1d de 98 3c 6c fd 8a be
       -0.05301228 0.0138347335 0.0186606 -0.2714647
0001f0 59 14 77 3b 56 4d 98 be 77 3f 00 be 88 2a 61 be
       0.0037701337 -0.29746503 -0.1252421 -0.2198888
000200 1b ef 7e 3d 5f 48 c9 bc 88 bf b2 3c 87 53 0d 3d
       0.062239747 -0.024570642 0.021819845 0.034503486
000210 a6 0b 6b 3d c2 ec 33 3b c3 e9 07 3d 22 cf ce 3b
       0.057384156 0.002745435 0.033181917 0.0063113132
000220 30 ae b5 bd a4 07 22 3d d4 12 04 3d bc 26 71 3c
       -0.08871114 0.039558068 0.03224452 0.014718708
000230 5f 39 10 bd 66 7f 3e bd 47 62 ad 3c 2a 3a 60 3c
       -0.035210963 -0.046508215 0.021165026 0.013685742
000240 d8 2d 0a bd d2 ea e5 bb 78 3a 80 3d db b4 0f bd
       -0.033735126 -0.007016518 0.06261152 -0.035084587
000250 3c f4 71 bd cd d0 c8 bd 51 43 a0 3d 4f 1d 71 bc
       -0.05907081 -0.098054506 0.078253396 -0.01471646
000260 7c 6e 66 bd 11 96 9e 3d 57 0d 24 bd c3 ab a0 3c
       -0.05625771 0.07743467 -0.040051784 0.019613152
000270 d5 b3 96 3d c3 56 89 3d d1 2f 53 3d 4d c6 41 3d
       0.07358519 0.067060016 0.051559273 0.047308255
000280 26 68 49 bc 40 da 1c 3d bd c8 ac bd 59 d2 25 bd
       -0.012292897 0.038294077 -0.08436725 -0.040483806
000290 46 62 83 3d 70 cc 01 3d 58 59 8c bd 01 85 c1 3c
       0.064152285 0.031689107 -0.068529785 0.023622992
0002a0 ff a8 8a bd 73 3a 78 bb a1 4b 4a 3d 8d 09 c8 3c
       -0.06770515 -0.0037876635 0.04938853 0.024418617
0002b0 1c 92 c6 bd 74 58 c3 bd 97 94 81 3b ac 43 0d 3d
       -0.09695837 -0.095383555 0.003954481 0.034488365
0002c0 f6 c7 5d bd 0d e5 14 bd d8 c0 19 3d da 71 c3 bd
       -0.054145776 -0.036351252 0.037537426 -0.095432
0002d0 22 6c f5 bc 1c f9 9c bd 76 b3 4e 3d 8c 68 90 3d
       -0.029958788 -0.07664701 0.050464116 0.07051191
0002e0 97 6c 0e 3d 0a 4c 48 3d 61 33 c9 3c 76 5c e4 3c
       0.034771528 0.04890064 0.024560632 0.02787612
0002f0 e9 3b 82 bd 45 a9 ef bb d0 35 27 3d c4 b8 21 bd
       -0.06359083 -0.0073138797 0.040822804 -0.039482847
000300 5a a7 61 bd 97 d5 e6 3b b0 f3 1c bd 7e 1c f7 3c
       -0.05509124 0.007044505 -0.038318336 0.030164953
000310 e6 62 b5 bc d2 86 5c 3c 72 e8 a1 bd 74 97 f8 bb
       -0.022141885 0.013459878 -0.079056635 -0.007586414
000320 58 36 8f bd 8c 88 c0 3c 73 49 84 3c 31 ce ee 3c
       -0.06992787 0.02350261 0.016148305 0.029151054
000330 8d b0 47 3d 32 a0 3f 3c 8a 55 6a bd c6 77 c1 bd
       0.048752356 0.011695908 -0.057210483 -0.09446673
000340 da a8 fb bb 10 69 ed bc a6 84 07 3c e7 e8 89 3d
       -0.007680041 -0.028980762 0.008271372 0.06733876
000350 a7 05 98 bb c1 19 1e bd 57 31 8e bd 98 bf 0f 3c
       -0.0046393457 -0.03859878 -0.069430046 0.008773707
000360 23 9a 59 3d f5 45 f9 3a 50 05 aa bd a9 4c 51 bc
       0.05312551 0.0019018041 -0.083017945 -0.012774625
000370 87 07 68 3d dc 2d c9 bb 7d 81 a1 bd 4f fa 69 bd
       0.056647804 -0.0061395 -0.07886026 -0.05712348
000380 f8 ff 41 bd 37 c9 87 3d b3 cb d9 bc 2c 77 a6 bd
       -0.04736325 0.066301756 -0.02658639 -0.08128199
000390 df f0 d8 ba 08 d9 a8 bd 61 20 d2 bd 0e 64 8b 3c
       -0.0016551277 -0.082445204 -0.10260082 0.017015483
0003a0 18 84 79 bd 1c fb ce 3c eb 21 98 3c 96 73 ad bc
       -0.06091699 0.025266223 0.01857086 -0.02117328
0003b0 be e6 5f 3c 2a 77 b0 bd c8 01 04 bc 88 88 9a bd
       0.013665853 -0.08616479 -0.008057065 -0.075455725
0003c0 e8 34 9f 3d 94 c4 b0 bd db 23 8a bd 58 d8 41 bd
       0.07773763 -0.08631244 -0.0674512 -0.047325462
0003d0 92 a9 ee 3c c1 b6 86 3c c4 4d 82 3d c4 fe 9c 3d
       0.029133592 0.016444566 0.06362489 0.0766578
0003e0 a6 e5 66 bd 2a 84 ad 3d c4 e3 15 bd e8 d3 64 bb
       -0.056371354 0.08472474 -0.036594167 -0.0034916345
0003f0 5a 62 c1 bd d0 05 00 bd 18 43 83 bd 04 c7 22 3d
       -0.09442587 -0.031255543 -0.064092815 0.039740577

network.2.bias f4 [256]
000000 4f 66 b5 3d 48 3c 1b bd 0e b9 b1 bd b5 a7 28 bd
       0.088574044 -0.037899286 -0.086778745 -0.041175563
000010 80 14 e8 3d bf 14 9e 3b 44 18 b7 3d 16 de 91 3c
       0.11332035 0.0048242505 0.08940175 0.017806094
000020 d3 57 0e bd 66 42 91 3c 05 9f e9 3d d6 c2 05 3b
       -0.034751724 0.017731857 0.11407284 0.002041032
000030 c2 10 3e bc 9f 5c 3b 3d 13 cf 9f 3d 49 8a 98 3c
       -0.011600675 0.045742627 0.07803168 0.018620627
000040 37 2a a6 3d 79 f8 3b 3c e5 96 43 bd f4 b1 b2 bd
       0.081135206 0.011472815 -0.047751326 -0.08725348
000050 58 ad c0 3d 4a 73 0a 3d ed 3f c3 bc cb df b1 3d
       0.09408063 0.033801354 -0.023834193 0.08685263
000060 6c ac ea bb 20 7f 14 bc 30 3e f5 3c 5f d5 46 3d
       -0.0071616676 -0.009063512 0.02993688 0.04854333
000070 76 a9 a2 3c b2 4a f4 bc e8 7a cf 3c 99 00 0b 3d
       0.019856196 -0.029820774 0.025327161 0.033936117
000080 d3 65 ec 3b 3d b8 c5 bd 0c 09 4d bd 31 5a d0 3d
       0.007214287 -0.09654281 -0.050057456 0.10173453
000090 8f 7d 81 3c f5 21 25 3d 26 d9 04 3c 1b fb de bc
       0.015806941 0.040315587 0.008108413 -0.027219346
0000a0 6d 61 a5 3d f1 9f af 3d a2 c3 de bc 82 ae 6f 3d
       0.08075223 0.08575428 -0.027192894 0.058516033
0000b0 2e 3d ae bd 35 40 43 bd 49 18 24 bd ed 8c c6 3d
       -0.08507763 -0.047668654 -0.040062223 0.09694848
0000c0 a6 ba 06 3d 8d 56 6f 3d 7a 11 79 3c 45 80 d7 3d
       0.032892846 0.05843215 0.015201921 0.10522512
0000d0 1a 24 11 bc 2f 34 a8 3d 02 07 29 bd 41 cf 49 3d
       -0.008858705 0.08213078 -0.04126645 0.04926992
0000e0 ab d5 81 3d 6c 5b 7b bd 4c 11 09 bd 03 a3 e1 3d
       0.06339582 -0.061366484 -0.03346376 0.1101742
0000f0 f8 f9 18 3d fb 8b d8 39 0d dd f3 3c 28 f9 c8 bd
       0.037347764 0.00041303024 0.029768491 -0.09813148
000100 48 c0 14 ba 4e 14 94 3d 47 8f c6 bc d6 4a 90 bd
       -0.0005674404 0.07230435 -0.024238242 -0.07045524
000110 2c 05 18 bb cf 21 34 bd 22 1b 3b bd 13 5c e8 bb
       -0.0023196442 -0.043977555 -0.045680173 -0.007091054
000120 38 9e ee bc c3 98 0e bd f0 94 81 3c 69 e9 c4 bd
       -0.029128179 -0.034813654 0.01581809 -0.09614832
000130 02 aa df 3b 18 c6 95 3b 21 21 af 3d ec 27 da 3c
       0.0068256864 0.0045707338 0.08551241 0.026630364
000140 11 ce d0 3d 67 7c c1 3d 43 4b 8e 3d ca e8 63 bd
       0.10195554 0.09447556 0.06947949 -0.055641927
000150 d0 33 40 bd 9f 1d e1 bc 53 da 9b 3d 76 4c ea bb
       -0.046924412 -0.027479945 0.076100014 -0.007150228
000160 7b 70 8e bc a0 08 f1 3c b1 92 dc 3d 79 12 cb 3c
       -0.01738762 0.029423058 0.10770167 0.024789082
000170 cc 85 29 3d 0f 1d 3d 3d 9f d0 e1 3d da 05 c7 3c
       0.041387364 0.04617029 0.110261194 0.024294782
000180 b8 a8 bc bd b9 a3 14 bd 3b 2c ba bd 0a 48 39 bd
       -0.09211868 -0.03628895 -0.090904675 -0.045234717
000190 ab f7 44 3d 7b 21 d7 3d 31 eb ca 3d 7c dc c3 bc
       0.048087757 0.10504433 0.099081405 -0.023908846
0001a0 8e ae e1 3d bd a9 0d bd ad 79 bc 3d 17 2a e4 bc
       0.11019622 -0.034585703 0.09202895 -0.027852101
0001b0 07 47 81 bd 1d c9 b9 bb ea 24 bf bb a0 c0 10 3d
       -0.063123755 -0.0056697265 -0.005833258 0.03533995
0001c0 4a 89 86 bd f2 b6 51 bd f2 08 04 bd fa cd d6 3d
       -0.065691546 -0.05119986 -0.032235093 0.10488506
0001d0 8e 7e 23 3d 55 41 1c 3d 14 8a e1 bc 04 50 23 3d
       0.039915614 0.038148243 -0.027531661 0.03987123
0001e0 39 b6 b8 3d 2b 3d 2b 3d 55 60 32 3c 97 06 89 bd
       0.09019131 0.04180638 0.010887225 -0.0669071
0001f0 c7 b6 af bd 4f ee 9e 3c e6 4d da 3d 91 4f c3 bd
       -0.08579784 0.019400744 0.10659389 -0.095366605
000200 a1 2e de 3c f0 37 1f 3a 9b b5 29 3d 86 a6 c9 bc
       0.027121844 0.0006073704 0.041432958 -0.024615537
000210 a4 fd 3e bd 02 b6 b1 bd 95 2b 7f 3d 9a 73 3f bd
       -0.04662861 -0.08677293 0.062297422 -0.046741106
000220 2e 6d 22 bd 11 7e 61 bc e1 da 45 bd 8f da ac 3d
       -0.039654903 -0.013762967 -0.048304442 0.08440124
000230 1b 3e 10 3d d1 dc 12 3d be da e9 3d b4 60 94 bd
       0.03521548 0.03585512 0.11418675 -0.07245007
000240 cd 63 38 bd 65 0c d6 3d 50 09 12 bd 97 fe 95 3c
       -0.045017052 0.10451583 -0.035653412 0.018309874
000250 74 ed ad 3d f6 ec 13 bd 9a 1f 27 bb 1b 5f 98 3d
       0.08492556 -0.036114655 -0.0025501014 0.07440015
000260 3f 76 ef bc f9 b9 22 3c a5 8a 2f 3d 4d 37 3c bd
       -0.029231189 0.009932035 0.04285683 -0.045951176
000270 46 9c 8a 3d a7 4b 68 3d e2 8f b2 3d 0a bd 50 bd
       0.06768088 0.056712773 0.0871885 -0.05096153
000280 d0 ec 01 3c dd 5e ca 3d 29 f8 c6 3d e7 c6 97 bd
       0.007929996 0.09881375 0.097153015 -0.074109845
000290 b2 30 bc 3d 6d dc 45 bc 1e 5a 99 3d fb 33 33 bc
       0.091889754 -0.012076479 0.074878916 -0.010937686
0002a0 ed c4 ba 3d 00 78 5b 3d 0c 51 64 bd 82 71 15 bd
       0.09119592 0.053581238 -0.055741355 -0.036485203
0002b0 6d 98 ee 3d f2 ea 4a bd f3 98 b4 bd f3 b7 30 bd
       0.11650167 -0.049540468 -0.08818235 -0.043144178
0002c0 79 1f 47 bd 01 dc 94 3c 93 8e 81 3c 12 06 7f bd
       -0.048614 0.018171312 0.015815055 -0.06226165
0002d0 54 df 1d bd 40 82 62 bd 59 8c 9a 3c 9b e8 3f bd
       -0.03854306 -0.055299997 0.018865751 -0.04685269
0002e0 24 fe c5 3d b9 e7 cf 3d f5 46 cb bc 8b 83 61 3d
       0.09667614 0.101516195 -0.024814108 0.05505709
0002f0 23 6f d1 bd 9a f4 5f bd 99 0c 51 3c 3a fe 0e bd
       -0.10226276 -0.05467663 0.012759351 -0.034910418
000300 ee 98 9a bd dc 72 10 3b 2b 04 8e 3d f5 9c 80 3d
       -0.075487 0.0022041118 0.06934389 0.06279937
000310 03 64 43 bd 7a 0f 30 3c c3 89 31 3d d5 ec c5 bb
       -0.0477028 0.010745877 0.04334427 -0.0060401955
000320 12 0a 1f 3d 85 5e 1e bd 67 70 d1 3d 83 9e 07 bd
       0.038827963 -0.03866436 0.10226517 -0.033110153
000330 5a cb b4 3d ed 23 ba 3c 53 87 96 3c df 22 92 bd
       0.08827849 0.022722209 0.018375074 -0.071355574
000340 14 df a2 3c 6f 58 29 3d b7 2b bc 3d f4 ce aa 3d
       0.019881763 0.041344102 0.091880254 0.083402544
000350 e8 59 27 3b ce 29 5b bd d0 50 4e 3d 5b 6d 53 bc
       0.0025535766 -0.053506665 0.050370038 -0.01290449
000360 79 f7 6e bd d3 28 09 bd 05 1a 05 bd 76 c0 06 bc
       -0.058341477 -0.0334862 -0.032495517 -0.008224597
000370 40 7c 64 39 dc 63 21 3d 38 90 81 3d 3a c2 90 3d
       0.00021790061 0.039401874 0.06326336 0.07068296
000380 03 9a c7 3d 8e 8e be 3d 57 83 b1 3d 73 5a c7 3d
       0.09746172 0.09304534 0.08667629 0.09734049
000390 3f be 91 3d 92 7f 8c bd 57 7b 34 bd 82 3a c9 3d
       0.07116365 -0.068602696 -0.04406294 0.098256126
0003a0 ff b1 6f bd 05 3a 55 3d 30 10 22 bd ce d3 8a 3d
       -0.05851936 0.052057285 -0.03956622 0.0677868
0003b0 08 cd 03 3a 86 9a be 3d 9f 51 4a bd c9 49 c2 3c
       0.00050278055 0.09306817 -0.049394246 0.023716824
0003c0 8f 79 a2 3c cc 16 e4 3d ac 7c c6 3c f7 58 e8 3d
       0.019833354 0.11137161 0.02422937 0.11345094
0003d0 f8 b4 20 3d ab 5d 0b bb d4 c5 14 3d a9 ed 50 3d
       0.039235085 -0.0021265547 0.036321476 0.0510079
0003e0 b3 c8 07 bd cb ae ab bd af 8f f0 3d b8 9d 41 3b
       -0.033150386 -0.083829485 0.117461555 0.002954347
0003f0 f0 f9 d6 3d 52 97 28 3d ab b9 8e 3d e5 b5 e2 3d
       0.104968905 0.041159935 0.06969007 0.1106985

network.4.weight f4 [1, 256]
000000 da 54 37 3e 52 df d4 3b 02 17 19 bd d8 80 81 bc
       0.17903462 0.0064963484 -0.037375458 -0.015808508
000010 7c 8f 5d 3e 6a 63 50 3e af c8 dc 3d ee 0f 48 be
       0.21636766 0.20350423 0.10780465 -0.19537327
000020 20 ba 4a be b4 c6 6c 3e 28 a7 56 3e 8e 45 44 bd
       -0.19797564 0.23122674 0.20962203 -0.047917895
000030 3c b1 db bd a3 a0 59 be fd b7 7b 3e bf 66 34 be
       -0.10727164 -0.21252684 0.24581905 -0.1761732
000040 78 4d 3a be df e7 67 be c0 aa 42 be 4a 53 f1 3c
       -0.18193614 -0.22647046 -0.19010448 0.02945866
000050 83 81 73 be 4a 9b 52 be c6 cc 05 bd 52 b4 53 be
       -0.23779874 -0.2056705 -0.03266599 -0.20674255
000060 00 11 75 3e a9 79 33 3e 10 68 d3 bc 45 ac 77 be
       0.23932266 0.17526878 -0.025806457 -0.2418681
000070 44 0d a4 3c 0f 56 23 3b ca 4a 3f 3e b7 33 8e be
       0.020025857 0.002492312 0.18680874 -0.2777383
000080 82 22 33 bd eb 4f 18 3d 17 37 94 be e6 93 5f be
       -0.04373408 0.03718559 -0.2894828 -0.21833763
000090 18 2d 8a be 76 a5 6a 3c d4 32 51 be d2 74 4f be
       -0.2698753 0.0143216755 -0.20429546 -0.20259407
0000a0 30 c1 66 3e 6a bd 65 3e e5 d0 46 3e ab fe 6f be
       0.22534633 0.22435537 0.19415624 -0.23436992
0000b0 54 67 44 bd 3f ba 82 be 3a 77 47 38 29 16 39 3e
       -0.047950104 -0.2553272 4.7556336e-05 0.1807486
0000c0 1d 6c a7 3b 49 71 38 bd 26 75 c8 bc bb f4 4c 3e
       0.0051093237 -0.045029912 -0.024469923 0.20015232
0000d0 54 1b 6c 3e ba 39 77 3e f4 c0 54 be e7 b9 3a 3e
       0.230573 0.24143115 -0.20776731 0.18234979
0000e0 bd 03 35 be 7e 5f 04 3d 26 41 71 be c3 3a 75 be
       -0.17677207 0.03231763 -0.23560008 -0.23948197
0000f0 51 08 5d be 6a 02 81 be 64 b0 49 be 9b 51 8e bc
       -0.21585204 -0.25197154 -0.19696194 -0.017372897
000100 b7 5d 6a 3e ca cf 68 be 3e ab 55 be 2d 46 9a bc
       0.22887312 -0.22735515 -0.20866105 -0.01883229
000110 7f 6d 90 bc d0 7e 88 3e 93 ce 44 3e e8 10 6b 3e
       -0.017630337 0.2665925 0.19219427 0.22955668
000120 32 1a 88 be 35 05 cc 3c 45 17 9e 3c eb 4d 4b ba
       -0.26582485 0.024904827 0.019298205 -0.0007755446
000130 87 3a 30 3e 48 e1 97 be 99 f5 54 3e 65 6d 52 be
       0.17209826 -0.29664063 0.20796813 -0.20549543
000140 60 57 62 be af f8 61 3e 1a d1 43 3e a3 f0 77 bc
       -0.22103643 0.22067522 0.19122735 -0.015133056
000150 e9 65 33 b9 c0 59 7c 3e 92 ea 3b 3e c5 51 03 3e
       -0.00017108735 0.24643612 0.183512 0.12824161
000160 60 2f 4a 3c a6 ef 5e be 1f 94 5b 3e d6 47 4d 3e
       0.012340397 -0.21771106 0.21443222 0.20046934
000170 28 ff 55 3e 80 9c 6f be f3 ce 54 be 72 5f 50 be
       0.20898116 -0.23399544 -0.2078207 -0.2034891
000180 0b 04 12 3d 62 e2 47 be d6 93 dc bd 3a 10 33 3e
       0.035648387 -0.19519952 -0.10770385 0.17486659
000190 64 c8 3b be b4 09 4a be ab ad 62 be 41 1b 4c be
       -0.18338162 -0.19730264 -0.22136562 -0.19932272
0001a0 1f 24 69 3e 7c 11 e8 bc 70 32 53 3e 9a 39 4f bd
       0.22767685 -0.02832865 0.20624709 -0.050592043
0001b0 a2 44 e9 3b 48 f6 28 3e a6 43 17 3e 20 62 53 be
       0.0071187774 0.16500199 0.147719 -0.206429
0001c0 a9 39 27 3c 0b af 10 3d ab db 7f be 7f 65 77 be
       0.010206618 0.035323184 -0.2498614 -0.24159811
0001d0 73 cb 52 3e 4d 9e 31 3d c0 2f 7a be c5 cf 3b be
       0.20585422 0.043363858 -0.24432278 -0.18340977
0001e0 eb 01 83 3e e2 67 67 be e6 b5 fd bc fe 1a 09 3c
       0.255874 -0.22598222 -0.030970525 0.008368252
0001f0 d8 a2 0d 3d 44 dd 84 be 00 32 6a 3e 8f 4e 34 3d
       0.034579128 -0.25950062 0.22870636 0.04402023
000200 b2 fc 29 be ae f9 26 3e 4a af de 3b ed 3b 34 3e
       -0.16600302 0.16306183 0.0067957984 0.17600985
000210 35 38 58 3e 39 67 86 bb 38 8a 3d be 3a b9 45 be
       0.21115191 -0.0041016606 -0.18509758 -0.1930894
000220 30 27 59 bc 10 4d aa be 07 fd 2d be fe ca 82 be
       -0.013253972 -0.3326192 -0.16991054 -0.25545496
000230 02 66 19 3e f5 0e 86 3e ae 1c 80 be 21 55 01 3d
       0.14980319 0.26183286 -0.2502188 0.031575326
000240 5b 19 65 be 98 b1 7d 3e 3b 96 45 be 7f 19 71 3e
       -0.22372954 0.24774778 -0.1929559 0.23544882
000250 f1 4e 51 be ca 37 66 be 7b 57 5a be 05 7f 6e be
       -0.2044027 -0.2248222 -0.21322434 -0.23290642
000260 d3 64 5b be 97 47 57 bc a8 1a 57 3e 0f 30 63 be
       -0.2142518 -0.013139627 0.21006262 -0.22186302
000270 35 56 30 be 32 5e 08 3c 36 7a 37 3e 7b cb b0 ba
       -0.17220385 0.008323239 0.17917714 -0.0013488376
000280 51 44 7b 3e 80 ab 6b be 1b cd 76 be ed 85 28 b9
       0.2453778 -0.23014641 -0.24101679 -0.0001607162
000290 e6 74 3d 3e a4 f8 50 be 17 c3 50 3e 89 ee 9f 3c
       0.18501624 -0.20407349 0.20386921 0.019522922
0002a0 74 1a 4c 3e 5c 42 62 3e ee d4 96 39 9d d5 85 be
       0.19931966 0.22095627 0.00028768874 -0.26139536
0002b0 dc e5 58 be e3 fb 53 be 3f cc 75 ba d8 cb 3f bd
       -0.21181434 -0.20701556 -0.00093764433 -0.04682526
0002c0 db 4b 5b bb d4 3a de 3d 1f b9 81 3e 89 22 cc bc
       -0.0033461961 0.10851064 0.2533655 -0.024918811
0002d0 46 df 43 3e 8a 4b 0d 3b 80 ef 8d be 44 dc 51 be
       0.19128141 0.0021559917 -0.27721786 -0.20494181
0002e0 ea 90 5c 3e d1 61 73 be 5e bc 5b 3e 3c b0 ae 3c
       0.21539655 -0.23767783 0.21458575 0.02132427
0002f0 da 6e 2d bd 2e 48 bc 3c 1f 99 50 be 8c 0b 52 3e
       -0.042342044 0.022983637 -0.20370911 0.20512217
000300 c4 8f 21 3c 59 01 7d 3e 2a 4b 30 3e 1b c1 6c 3e
       0.009860937 0.24707545 0.17216173 0.23120539
000310 b6 77 31 3c 80 57 5b bc 30 74 7c be 30 af 8a 3e
       0.010831764 -0.013387561 -0.24653697 0.27086782
000320 71 42 47 be 4c bf e7 3b ec 4c 76 be d8 e7 fa bc
       -0.19458939 0.007072365 -0.24052781 -0.03062813
000330 f9 d4 7e 3e 80 5e 47 be 36 f1 ad be 32 e8 15 3d
       0.2488593 -0.19469643 -0.33973092 0.03659839
000340 5e 81 2c 3e 6a a9 34 be f4 65 63 3e 59 57 80 3e
       0.16846225 -0.17642751 0.22206861 0.2506664
000350 92 73 50 be 42 11 2e 3d 6e 49 39 be 00 77 42 3e
       -0.20356587 0.042496927 -0.18094417 0.18990707
000360 b8 7d 49 3b d4 46 07 3d dc 57 5c be f3 83 30 bc
       0.00307451 0.03302653 -0.2151789 -0.010773647
000370 cb db 83 3e c1 d7 41 be 14 9d 6f 3e 03 3b 59 3e
       0.25753626 -0.1892996 0.23399764 0.21213917
000380 dc 14 15 3e 19 ad 75 3e ff da 83 be 69 9d 6c be
       0.14558738 0.23991813 -0.25753018 -0.23106922
000390 8c f1 68 be 7d 21 2e 3c 12 0d 14 bc 70 82 4d 3e
       -0.22748393 0.010628101 -0.009036319 0.20069289
0003a0 8b 7b 31 3c 6a 4d ff bd b2 2d 80 3e 60 a8 98 be
       0.010832678 -0.124659374 0.25034863 -0.2981596
0003b0 ad c4 40 be a2 6b 5b 3e 51 e3 85 be 36 b0 85 3e
       -0.18825026 0.21427777 -0.2614999 0.26111
0003c0 ff c5 7e 3e f6 e3 49 3e f0 5b 7a be 36 ac 79 3e
       0.24880217 0.19715866 -0.24449134 0.243821
0003d0 6c b8 a1 be 21 72 4e 3e dd c3 c9 bd 49 9c 3c 3e
       -0.31586015 0.20160724 -0.09851811 0.18418993
0003e0 38 ec 37 be 53 87 de 3a 76 bc 75 be 5b 57 61 be
       -0.17961204 0.0016977586 -0.23997673 -0.2200598
0003f0 6c 09 7f be 35 4e 4c 3e 5b 07 47 be 1e 9a 67 be
       -0.24905938 0.19951709 -0.194364 -0.22617385
