models/actor.pth (torch, 148423 bytes, 6 tensors)

network.0.weight f4 [128, 9]
00000000: f995 973e c171 dc3d f377 fc3d 2e7c 7a3e
00000010: 51e5 18be a2fd 2abe 67ce d1be 8b1d 80be
00000020: a86c 8c3e 3b68 ccbb ef1b a03e a733 0cbb
00000030: 6b69 7cbe 345b 223e d373 563e b104 ac3e
00000040: cbc6 d3bc e712 84be 9978 22be 0956 df3b
00000050: a4f2 a23e 05b8 96bd 4061 a1bc 22be 95bd
00000060: 03f9 483e b83a 33bb 02e4 92be 87f3 67be
00000070: 9165 72be 7f57 84bd c7d6 1cbe 5748 173e
00000080: b03d 97be 6ffe 753e bd9e 033e 0f13 d43e
00000090: e84e 553e 953c 8a3e 5ed5 7e3e 494a 8abc
000000a0: 4fbe 083e a4e2 4e3e c0d3 f13c 1366 49be
000000b0: c025 a1be baeb 8a3e 8b22 dcbc ad45 efbd
000000c0: dd8f bf3e 859e 863c e021 173c 6ee7 c7bd
000000d0: aa1b 443e fd8a 073d f0a0 29bd 3ef1 e33d
000000e0: 6c53 583e 713c 4ebe 9c81 dcbc 7c9d 48be
000000f0: 78ee c43e 7780 ab3e d24d a2be cb4b 35bd
00000100: 631b 8a3e 24c0 013e c79e 963e 2218 88bd
00000110: 7617 553e 791f dd3d 137c 873e 7b95 80be
00000120: 93a0 253e da9b 8fbe 321c 35be ef45 863d
00000130: 9b9b 96be 2c39 81bd fbc9 d03d a471 46be
00000140: c077 c6bd badc a6bd fd41 7bbe cb6e aa3e
00000150: 8879 633d 5539 9bbe c819 ab3e ec55 843d
00000160: be27 26be 84a9 64bd 3d01 0d3e da07 2f3e
00000170: 83ad 003e 1986 9bbe d376 8a3e b546 7bbd
00000180: 80da 99bd 5b54 7fbe 5223 18bc 2cf8 153e
00000190: 1371 fb3d fdde e23d 3bea d53d 7278 d83c
000001a0: 7368 eebd 5eee 0c3c b958 a0be c47f 183e
000001b0: 01f2 23bd b6d6 aa3e cb12 a63e ebfd 4a3e
000001c0: 2891 63bd 83d8 8cbe 4eb2 443e 0eff 503e
000001d0: 3949 7ebe 7ae7 91be ef07 e5bd ba94 b23e
000001e0: 4212 a43e 5523 203e cb9d f4bd 2f4b 98be
000001f0: a70f 85be 9bfe c6bd 4685 8abe 4410 1d3e
00000200: cc59 12be c596 623e 30d7 edbd 808e c83e
00000210: 7cfe 003e 196a 2d3e 70b8 9c3e dc60 703d
00000220: 52be 06bd d9cc 25bd 50ae 9fbe 8967 c03e
00000230: 72d5 3dbe db98 cfbc c41b 693e 5eba 8e3e
00000240: 4ea0 283d 9dc2 6f3e f0fa 8dbe 48ec cbbe
00000250: 0a59 1ebd 5b9a f639 6214 ea3d b308 7e3e
00000260: c981 913d bef1 98bd b744 5e3e 9cb1 603b
00000270: 3e1b a23e 443f a1be d0ca 293e 475f e93d
00000280: 78ed 85be 458b bfbe 6d24 4cbe f17f f03c
00000290: 31a0 98bd 04e1 623e 0f0c c2bd d1ba 16bd
000002a0: 0f66 9f3e 085a 7ebe d3af 65bb 4336 0dbe
000002b0: 3006 53be d659 cfbd 76d6 22be 1351 1d3e
000002c0: 5a0c 953e 8b8b 01bd 436c 7ebe 3e03 99be
000002d0: 5d4a 953e 841c f03d 2f5c c4bd 9856 39be
000002e0: eefc 68be 45b3 0bbe 6553 0ebe 2b9e 0dbe
000002f0: f1bb b93e 085f 30be 69ce 3b3e c80b 943e
00000300: 6727 3c3e 2b03 4e3e b2db 28be 08fe 893e
00000310: cc9d 95be 7755 b2be 4b00 8ebd e8f6 5abe
00000320: 6f51 8cbe b8ef 143e 8722 81be 83f9 493e
00000330: 26bb c6bd d6ea 25bd 469a e03d 483a 66be
00000340: abbc d8bd 04d1 93be 03ec 40be 6ef0 09be
00000350: a615 87bd 60be 603d 8a06 9cbe 1e92 013e
00000360: 2126 453e f86e 41bd ee5d 533b e3fe aabe
00000370: cb9b 643e 8ed6 8d3e bd29 f9bd 1923 4dbd
00000380: 41ba bcbe 5aa9 6f3e 164d 4d3e ff12 65be
00000390: 0db8 ffbc 869b c03e 4051 c1bc 02b9 693d
000003a0: 8bfb 89be 0aa2 debd c4fa 113e 2fe5 e2bd
000003b0: ef90 7c3e 67ad a3be 152f 5d3e 0e84 13be
000003c0: 5502 0fbe 98cd 043e a275 8fbe f9a7 4e3e
000003d0: be43 69bb 7504 b33e 11a2 80be d0ac 363e
000003e0: 9b2d 933e b1c3 2fbe 2c9c 3bbe 5c0e 7fbe
000003f0: 8682 7d3e c637 933e a401 cc3d 23e6 6d3e
0.29606608 0.10763884 0.12327566 0.24461433 -0.14931227 -0.16698316 -0.40977785 -0.2502254
0.27426648 -0.006238011 0.31271312 -0.0021393092 -0.24649589 0.15855104 0.20942621 0.3359733
-0.025851628 -0.2579567 -0.15866317 0.006815676 0.31825745 -0.07359318 -0.019699693 -0.073116556
0.1962624 -0.0027348232 -0.2868958 -0.22651492 -0.23671557 -0.06462001 -0.15316306 0.14773689
-0.2953925 0.2402284 0.12853523 0.4142079 0.20830882 0.26999345 0.2488608 -0.016881125
0.13353847 0.20203644 0.029519916 -0.19667844 -0.31474113 0.2713297 -0.02687194 -0.116832115
0.37414446 0.01643301 0.009224385 -0.097609386 0.19151178 0.033091534 -0.041413248 0.11129998
0.21125573 -0.20140244 -0.026917271 -0.19591326 0.38463187 0.33496448 -0.31699997 -0.044261735
0.2697402 0.12670952 0.29418012 -0.06645228 0.20809731 0.107970186 0.2646185 -0.25114045
0.16174535 -0.28048593 -0.17686537 0.065563075 -0.29415593 -0.06309733 0.10194775 -0.19379288
-0.09690809 -0.08147569 -0.24536891 0.33287653 0.055535823 -0.30317178 0.33418107 0.06461701
-0.16226098 -0.055825725 0.13770004 0.17092839 0.1256619 -0.30375746 0.2704378 -0.06134673
-0.07512379 -0.24934523 -0.009285765 0.14645451 0.122774266 0.11077688 0.104450665 0.02642462
-0.11641016 0.008601753 -0.3131769 0.14892489 -0.040025715 0.33366936 0.32436213 0.19823425
-0.055558354 -0.27508935 0.19208643 0.20409796 -0.2483262 -0.28496915 -0.11183154 0.34879094
0.3204518 0.15638478 -0.11944159 -0.2974486 -0.25988504 -0.09716531 -0.27054805 0.15338236
-0.14292067 0.22127827 -0.116133094 0.3917122 0.12597078 0.16935004 0.30609465 0.058686122
-0.032896347 -0.04047856 -0.31187677 0.3757899 -0.18538454 -0.025341442 0.22764498 0.27876562
0.041168503 0.23414083 -0.27730513 -0.39828706 -0.038659133 0.0004703578 0.11429669 0.24808006
0.07104833 -0.07467984 0.217059 0.003428555 0.3166141 -0.3149358 0.16581273 0.11395126
-0.26157737 -0.37410942 -0.1993577 0.029357882 -0.07452429 0.22156149 -0.09474956 -0.036799256
0.31132552 -0.24839032 -0.0035047426 -0.1379023 -0.20607829 -0.10124557 -0.15902123 0.15362959
0.29110986 -0.03162722 -0.24845986 -0.29885286 0.29158297 0.11724189 -0.09587895 -0.18099439
-0.22752735 -0.13642605 -0.13899 -0.13829868 0.362762 -0.17223752 0.18340458 0.28915238
0.18374406 0.20118396 -0.16490057 0.26951623 -0.29221952 -0.3483083 -0.0693365 -0.2138325
-0.2740588 0.1454457 -0.25221655 0.19724087 -0.097036645 -0.04050716 0.10966925 -0.2248317
-0.105828606 -0.28870404 -0.18840031 -0.13470623 -0.06595926 0.054869056 -0.3047374 0.12653396
0.19252826 -0.04722497 0.0032252031 -0.33397588 0.22325055 0.27702755 -0.12166164 -0.0500823
-0.3686085 0.23404446 0.20048937 -0.22370528 -0.031215692 0.37618655 -0.023598313 0.057061203
-0.26949725 -0.1087075 0.14255816 -0.110788696 0.24664663 -0.31968233 0.21599992 -0.14405844
-0.13965733 0.12969053 -0.28019434 0.20181264 -0.0035593356 0.34964338 -0.25123647 0.1783936
0.28745732 -0.17164494 -0.18321294 -0.24907821 0.24756822 0.2875349 0.099612504 0.23232321

network.0.bias f4 [128]
00000000: c6ce fb3d f3d6 18be 3a34 0d3e a751 403e
00000010: daa9 ff3c d8e8 2abe 4ca8 963d 9d75 6e3e
00000020: 491e 093e d5f3 7b3e 8ba8 80be b60d 8fbe
00000030: dc9c 56be a90b 803e 03d8 4ebe 3353 fbbd
00000040: 804c de3d b69d ad3c 343c 44bb c011 a5bc
00000050: 1811 0d3e 2cdb 89bd 3675 5b3d f801 5fbe
00000060: 972a 683e 5ceb 603e cb7f a8bd d96d 93bd
00000070: 9e55 833d 7648 6b3e 05fd 36be 9244 793e
00000080: d72f 633e b6b0 6d3d 6911 983e 9ce8 a43d
00000090: 1d98 7d3d 15b2 a3bc 6307 403e 9b5e c33d
000000a0: 5d08 9a3e 8ceb 25bd 2963 843e 7e0b 2dbe
000000b0: af49 a83e 6bed c73e 10aa 2f3c 9fd3 283e
000000c0: f284 94bc 8e31 6d3e 28d5 6cbe 78ac a23e
000000d0: 4b38 243d 9a58 fd3c 76f5 233e 109a a6be
000000e0: 623f 82be 1443 d23d b2f7 b63d b1a1 86bd
000000f0: 0444 68be 10e3 90be 2e6f 9bbe ce14 733e
00000100: 3958 a63e ca1c 80be 6c26 df3d 42ae a1be
00000110: b81a 113e e7b3 823e caa4 e83a 0108 9b3e
00000120: 149e 293e 1628 debc 24ac ad3e 5347 6ebe
00000130: 466f 45be b344 843e 4122 143e b8b3 9d3e
00000140: 5968 113d 7081 b13e 32b5 603c 9617 b8bd
00000150: c85c 91be c10c 833e 72fe 78be 2416 8abd
00000160: d84f 493e 000e c5bd 566d ffbc 34e0 653e
00000170: cf5d 84be 2fda aabd 3fe8 953e bb0b 76be
00000180: 9baf 63be 2971 103e 76f8 f3bd cdf6 60be
00000190: 6e55 eabc bb5f b23d 35ed e13d d06f 6f3d
000001a0: 5b42 7c3e 02d7 b6bd a650 1b3e e625 4e3e
000001b0: 616a 0d3e fe85 32be 1a4f 9ebd e282 cc3e
000001c0: 6b96 bb3d 799a a3be 39bf 703e a994 2f3d
000001d0: 8851 ae3e 9019 db3d ce41 07be fe37 05bd
000001e0: ba5c 2d3e fa96 053e 1335 323e 1e33 64be
000001f0: c36a 883d 305b 9cbe fd93 813d 4117 d53b
0.12295298 -0.14925747 0.13789454 0.18781148 0.031208921 -0.16690385 0.07356319 0.23287053
0.13390459 0.24604733 -0.25128588 -0.27940148 -0.20958275 0.25008896 -0.2019959 -0.12271728
0.10854435 0.021193366 -0.002994311 -0.020150065 0.13776052 -0.06731257 0.053578578 -0.21778095
0.22672497 0.21964782 -0.082274996 -0.07198686 0.064128146 0.2297686 -0.17869957 0.24342564
0.22186218 0.058029853 0.29700783 0.08052179 0.061912645 -0.019982377 0.18752818 0.09539529
0.30084506 -0.040507838 0.25856903 -0.16898915 0.32868716 0.39048323 0.010721698 0.16486977
-0.0181298 0.23163435 -0.23128188 0.31772208 0.040092748 0.030926038 0.16011605 -0.32539415
-0.25438982 0.102667004 0.08933963 -0.06573809 -0.22682196 -0.28298235 -0.3035826 0.23738405
0.32489184 -0.25021964 0.10896 -0.3157826 0.14170349 0.2552788 0.0017749306 0.30279544
0.16564208 -0.027118724 0.33920395 -0.23269396 -0.19280729 0.25833663 0.14466192 0.30801177
0.035499904 0.34669065 0.013715075 -0.08988874 -0.283911 0.25595668 -0.24315813 -0.06742504
0.19659364 -0.09621811 -0.031180065 0.22448808 -0.2585282 -0.083423965 0.29278752 -0.24027912
-0.22234957 0.14105667 -0.119126245 -0.21969147 -0.02860519 0.087096654 0.11031572 0.058456242
0.24634688 -0.08927728 0.15167484 0.20131645 0.13810112 -0.17433926 -0.07729931 0.39943606
0.09159549 -0.3195379 0.23510446 0.042866383 0.34046578 0.10698235 -0.13208696 -0.0325241
0.16929904 0.13045874 0.17403059 -0.22285125 0.06660988 -0.3053832 0.06327055 0.006503016

network.2.weight f4 [256, 128]
00000000: c12d b53d 7ad1 f9bd f6d2 57bd ebc7 943d
00000010: e180 e23c 3864 8f3d ae25 4c3c 3f1f c93d
00000020: 15fc bd3d 62d9 3f3d 66f2 873d d9cb b53c
00000030: a158 c83d 88f7 cf3d 811e a7bd 30bb 9dbc
00000040: 2503 fdbd 2cfb 72bc 2e7c c63d cd07 a8bd
00000050: 5d82 123d 0d90 403d 4e33 8bbd ca93 2cbd
00000060: 6552 0dbe b374 3fbd a61b 6ebc 48da 8c3c
00000070: f364 ba3d d71d c03d d3f3 d43b 9c5b 863c
00000080: b406 163d 43d0 75bd 081f aa3c 916a 213d
00000090: 0bc3 23bd adb7 07bd a2d8 dcbd 6f65 973d
000000a0: 91c6 67bd 1aae 84bd 107a d23d dd29 17bc
000000b0: d0f1 633d 295c 523e 484e dd3c b0c8 e8bd
000000c0: 549b d3bb 9084 3e3c 6182 ac3d 8713 d0bc
000000d0: 07f7 6abd bb09 883d 55f9 263e 29a5 ab3c
000000e0: 932a 7abb 35e6 613d b63c 17bc 16f4 06be
000000f0: dfe2 313b 4c5e 673d 480c 63bc 7fc0 de3c
00000100: bf32 d93d 49de 88bd a0e5 d93d 6d46 a83c
00000110: 49f1 10bd 2090 d8bd a253 873c eb53 ccbd
00000120: a9e4 a33c 3224 bd3c 8ecb 153e 64e2 1e3d
00000130: 8e25 113d cc80 14bd 8bb2 ca3c 935f 4a3c
00000140: d706 713c 9969 5a3d e907 6abc 6f2c cc3c
00000150: 0800 0fbe ee57 13bd 2d3f 0dbd 7f3a 4bbd
00000160: fb1e b8bd cf3d 783c a666 783d 5ba8 bfbd
00000170: 8665 8d3c 5c00 48bd 64bb b63d 434d 153d
00000180: aa2b 403d 7b18 00be b506 8fbd a067 b7bc
00000190: 6920 053e 0d51 cabc bd50 3d3c 182e f13d
000001a0: 643e 64bd 965e 283d c22c b3bb 6c8e 133d
000001b0: 97f3 373d a024 203e 93dd 603d fd88 01be
000001c0: d1cb 42be 74a9 2f3d 0e17 5a3d 935a a2bd
000001d0: e2e5 c53d 4ec0 6f3d 27d9 debd 8f80 c2bd
000001e0: 8a71 8d3d 951c cfbc e4bb cd3d d6c3 09bd
000001f0: ba40 9cbb 42b0 a63d 9869 bb3c 9146 d83c
00000200: 89d9 01bd 08cc f6bc 76a9 ce3d dca1 a33b
00000210: 352c 97bd f021 75bd 09f8 5b3c 6485 d73d
00000220: dd7e d2bd fe12 94bd f56e 713d fd3e b2bd
00000230: 75f0 833d b7d7 e4bc ce98 5e3d 016a b03d
00000240: d5aa 593d 6096 6bbc 3cf1 f1bc ff8f 76bd
00000250: 5d5d f8bb 123e 563d e827 ecbc b13e 96bd
00000260: 49d5 1a39 32c9 8a3d b95c 79bd a357 a9bd
00000270: 8c50 0cbd 01bc 423d d9ca a73b 8a28 ee3c
00000280: 3d0a 14bd b0a8 1a3d be86 4cbd 6393 0e3d
00000290: 50e1 8dbd 670d 6abb b3e4 7a3d 4510 88bd
000002a0: 2ecd f23d 06c4 f3bc 0156 693c dd1e 713d
000002b0: 6d9b 173d 9fc3 133d 7f69 a43d 0f67 143d
000002c0: e63c 9c3c bed5 36bc f625 393d 5d32 45bc
000002d0: 49fb 68bc 4cbb 883d 6561 c03b cb4f 243c
000002e0: 980b f3bc db1d 7cbd 4094 6fbd bf25 a33d
000002f0: 0a83 6b3d 2dfa f5bb dd55 83bd 8e74 c13c
00000300: 0559 5ebd 310c d8bc 4db6 9e3d dbea 66bd
00000310: 426d a1bd ddaf 15bd b7b8 9fbd 5708 80bc
00000320: 313b 703b f102 2c3d 4bee a63d 92f3 d6bd
00000330: 2077 353d f612 483c c0d1 3b3d 1d58 bebd
00000340: bc4d bf3c 0560 5e3d 7ff5 ee3b a46a 8ebd
00000350: 5580 bc3d 18e2 563c 9dc9 a13c aba3 953d
00000360: be8a a73d 6c6f 92bd e0cd df3c 3571 58bd
00000370: deed d83c 08b7 28bd 4af3 e33c c0c0 c3bc
00000380: 5277 4bbb 8605 8d3b 4703 ab3d ae93 8e3b
00000390: 6bfc afbc d0f1 82ba 20f7 833c 81ba 19bd
000003a0: 2995 3e3d e952 113d f420 93bd a215 4bbd
000003b0: 96a8 b13c 8e28 2e3d 5260 9b3d a14d 89bd
000003c0: 760e 42bd 4db7 673d 0d4a e9bb 38da 4e3b
000003d0: f823 9e3d c58a b4bb a0a7 babc 0ba8 523d
000003e0: a905 8e3d f01d af3d 868b f63d 3726 993d
000003f0: 48ec 9b3d afa1 a03d 47f9 b63d 3b71 81bd
0.088466175 -0.121981576 -0.052691422 0.07264694 0.027649345 0.07001537 0.012460155 0.09820413
0.092765965 0.04683817 0.06638031 0.022191929 0.097825296 0.10154635 -0.08160115 -0.019254297
-0.123541154 -0.014830392 0.09691654 -0.08204613 0.035768855 0.047012378 -0.06796895 -0.04213313
-0.13800962 -0.046742152 -0.014532959 0.017193928 0.09101286 0.093806915 0.0064987927 0.016401105
0.036627486 -0.060013067 0.02076675 0.03940827 -0.03998093 -0.03313415 -0.10783507 0.07392394
-0.056585852 -0.0647852 0.10277188 -0.00922629 0.055650532 0.20542969 0.027014866 -0.11366403
-0.0064577255 0.011628285 0.08423305 -0.025399936 -0.05736449 0.06642481 0.1630605 0.020952778
-0.003817235 0.055151183 -0.009230783 -0.13179049 0.0027143282 0.056486413 -0.013857909 0.027191399
0.10605382 -0.066830225 0.106395006 0.020541394 -0.035386357 -0.10574365 0.016519371 -0.099769436
0.020006495 0.023088548 0.14628431 0.03879012 0.035436206 -0.036255643 0.024743339 0.012351888
0.014711103 0.053323362 -0.0142841125 0.024923531 -0.13964856 -0.03597253 -0.034484077 -0.049616333
-0.08990284 0.015151455 0.06064477 -0.09358283 0.017260324 -0.048828468 0.08922461 0.036450636
0.04691664 -0.12509339 -0.06983701 -0.02238828 0.13000645 -0.024696851 0.011554894 0.1177637
-0.055723563 0.04110583 -0.005467982 0.036024496 0.04491004 0.15638971 0.05489881 -0.12649913
-0.19023062 0.042886212 0.053244643 -0.07927432 0.09662987 0.058533005 -0.10881262 -0.09497177
0.069064215 -0.025282184 0.10045603 -0.03363403 -0.004768458 0.08139087 0.0228775 0.026400836
-0.0317016 -0.030126587 0.10090916 0.0049936604 -0.07381479 -0.05984682 0.013425835 0.10523489
-0.102781035 -0.07230185 0.058943707 -0.0870342 0.06442348 -0.027934892 0.054344945 0.08613969
0.053141434 -0.014379114 -0.029533975 -0.06019592 -0.007579489 0.05230529 -0.028827623 -0.07336176
0.0001476604 0.06776656 -0.060879443 -0.082686685 -0.034256503 0.047542576 0.005120617 0.029072065
-0.036142576 0.03775853 -0.049933188 0.034808528 -0.069277406 -0.0035713555 0.06125326 -0.06643728
0.11855541 -0.029756557 0.014241696 0.058867324 0.03701346 0.03607523 0.08027934 0.036231097
0.019072007 -0.011159359 0.045202218 -0.012035933 -0.014220067 0.06676349 0.0058709853 0.01002879
-0.029668614 -0.06155191 -0.05849099 0.07966184 0.057498015 -0.00750663 -0.064128615 0.023615148
-0.054284114 -0.026373 0.07749615 -0.05637632 -0.078821674 -0.03654467 -0.077989034 -0.015628977
0.0036656375 0.041994993 0.081509195 -0.10495676 0.04430306 0.012211552 0.04585433 -0.0929415
0.023352496 0.05429079 0.007292449 -0.06953934 0.09204165 0.013115428 0.019749457 0.07306608
0.0818076 -0.07150158 0.027319849 -0.052842338 0.026480611 -0.041190177 0.02782597 -0.023895621
-0.0031046462 0.004303637 0.083502345 0.004351101 -0.021482667 -0.0009990279 0.01610905 -0.03753138
0.04652897 0.03547946 -0.0718402 -0.049581178 0.021686833 0.042519145 0.07586731 -0.0670426
-0.047377072 0.056571294 -0.0071194232 0.0031563174 0.07721704 -0.0055097067 -0.022785008 0.05142979
0.06934673 0.08550632 0.12038331 0.07477992 0.076134264 0.07843339 0.08934265 -0.06320425

network.2.bias f4 [256]
00000000: 2276 2e3d 99c1 ce3c 8afd 7a3d 3daa a7bd
00000010: 2c52 853d f349 893d e1f5 f0ba f956 763d
00000020: bb53 d03d d43d c43d 67a3 e4bc ff79 a93c
00000030: 0f18 0cbd 4056 663d 5c81 86bd 8ae2 ff3c
00000040: 5817 40bd c809 8b3c 86e2 af3d 2f4f 943d
00000050: efd1 54bd 22fb 93bd ec72 1d3d d549 9e3d
00000060: a216 61ba 7e92 8cbd 3d8f 9e3d d448 aab9
00000070: 18cf ab3d 6059 203c 1054 afbd c678 c63d
00000080: 737b 383d 53da 90bd 4458 183d 2e64 92bd
00000090: a3e3 09bc 7a5e acbc 561d 193d a1e1 babc
000000a0: c631 4abd 6b13 7f3d 8b6a c3bd cf71 7f3d
000000b0: f959 173d 906b d63d e212 d13d f8f7 343d
000000c0: ed8c 973d b910 2b3d 94e0 753d fdd0 87bd
000000d0: 9112 b83d 3292 3abc 251a 663d 6b87 293d
000000e0: 963a 18bd 2dc7 18bd 20b2 0ebd 6273 6cbd
000000f0: eccc 9f3d d15b 983d 8d20 c1bc ad13 113d
00000100: 3b2a 5d3c 15d9 9a3b 3eb5 3b3c 31e2 a83c
00000110: a970 c8bc eb49 853b 5efe fc3b 1d54 ab3d
00000120: 8645 cfbc 58bb a43d f089 c03d deb9 393d
00000130: dd15 b2ba dacc 173d 63ec f3bc 946d 5b3d
00000140: 5362 3ebc 7d80 dd3c dc16 65bd d3cd d3bc
00000150: 38ae 2d3d ee0f 02bc 8132 30bd d6d6 a73d
00000160: 0051 9d3d eadb fdbc 54cc 1c3d 4ff6 123d
00000170: b165 913d e4ef 95bc bcd4 c43c 4057 8e3d
00000180: f2a1 0e3b d9ab 7c3d b904 9fbc 8d15 b83d
00000190: 3fbb 403d 356e 6a3d 058e 9d3d 8ea0 33bd
000001a0: 0c98 3bbd 0090 23bd dee9 ab3d ba91 d03c
000001b0: 47ee bd3d c303 1dbd 4c82 9d3d cebe 8ebd
000001c0: 3768 be3d 6e3c 8abd 7bdb 2abd 077f 0abd
000001d0: 7f96 a63c 7c7c 5c3d db5a b4bc 44bd 8fbd
000001e0: f076 bd3d ca71 be3b a83a cf3d 1c8a 55bd
000001f0: 69c7 f93c 950e 7dbb 3683 103d d422 793d
00000200: 415d b639 0708 dc3d 0a3e 5c3d ddb0 27bc
00000210: 463a 563d 5ad6 bc3d 669f a23d 114f b73a
00000220: 5b17 9d3c ea05 c53b ab81 9abd 8862 783d
00000230: b30a 85bc 1a70 ac3c 05d1 93bd 893c 633b
00000240: 4510 8d3d 8add 1e3c d69a 15bd 061c 6cbd
00000250: cd65 a03d 1d5a 28bd 7eab 05bd 2138 30bd
00000260: b9f4 d83d fb40 20bb bd3f 72bc b18b 913d
00000270: 2110 383d e8a4 883d c41d 583d 4d7c 9b3d
00000280: 131a 89bd 4b7f 31bd e53e 79bd 16e1 d93d
00000290: 0186 46bd 23a8 90bd 35d7 80bd 46b5 28bd
000002a0: e146 c0bd 0e86 4f3d ce57 b53d f894 a13d
000002b0: 3263 5fbd 15c4 083d bebc bb3d a844 2ebd
000002c0: 2cdc 2b3b cf80 493d 6b40 6ebb 6940 853c
000002d0: e5c0 e8bc bb24 d4bc cd91 85bd 6c07 77bd
000002e0: c35f 31bd 03a9 023d 1814 923c abb4 9ebd
000002f0: 5daa 83bd 5c55 3ebd 46eb aebd e73a d1bc
00000300: 3272 39bd 8f2a 073d dd42 d73c da9d 95bd
00000310: 9526 f4bc 5359 6fbd a17c bbbd 8719 3c3d
00000320: 8065 823d 132b 8ebd b10b 4e3c 17f2 353d
00000330: a9dc 89bd e21f aabc aa51 c03d 676c 893d
00000340: 5593 a8bc 71f9 c2bc 494d b2bb 4364 a83d
00000350: 7bc6 aa3c 042f 953d 5337 e43c 1513 443c
00000360: a399 a1bc e2f1 1e3d 41d4 123d 7672 cf3d
00000370: fc69 de3d 4ab9 af3c 963b 6ebd f910 90bd
00000380: 91a8 9ebd 0815 103c 64fa 113d 296e 863c
00000390: 2acd 70bd 548f 8f3d 9e9d d33d a949 b03d
000003a0: f474 c73c 9ff8 a13b b511 5ebc 000b 5b3d
000003b0: 3e8f 7fbd 9ee4 af3c 0978 d83d 4a75 1ebd
000003c0: de47 3dbd 1c7e 793d 317d 213d c4ee ab3d
000003d0: eb9d a83d d170 a4bd 71be 8dbd e9e3 52bd
000003e0: 5710 b83c 47bf 15bd 9ea7 ab3d 343a 5e3d
000003f0: e0c6 433d cd83 0d3d 1d5d dbbc 75b0 853c
0.04259313 0.025238799 0.06127695 -0.08186767 0.06509814 0.06703558 -0.0018383824 0.060141537
0.1017222 0.09582105 -0.027909948 0.020688055 -0.03420263 0.0562346 -0.06567642 0.031235952
-0.046897262 0.016972438 0.08588128 0.072416656 -0.05195802 -0.07225634 0.038439676 0.07728926
-0.00085864414 -0.06863879 0.07742164 -0.00032479188 0.083891094 0.009786934 -0.085609555 0.096910045
0.045039605 -0.07072892 0.03719355 -0.07148014 -0.008416089 -0.021041144 0.037381493 -0.022812666
-0.049363874 0.062274378 -0.09541806 0.062364396 0.03695104 0.10469735 0.1020868 0.044181794
0.07399926 0.041763995 0.060028628 -0.06631658 0.08987916 -0.011387395 0.056177277 0.04138891
-0.037165247 -0.037299324 -0.034837842 -0.057727225 0.078027576 0.074393876 -0.023575092 0.035419155
0.013498838 0.004725585 0.011456786 0.020615669 -0.024467783 0.0040676496 0.0077207526 0.08365653
-0.025301706 0.080435455 0.094013095 0.045343272 -0.0013586838 0.037060596 -0.029775804 0.0535713
-0.011620122 0.027038807 -0.055930004 -0.02585498 0.042402476 -0.007938368 -0.043016914 0.081952736
0.07681465 -0.030988652 0.0382808 0.03587943 0.07099474 -0.018302865 0.02402722 0.06950235
0.0021764007 0.061687324 -0.019411432 0.089884855 0.04705357 0.057234008 0.07693104 -0.04385429
-0.0457993 -0.03993225 0.08394216 0.025460113 0.092739634 -0.038333666 0.07690868 -0.06969987
0.09297221 -0.06749807 -0.04171322 -0.03381255 0.020335434 0.053829655 -0.02201598 -0.070185214
0.09251201 0.0058119046 0.1011861 -0.052133664 0.030490594 -0.0038613428 0.035281383 0.06082423
0.00034783225 0.107437186 0.053770103 -0.010235039 0.052301668 0.09220572 0.07940559 0.0013985356
0.019176176 0.006012668 -0.075442635 0.06064084 -0.016240453 0.021049548 -0.07217602 0.0034673533
0.06887869 0.009696374 -0.036524616 -0.057643913 0.07831917 -0.041101564 -0.03263425 -0.04302228
0.10593552 -0.0024452794 -0.014785704 0.07106722 0.044937257 0.06672078 0.05276276 0.07592068
-0.066944264 -0.043334287 -0.060850997 0.10638635 -0.04846764 -0.070633195 -0.062910475 -0.0411885
-0.09388519 0.050664954 0.08854638 0.07889742 -0.05453796 0.033390123 0.09166859 -0.042545944
0.0026223762 0.049195107 -0.0036354314 0.016266065 -0.028412292 -0.02589642 -0.0652195 -0.060309812
-0.043304216 0.031899463 0.017831847 -0.077493034 -0.064289786 -0.046468124 -0.085409686 -0.025540782
-0.04527492 0.03299957 0.026277 -0.073054984 -0.029803554 -0.058434796 -0.091546305 0.045922782
0.06367016 -0.069418095 0.01257603 0.044420328 -0.06731541 -0.020767156 0.09390576 0.06710129
-0.020578066 -0.023800584 -0.005441342 0.082222484 0.020846596 0.07284358 0.027858412 0.01196744
-0.01972658 0.038804896 0.035846952 0.101292536 0.10860059 0.021450657 -0.058162294 -0.07034487
-0.07746995 0.008794077 0.03563918 0.01640995 -0.05878941 0.070097595 0.103327975 0.086077996
0.02434776 0.004942968 -0.013554026 0.053477287 -0.062392466 0.021471318 0.1056977 -0.038686074
-0.046211116 0.060911283 0.039426032 0.0839515 0.082332455 -0.080293305 -0.069210894 -0.051486883
0.022468729 -0.03655937 0.0838158 0.054254726 0.047797084 0.034549523 -0.026777798 0.016319493

network.4.weight f4 [9, 256]
00000000: 9138 1b3b 374c 6c3d 8ea7 923d 1e80 4d3d
00000010: 221a 7c3c 5c0b ab3c 25c6 05be f5ee f43d
00000020: d0c6 4fbd 1a44 0f3d 3048 6b3d 8b75 febd
00000030: a623 173d 89ec e23d f8ad 0e3d 44b4 413d
00000040: 7052 19bd f308 6bbc 7cee b43d ea85 393d
00000050: a147 23bd f556 5b3c f0f5 81bd fe17 10be
00000060: 832a 89bb 6f02 073d 3191 1bbe 9aba c23d
00000070: df63 a13d ac2a 293d f81b 0c3d 758e 523d
00000080: a4a4 733d 7125 333d 20a8 973b f412 f6bc
00000090: 41b4 163d e1a9 9f3d 4977 273c 8fe7 1f3c
000000a0: ce7f 243d 9b7d 41bc 7d84 ab3a c04c bd3d
000000b0: e10f 59bd 9929 2a3d 4da9 82bd aedf 0fbe
000000c0: 3c10 8bbd c368 babd d091 d2bc 90df a43d
000000d0: 9f58 44bd 84da c63d 30ac 763b bd00 51bc
000000e0: 404e a23b 5fee 36bc a928 203c 0e0d 8fbb
000000f0: 0058 f43d e06d c43c 8e54 4ebd 02db 9b3d
00000100: 025c 7ebd 9fd4 9b3d e639 0cbe 2be1 e63c
00000110: 919c a73d 5aba 463d 337f 47bd d33d f1bc
00000120: f8b9 f6bd 0c61 643c 9306 b63d fb10 a53d
00000130: a25a 8c3d 0024 2539 8773 b83d dae5 09bc
00000140: f983 853d 719e b53d 4bcb 203d a8f4 fdbc
00000150: a54b 0d3d f333 763d d00a 8f3d 2ebb c4bd
00000160: 4a0d 9abd a998 dcbd b178 d23d 15fe 893c
00000170: 7de8 ea3c 3e40 7dbb 254e c13d 66db 953d
00000180: 552f 0139 0742 a23d dac8 933d 535b e0bc
00000190: e705 c43b 5886 823c 4970 b53d 57ba 673c
000001a0: 5c2c 823d 7fe2 013e 34f0 a53c dff8 bbbb
000001b0: 74b9 133b 3675 5dbd 6551 483d d9e0 2dbd
000001c0: 2137 853d 91f7 06bd 23d7 333d 6e57 223d
000001d0: 7754 9fbd 3fac 233d a2df 313d 8dd7 053d
000001e0: d021 963d 81aa 643c 6276 c33d 6cc4 b53c
000001f0: 6884 84bd e5a4 f03d ba9b a23d 9f14 ab3b
00000200: 5b45 c23c cc81 65bd 58c2 08be 9ca1 793d
00000210: 3c1e 15bd f9e7 abbd 647f 023c 8bc0 673d
00000220: 83d4 11bd d940 23bd 02fc b2bd 4665 c0bc
00000230: d352 583d 8e39 123d 672b 583d 35ab 04bd
00000240: 99d0 9cbd b988 913c 6929 0bbc cb2a 77bd
00000250: da3d e7bd bf33 21be 8ff0 19bd 7099 da3c
00000260: 86d7 833d cf0a d1bc 6817 56bc 43bc 97bd
00000270: 2f2f 0fbd c0c6 8b3c d81d d0bd 80bd 82bc
00000280: 7f28 b7bc a172 09bb 34bc 6bbd b735 d43d
00000290: 89e1 383c 3001 d73b 852e a4bc 2c37 48bd
000002a0: 6456 2cbc 58a4 2e3c d98f b03d d463 9c3c
000002b0: 00f2 0db9 69ec cbbc a04d 963d 1a16 8d3d
000002c0: 416d 04be ceec eebc 2e25 933d c8fe f1bd
000002d0: fca1 71bb e0e4 68bc de26 963d 9c8c 37bd
000002e0: e8a0 8abd b74f c2bd e224 743d 952b 5dbd
000002f0: b423 3f3c 867a 1e3d 01ce babc 58c4 32bd
00000300: cb09 adbd 112f 4abc b48a a8bd 4029 3a3c
00000310: cecd 12bd 57d3 e4bc 0e26 823b 14fb 683d
00000320: 1fb3 40bd c81c 8bbd 0000 10ba 12d1 7b3d
00000330: 9c0a 1abd 60c3 843d d081 243d a66e 1dbd
00000340: e6b1 efbd f9d9 093d 81b1 1e3d 1c90 a1bd
00000350: d7f0 ecbd 4c76 263c 65e7 5dbd 516a 60bc
00000360: ccf7 2abd a0b5 dd3c 2fcd cabd 903c 8a3d
00000370: d0bc f73d e6cb 713b 6589 e53d 8ddd 46bd
00000380: dc0b d83c 2f3b e73b 1d23 ce3c ee5a da3c
00000390: 0d21 e13d f1e8 dabb e45e f03d c13d 1c3d
000003a0: f231 ba3d 1f1c 16bc e588 5bbd 61b2 ab3d
000003b0: a8b7 8d3c 94c3 ac3d aa46 cb3b db42 0fbd
000003c0: 11b4 bb3d 852d 3abd d346 0ebd 9d1b 4f3d
000003d0: 1242 e93d a278 03bc 3997 f7bd cca6 b23d
000003e0: 10ed cb3d 6a80 73bd 45d0 963d 1629 363d
000003f0: 1c16 84bc 5a46 7c3d 3620 d43d 8678 b33d
0.002368484 0.05768987 0.07160865 0.05017101 0.01538709 0.02087944 -0.13063867 0.1195964
-0.05072671 0.034977056 0.05744189 -0.12424763 0.03689923 0.11080272 0.03483388 0.047291055
-0.037432134 -0.014345395 0.0883455 0.045293726 -0.039863233 0.013387431 -0.06345737 -0.14071652
-0.004185976 0.032961305 -0.15192105 0.09508248 0.07880377 0.04130046 0.03420636 0.05140539
0.059483185 0.04373688 0.0046281964 -0.030038334 0.036792997 0.07796074 0.010221311 0.009759798
0.040160947 -0.011809732 0.0013085749 0.092431545 -0.05299366 0.041543577 -0.06379948 -0.14050171
-0.06790206 -0.09102013 -0.025704294 0.08050454 -0.04793608 0.09709647 0.0037639253 -0.012756524
0.004953176 -0.011165231 0.009775319 -0.00436557 0.11930847 0.023978174 -0.050373606 0.07610132
-0.062099464 0.07608914 -0.13693962 0.02818354 0.081841595 0.048517562 -0.04870529 -0.029448425
-0.120471895 0.013939153 0.08887973 0.080598794 0.06853224 0.00015749037 0.0900641 -0.008416617
0.065193124 0.08868111 0.039256375 -0.03100045 0.03449597 0.060108136 0.06984484 -0.09606014
-0.07522066 -0.10771305 0.10276926 0.016844789 0.028675312 -0.0038643028 0.09438733 0.073172376
0.00012320031 0.0792275 0.07216044 -0.027387297 0.005982149 0.0159332 0.08859307 0.014143548
0.06356117 0.12684058 0.02025614 -0.005736455 0.0022540959 -0.05406686 0.04890575 -0.04245076
0.06504656 -0.03295094 0.043906342 0.03963416 -0.07779782 0.03995919 0.043426163 0.03267627
0.07330668 0.013956667 0.09544064 0.022188388 -0.06470567 0.11750201 0.07939859 0.005220964
0.023714712 -0.056031987 -0.13355386 0.06094514 -0.036405787 -0.08393855 0.007964943 0.056580108
-0.035603058 -0.039856765 -0.08739473 -0.023485791 0.052813362 0.03569942 0.052775767 -0.03238984
-0.07656974 0.01776539 -0.00849376 -0.060343545 -0.11291094 -0.15742396 -0.03758293 0.026684493
0.06437592 -0.02551785 -0.013067104 -0.07408955 -0.034957107 0.017062545 -0.10161942 -0.015959501
-0.022358177 -0.0020972865 -0.05755253 0.10361808 0.0112842405 0.006561421 -0.020041713 -0.04888074
-0.010518644 0.0106593 0.08621187 0.01909057 -0.0001353696 -0.024893003 0.073390245 0.06888981
-0.12932302 -0.029165652 0.07184826 -0.11816174 -0.0036870232 -0.014214724 0.07331632 -0.04481183
-0.06768972 -0.09487861 0.059605487 -0.05399664 0.011666227 0.038691066 -0.022803308 -0.04364428
-0.084491335 -0.012340323 -0.082295805 0.011362374 -0.035840802 -0.027932806 0.0039718216 0.05688007
-0.047045823 -0.06792599 -0.0005493164 0.06147868 -0.037607774 0.06482577 0.04016286 -0.0384356
-0.11703853 0.03365514 0.0387435 -0.07888815 -0.11569374 0.01016004 -0.054175753 -0.013697223
-0.041740224 0.027064145 -0.09902417 0.06749833 0.1209656 0.0036895215 0.112078466 -0.04855113
0.026372842 0.007056616 0.025163228 0.026654687 0.10992632 -0.006680601 0.11736849 0.03814483
0.090915576 -0.009161978 -0.05359735 0.083836325 0.017299488 0.08435741 0.006203492 -0.034975868
0.09165204 -0.045453567 -0.034735512 0.050563443 0.11389555 -0.008024367 -0.1208939 0.0872322
0.099573255 -0.059448637 0.07363943 0.044472776 -0.016123824 0.06159053 0.10357706 0.087632224

network.4.bias f4 [9]
00000000: dad7 0c3c d3e5 0c3c 4583 18bb 8803 813d
00000010: 0172 8fbc 3d6c 2c3d fe88 47bc 9344 d73c
00000020: 2f2f 6ebd
0.008596385 0.008599716 -0.0023271602 0.06299502 -0.017510416 0.04209541 -0.012178658 0.026277816
-0.058150467
