models/actor_final1.pth (torch, 148423 bytes, 6 tensors)

network.0.weight f4 [128, 9]
00000000: 3e8b 993e 1b2f e53d ecac 023e f2ab 733e
00000010: 68a1 13be 8a05 2cbe ea23 d2be 7ce1 7fbe
00000020: e583 8d3e 5e61 55bc ff2e 9c3e 2e34 21bc
00000030: 6004 7bbe af23 1b3e 5374 543e a878 ab3e
00000040: 806c f5bc 9567 87be f4da 2abe d985 7cba
00000050: 7af9 9e3e 1c44 91bd b688 f7bc 8b37 94bd
00000060: 74f9 473e 5c11 f9bb 4578 93be 116e 5dbe
00000070: 3fd0 66be ab5f 5abd 8483 1dbe 1799 223e
00000080: 878d 96be d1f7 773e 69cc 0b3e cb86 d43e
00000090: 9ed9 4b3e 86ca 843e 41f2 733e e925 1ebc
000000a0: 880a fa3d 3805 4d3e a6eb d03c f310 4cbe
000000b0: e0d1 a4be 5c05 8a3e 65da ddbc db22 f0bd
000000c0: e65f bc3e 8c49 2c3c 2ea1 4b3c c7b9 cbbd
000000d0: 27d8 423e f864 fa3c 80fc 49bd b046 d43d
000000e0: c573 503e 01cd 4dbe cf45 0fbd 076d 49be
000000f0: 149c c43e afa6 a93e 767e a4be 4785 45bd
00000100: 6eb1 873e 8bee f93d 09aa 973e fd36 9fbd
00000110: 85d8 573e e157 dc3d 1410 863e 77cf 82be
00000120: cfc7 223e 3f0b 91be 43fe 37be d47b 833d
00000130: 0171 97be 2c39 81bd e3f6 ca3d a471 46be
00000140: c077 c6bd 124d 9fbd 14bd 75be b52f ad3e
00000150: 378f 483d a764 9abe 9deb ad3e c774 833d
00000160: fbf3 26be 7bc1 59bd cd45 0f3e 8ca5 303e
00000170: fc8b 023e 1986 9bbe 216b 8e3e 763e 89bd
00000180: 6365 95bd 5d87 7abe 6ce1 3cbc 86de 143e
00000190: c69e f63d e3dd dd3d dd6a d33d 9c67 003d
000001a0: b0e0 fabd cee3 203c 6890 9ebe 35bd 133e
000001b0: 0aa6 2cbd 2ed2 a93e ff03 a53e 02dd 4b3e
000001c0: d0cd 74bd 6616 8cbe 8534 473e 61ab 4d3e
000001d0: 21f8 7cbe 23be 8dbe 1289 d3bd 64ed b63e
000001e0: 96ce a43e 3c46 263e d485 ecbd cd0d 98be
000001f0: c9e0 81be e64c bcbd 2435 86be e090 263e
00000200: 90d9 08be c2a1 653e ffa2 ecbd 06d3 cc3e
00000210: c742 003e 9fec 2d3e 3ba2 a03e c2be 7e3d
00000220: 6184 e2bc 1181 0fbd 50ae 9fbe edf6 c33e
00000230: 00d0 3ebe 4c6f bfbc bca0 6c3e 57a0 8e3e
00000240: e91d 1e3d 0528 6c3e 35c5 8fbe 48ec cbbe
00000250: d6f0 3fbd e168 143b 03ad e53d 07d0 7b3e
00000260: 9404 8e3d 154c 96bd 286a 5f3e 498d 953b
00000270: d798 a53e 8586 a0be 60ea 283e 4f45 eb3d
00000280: d701 85be 40d0 bcbe 550b 4cbe e4c1 f13c
00000290: 774b 98bd eb14 633e 87ed c5bd ee03 10bd
000002a0: c10e 9f3e 085a 7ebe b227 2bbb 4336 0dbe
000002b0: 3006 53be d659 cfbd 76d6 22be 1351 1d3e
000002c0: 5a0c 953e 8b8b 01bd 436c 7ebe 3e03 99be
000002d0: b271 953e 456b f03d 88f8 c3bd 1439 40be
000002e0: e96b 62be 180d 10be 8bbe 0fbe 2f91 0abe
000002f0: 3f55 b93e 107d 36be e3f5 333e 3424 903e
00000300: 5357 3d3e 6cb7 483e 32e7 28be 9c47 8b3e
00000310: 3a80 98be fef5 b5be 5a24 8dbd 2788 5abe
00000320: 591b 8cbe 92f1 123e 8722 81be 888f 4a3e
00000330: 26bb c6bd d6ea 25bd 404b e13d 483a 66be
00000340: abbc d8bd 04d1 93be 03ec 40be 6ef0 09be
00000350: a615 87bd 60be 603d 8a06 9cbe 1e92 013e
00000360: afc1 413e 33c2 55bd cd7f dfba e3fe aabe
00000370: 2953 5c3e c8e0 8d3e fc8f fbbd c42c 60bd
00000380: 6ff6 bebe aa1a 6d3e 7578 483e 12a2 69be
00000390: 06a0 cfbc 5c17 c13e 1bc6 f7bc cba1 733d
000003a0: 50eb 8bbe 3c07 eebd 4914 0d3e dcc8 f2bd
000003b0: dfbd 743e 67ad a3be 344b 5a3e 3efb 15be
000003c0: e309 0cbe cd49 fd3d d78a 93be 0cd8 4c3e
000003d0: 9593 d4bb 5e8f b13e 11a2 80be bfc0 333e
000003e0: 87db 923e 9fbb 31be de2a 3bbe 6002 81be
000003f0: 8158 813e fe6c 953e d935 d53d 91d1 6c3e
0.29989046 0.11190625 0.12761277 0.2379606 -0.1441704 -0.16798988 -0.41043025 -0.24988359
0.2763969 -0.013023702 0.30504605 -0.009839101 -0.24513388 0.15150331 0.20747499 0.3349049
-0.029958963 -0.26446214 -0.16685086 -0.0009632982 0.3104971 -0.07093069 -0.030216556 -0.072371565
0.19528753 -0.0076009464 -0.28802696 -0.21624018 -0.22540377 -0.053313892 -0.153822 0.15878712
-0.29404852 0.24215628 0.13652195 0.4150909 0.19907233 0.25935763 0.23822881 -0.009652593
0.1220904 0.20021522 0.02550299 -0.1992834 -0.32191372 0.26957214 -0.027081678 -0.11725398
0.36791915 0.010515582 0.012428565 -0.099475436 0.19027768 0.030565724 -0.04931307 0.10365045
0.20356663 -0.20097734 -0.034978684 -0.19670497 0.38400328 0.33134982 -0.32127732 -0.048222806
0.26502556 0.122037016 0.29621914 -0.0777416 0.2107869 0.10758949 0.26184142 -0.25548908
0.15896533 -0.28328893 -0.17968087 0.06420103 -0.29578403 -0.06309733 0.09910371 -0.19379288
-0.09690809 -0.07778372 -0.23997909 0.3382546 0.048964705 -0.30154917 0.3396882 0.06418758
-0.16304009 -0.053163033 0.1399147 0.17250651 0.12748712 -0.30375746 0.27816108 -0.067013666
-0.072947286 -0.244657 -0.011528354 0.14538011 0.120420024 0.10833337 0.10323117 0.03134881
-0.12249887 0.009819938 -0.30969548 0.14427646 -0.042150535 0.33168167 0.3222961 0.19908527
-0.05976659 -0.2736084 0.19453628 0.20084907 -0.24704029 -0.27684125 -0.103288785 0.3572799
0.32188863 0.1623773 -0.11548963 -0.2969803 -0.2536681 -0.09194355 -0.26212418 0.16266203
-0.13364244 0.22424987 -0.115545265 0.40004748 0.12525474 0.16984795 0.31373772 0.06219364
-0.027651014 -0.035035197 -0.31187677 0.38274327 -0.18634033 -0.0233685 0.2310819 0.27856705
0.038602743 0.23062141 -0.28080145 -0.39828706 -0.04686054 0.002264552 0.1121464 0.24591075
0.06934467 -0.0733873 0.21817839 0.0045639616 0.3234317 -0.3135263 0.16495657 0.11487829
-0.25977966 -0.36877632 -0.19926198 0.0295114 -0.07436269 0.22175948 -0.09664445 -0.035159998
0.31065944 -0.24839032 -0.002611619 -0.1379023 -0.20607829 -0.10124557 -0.15902123 0.15362959
0.29110986 -0.03162722 -0.24845986 -0.29885286 0.29188305 0.1173921 -0.09568888 -0.18771774
-0.22111477 -0.14067495 -0.1403753 -0.13531946 0.3619785 -0.17821145 0.17574267 0.2815262
0.18490343 0.1960122 -0.16494444 0.2720307 -0.2978533 -0.3553924 -0.06891699 -0.21341
-0.27364615 0.14349964 -0.25221655 0.19781315 -0.097036645 -0.04050716 0.11000681 -0.2248317
-0.105828606 -0.28870404 -0.18840031 -0.13470623 -0.06595926 0.054869056 -0.3047374 0.12653396
0.1892154 -0.052187156 -0.0017051637 -0.33397588 0.21516098 0.27710557 -0.12283322 -0.05473019
-0.3729739 0.23154703 0.195772 -0.22815731 -0.02534486 0.37713134 -0.030245831 0.05948047
-0.27327967 -0.116224736 0.1377727 -0.11854717 0.23900555 -0.31968233 0.2131775 -0.14646623
-0.13675646 0.12367592 -0.28816864 0.2000429 -0.0064873197 0.34679693 -0.25123647 0.17553996
0.2868311 -0.17356728 -0.18278071 -0.25197124 0.25262836 0.29184717 0.10410661 0.23126818

network.0.bias f4 [128]
00000000: 2e5b 023e 9f2e 21be 4711 043e 1463 4b3e
00000010: 424c a73c 5b9a 2bbe 1f7c 853d c6f2 683e
00000020: ba34 063e ae62 803e c41c 7fbe 5107 90be
00000030: e691 59be ca6b 843e d38b 45be cece eebd
00000040: 0515 d73d 4daa b73c 25cb 2bbb c011 a5bc
00000050: af92 0d3e fd59 9abd 33d7 5c3d f801 5fbe
00000060: 6d44 623e 5743 5c3e 5b82 b9bd 6f66 99bd
00000070: d1a8 8c3d fe5e 683e 5ccd 33be 92b6 763e
00000080: a92a 623e 1c74 713d 14a7 943e 1055 9b3d
00000090: f54f 853d 7630 9dbc 7e2c 423e dee6 c83d
000000a0: 17e2 953e 3a50 0cbd d214 823e 899f 22be
000000b0: 8815 a63e 487e c73e 723f ad3b dc28 283e
000000c0: c330 e2bc e131 683e eb3c 72be d582 a53e
000000d0: 4619 0f3d 5a63 ea3c 0f99 2c3e 3eaf a5be
000000e0: 38ff 83be 1b1c dd3d b3fc c03d dc64 8abd
000000f0: e7bf 6ebe 7c2a 91be 6dbc a0be be40 6d3e
00000100: eb25 a53e ca1c 80be a91e d83d 42ae a1be
00000110: b81a 113e 5f30 813e 714f 64bb e7bc 9d3e
00000120: 149e 293e bb80 d3bc f5c0 ac3e e26d 6cbe
00000130: 466f 45be f0cf 863e ea7a 143e 7e7f a13e
00000140: 2eb5 053d bebc b23e 6ee8 053c 2d15 abbd
00000150: 3d7e 90be 16b0 823e 987b 73be 3b9b 79bd
00000160: d805 453e 000e c5bd a714 15bd e7f3 5f3e
00000170: cf5d 84be 72a4 acbd 4670 983e 86f2 74be
00000180: d454 6bbe 5366 113e 5bb8 f0bd 1d98 59be
00000190: a1f3 e2bc bb5f b23d f1e9 eb3d 9e56 873d
000001a0: e7ab 813e 3ce9 babd 231f 1c3e 316b 523e
000001b0: 680f 0c3e 1101 37be 7262 abbd ad0f cc3e
000001c0: 761a bd3d 8c69 a3be cef9 713e 9226 343d
000001d0: e497 b13e 34a9 d93d c98e 07be 2026 d9bc
000001e0: 7a9d 263e ea3a 0a3e 8d66 2d3e 1e33 64be
000001f0: c08e 723d 4efa 9bbe 9bd4 703d cd14 ca3b
0.12730095 -0.15740441 0.12897216 0.19862014 0.020422105 -0.167581 0.06517815 0.2274886
0.13106051 0.25075287 -0.24913317 -0.28130582 -0.21247062 0.25863487 -0.1929162 -0.116605386
0.10502056 0.022420073 -0.0026213613 -0.020150065 0.13825487 -0.07536695 0.053916167 -0.21778095
0.22096415 0.21510063 -0.090580665 -0.07490241 0.06868137 0.22692487 -0.17558807 0.24093083
0.22086586 0.05894862 0.2903372 0.07584584 0.06509391 -0.019188147 0.18962285 0.098096594
0.29274055 -0.034256198 0.2540651 -0.1588117 0.32438302 0.38963532 0.0052871043 0.16421837
-0.027611142 0.22675277 -0.23656051 0.3232638 0.034936212 0.028611828 0.16855262 -0.32360262
-0.25780654 0.10796376 0.094231986 -0.06757519 -0.23315392 -0.28352726 -0.31393757 0.23169228
0.32255492 -0.25021964 0.10552723 -0.3157826 0.14170349 0.25232217 -0.003483739 0.30808184
0.16564208 -0.02581822 0.33740965 -0.23088792 -0.19280729 0.2633052 0.14500013 0.3154258
0.03264349 0.34909624 0.008173091 -0.08353648 -0.28221312 0.25524968 -0.23777616 -0.060939055
0.1924051 -0.09621811 -0.03639665 0.21870385 -0.2585282 -0.08429803 0.29773158 -0.2392064
-0.22981578 0.1419919 -0.11753913 -0.21249433 -0.027704062 0.087096654 0.1151923 0.06608318
0.25326464 -0.09126517 0.15246253 0.20548703 0.13677752 -0.178715 -0.08368386 0.3985571
0.09233563 -0.31916463 0.23630449 0.043982096 0.34686196 0.10627976 -0.13238062 -0.026507437
0.1627101 0.13499036 0.16933651 -0.22285125 0.05921817 -0.30464405 0.058796506 0.0061670304

network.2.weight f4 [256, 128]
00000000: 5f0b bd3d 77fc f6bd b176 58bd 6252 933d
00000010: 20f3 fa3c 4446 873d 2cce 3c3c 0141 cb3d
00000020: faf6 bc3d ae84 4c3d c2ca 943d c121 db3c
00000030: 7179 c93d 1db5 cc3d 66f3 a3bd 1cba 69bc
00000040: 37bc f9bd 0e12 39bc d515 cd3d cd07 a8bd
00000050: 8c6d 233d 3517 563d c52b 8fbd ca93 2cbd
00000060: 5e66 09be d0f1 2ebd 99bd 5cbc a703 a43c
00000070: c225 c63d 9ec2 c63d 3615 133c 64ea 993c
00000080: 6c51 2d3d 5157 80bd d021 cb3c 8c8a 093d
00000090: 6594 19bd 6970 f2bc 7f1a e0bd e7a5 a53d
000000a0: 4a8d 6bbd 92bc 7fbd 828e d43d 7408 3dbc
000000b0: b3b1 763d c904 513e 94f9 eb3c 969d e8bd
000000c0: c6fb 0e38 353c f03b 4972 af3d a4aa bebc
000000d0: 4cbd 5fbd e856 8e3d a48d 263e da49 993c
000000e0: 91e6 feba 0318 513d 3b02 83bc 409c 05be
000000f0: f485 643b 325e 653d a278 52bc a34f 0b3d
00000100: 835e d83d 49de 88bd f3ae e23d 6d46 a83c
00000110: 49f1 10bd 16bd d6bd 6fd5 8f3c 2b89 d0bd
00000120: a9e4 a33c 81cb c73c accf 183e 72f8 283d
00000130: 8e25 113d 2914 05bd 6ccb cf3c fd02 563c
00000140: d7a8 963c af74 6a3d 8bbc 73bc 0ee3 ab3c
00000150: bee7 0bbe b80c 08bd 0009 12bd db37 5bbd
00000160: 7eca b2bd cf3d 783c e9f4 803d 6b2f b9bd
00000170: 8665 8d3c 067e 46bd 2c26 b73d 95aa 153d
00000180: 3caa 433d 58a2 04be ef5f 98bd e0e2 c1bc
00000190: de33 013e 0d51 cabc 84dc 193c d571 e93d
000001a0: ad1d 70bd 7099 323d bea4 edba 97a3 053d
000001b0: cd59 413d 8363 1a3e 84d5 6f3d 7618 f9bd
000001c0: 7a1b 44be 8127 293d 758f 6a3d 7400 9ebd
000001d0: 9e24 c73d 8fb5 803d 674a dcbd 0cc1 bcbd
000001e0: 381c 933d 423a dbbc 6469 d03d d6c3 09bd
000001f0: b4a2 b4ba c1b5 a83d 9908 c43c fee8 003d
00000200: 5e4e e2bc 4a57 cfbc 95bc d23d 8c3e 9d3a
00000210: d238 92bd 9f91 5cbd e6e6 773c 33cd dc3d
00000220: 9b73 d1bd 8f6f 85bd 0565 783d 5d20 a4bd
00000230: cd7f 8f3d 7ac9 f2bc 0123 773d 29ca a23d
00000240: a392 5b3d dc52 5b3a 99a1 abbc ff8f 76bd
00000250: e1d4 37bb 21d9 623d 4d7d e9bc b13e 96bd
00000260: ad00 94ba cf04 883d 8dc8 81bd 709e a4bd
00000270: 3bef f5bc 6561 503d 3f73 b33b f616 fd3c
00000280: 5bfb 2abd b1ad 1a3d f29c 4ebd face 1c3d
00000290: 32db 86bd 716d e2ba 4c07 803d 436e 83bd
000002a0: 408b f73d 3d54 efbc b2a6 963c fd41 613d
000002b0: f341 1e3d 783d 353d b371 a33d db4d 043d
000002c0: 05f3 b73c 5197 92bc f0fb 4b3d 8f75 88bc
000002d0: 1669 46bc cff1 883d 5808 f3ba 6b24 553c
000002e0: d8e9 d9bc b9f1 82bd b562 68bd 3f60 b23d
000002f0: aa5d 783d aebf 73bb e870 74bd e61c 143d
00000300: 601f 53bd 310c d8bc f2ac a03d dbea 66bd
00000310: 426d a1bd 05c1 10bd fcb3 94bd 3a2b 40bc
00000320: 313b 703b 6f56 313d 88b0 aa3d 43e8 d9bd
00000330: 2077 353d 3754 1b3c 6cba 513d 5f81 c6bd
00000340: 1f89 d63c 6cde 5a3d 3cef 79b9 05c3 93bd
00000350: 40d5 bd3d 885e 433c 71ed dc3c 0dfe 923d
00000360: 7841 ab3d 6c6f 92bd 0127 f23c 3091 52bd
00000370: deed d83c 0412 19bd 1b09 033d b966 b5bc
00000380: c00c 9a3a 5c6f a53b 63a3 ac3d a609 b3b8
00000390: 2d50 efbb d0f1 82ba 6cb7 4a3c 69be 1abd
000003a0: 5ed8 393d 7880 123d 5e9d 8fbd 23ae 4dbd
000003b0: 245c c73c fbda 1d3d 8237 9b3d dcd1 88bd
000003c0: 408e 33bd 1dc1 803d 4f59 2dbc 8e56 e23b
000003d0: f3a3 a33d b545 97bb 360b c0bc efb9 6e3d
000003e0: 3131 953d 7be8 b23d 6dba ea3d 3726 993d
000003f0: ea8c 9f3d f645 a73d 7f58 c13d 3a28 7cbd
0.092306845 -0.120598726 -0.052847568 0.07193448 0.03063351 0.06605199 0.011523765 0.09924508
0.092267945 0.04993122 0.072652355 0.026749494 0.09837616 0.09995482 -0.08005409 -0.014265563
-0.12194102 -0.0112958085 0.1001393 -0.08204613 0.039899394 0.052268226 -0.0699077 -0.04213313
-0.13417956 -0.04271108 -0.013472938 0.020021273 0.096751705 0.09705089 0.008977225 0.018788524
0.042313978 -0.06266654 0.024796396 0.033579394 -0.037495036 -0.029594617 -0.10942554 0.08088284
-0.05750779 -0.062435694 0.10378744 -0.01153766 0.06022806 0.20411982 0.028805532 -0.11358182
3.408992e-05 0.007331396 0.0856672 -0.023274727 -0.054623887 0.0695017 0.16264969 0.018711973
-0.0019447376 0.05104829 -0.015992275 -0.13047886 0.0034869881 0.055998035 -0.012846144 0.034011494
0.10564902 -0.066830225 0.11068525 0.020541394 -0.035386357 -0.10485284 0.017557828 -0.10182413
0.020006495 0.02438903 0.1492297 0.04125256 0.035436206 -0.03248993 0.025365554 0.013062236
0.018391056 0.057240184 -0.014876495 0.020982292 -0.13662621 -0.033215255 -0.035653114 -0.053520065
-0.087300286 0.015151455 0.06296713 -0.090422474 0.017260324 -0.04846003 0.089428276 0.036539633
0.04776977 -0.12952554 -0.07440173 -0.023667753 0.12617442 -0.024696851 0.009390954 0.11398665
-0.05862205 0.04360336 -0.0018130762 0.032626715 0.04720478 0.15077023 0.058553234 -0.12162869
-0.19151106 0.04129744 0.057265718 -0.0771493 0.09723781 0.062846296 -0.107563786 -0.09216508
0.07183117 -0.026761178 0.10176352 -0.03363403 -0.00137814 0.08237792 0.023929881 0.0314722
-0.027625259 -0.025310177 0.102898754 0.001199679 -0.07139744 -0.053849813 0.015130734 0.10781326
-0.10227128 -0.06515419 0.060643215 -0.08013985 0.07006798 -0.029637087 0.060336117 0.07948715
0.05360664 0.0008366534 -0.02095108 -0.06019592 -0.002805047 0.05538285 -0.02850213 -0.07336176
-0.0011291705 0.06641542 -0.0633708 -0.08038032 -0.0300213 0.050874133 0.005476385 0.030894738
-0.041743618 0.0377633 -0.050442643 0.038283326 -0.06584777 -0.0017275048 0.06251392 -0.06417515
0.12087107 -0.029214973 0.018390033 0.054994572 0.038637113 0.044248074 0.07980671 0.03230081
0.022454748 -0.017894419 0.049800813 -0.016657619 -0.012110015 0.06686746 -0.0018541915 0.013009171
-0.026600763 -0.06393761 -0.05673476 0.08709764 0.0606362 -0.0037193107 -0.05967799 0.036160372
-0.051543593 -0.026373 0.07845487 -0.05637632 -0.078821674 -0.035340328 -0.07260892 -0.011729056
0.0036656375 0.04329532 0.08334452 -0.106400035 0.04430306 0.009480528 0.051203176 -0.09692644
0.026188431 0.053434774 -0.00023835612 -0.072149314 0.0926919 0.0119243935 0.02696869 0.071773626
0.083620965 -0.07150158 0.029559614 -0.051407993 0.026480611 -0.037370697 0.031991106 -0.022143709
0.0011753067 0.0050486755 0.08429601 -8.537182e-05 -0.007303259 -0.0009990279 0.012372833 -0.037779246
0.04537236 0.03576705 -0.07012437 -0.050214898 0.024335928 0.038538914 0.07578947 -0.066806525
-0.043836832 0.062868334 -0.010580375 0.006907291 0.07990255 -0.004616464 -0.023442846 0.05828279
0.07284773 0.087357484 0.11461339 0.07477992 0.07790549 0.08167641 0.094407074 -0.0615618

network.2.bias f4 [256]
00000000: e950 3a3d d5fb d83c 88dc 713d 3daa a7bd
00000010: b5a1 8c3d 60e0 853d eab4 9239 f3a6 553d
00000020: d539 d73d 6723 c53d 67a3 e4bc 7ab7 cb3c
00000030: 0f18 0cbd 3aa1 573d 5c81 86bd 798c 103d
00000040: 5817 40bd c809 8b3c 8343 a63d 612f 8e3d
00000050: 3760 61bd 22fb 93bd 7e81 1a3d 7b83 ac3d
00000060: a216 61ba 0d6b 90bd 8060 a83d 94c4 8fbb
00000070: a53c ad3d 783d e33b 1054 afbd dab0 ce3d
00000080: a807 473d 53da 90bd 4458 183d 2e64 92bd
00000090: d264 22bc 1324 c3bc 9352 0a3d 490c a7bc
000000a0: c869 48bd 90bd 7d3d 8b6a c3bd db91 703d
000000b0: 5d5c 123d b7e6 d93d 1b01 d13d 6c83 493d
000000c0: 2e49 9d3d 66ff 3b3d 94e0 753d 300c 8bbd
000000d0: a52a bb3d e2a5 81bc c6d6 833d 82b2 243d
000000e0: ee71 0dbd 2dc7 18bd 2730 2abd 6273 6cbd
000000f0: 7fca 8d3d 735e 8c3d bb62 d5bc bf72 f03c
00000100: 3b2a 5d3c 2b4d 8e3b db34 8c3c a80b 7b3c
00000110: 116b d1bc a632 813b af32 f03b dee7 a63d
00000120: 1cc7 b3bc ced2 ae3d f176 b63d 8280 373d
00000130: 417f 95bb dacc 173d 3c7a 05bd 3573 463d
00000140: f641 14bc 91ac e43c a8b3 5dbd d3cd d3bc
00000150: a48b 473d a737 17bc 961a 45bd 2cbd aa3d
00000160: 6000 9c3d ab3f babc e8b2 013d cd2d 023d
00000170: 64be 8d3d e4ef 95bc 62d0 db3c acc0 863d
00000180: f2a1 0e3b 11b2 643d a89c 91bc 32a9 c33d
00000190: e0e5 583d 8630 803d 4890 973d 69a3 4cbd
000001a0: 8c39 35bd f798 3cbd 981f b03d ba91 d03c
000001b0: d38e be3d f2cc 0bbd 37e6 973d 0e69 92bd
000001c0: 0fe7 b73d 6e3c 8abd 97a9 2cbd f2a0 1fbd
000001d0: db3e cf3c 66d4 5f3d 9a1b f3bc 20f5 88bd
000001e0: 9802 c23d ca71 be3b 68f3 c73d 1c8a 55bd
000001f0: e57a 043d a2c1 35bc 064b 283d f8de 823d
00000200: d19a f83a 3067 e03d 48c4 673d 6dc6 8bbc
00000210: 7134 693d 1449 c23d 8c23 a83d 0235 e53b
00000220: e86e c83c ea05 c53b bf23 9abd 0b93 823d
00000230: 45f3 a4bc 1a70 ac3c 05d1 93bd a2d2 c539
00000240: d603 983d 000f 313b 5d28 25bd 061c 6cbd
00000250: 8975 a63d 16b4 26bd 325b 03bd 2138 30bd
00000260: 38b1 dd3d a994 4bbb bd3f 72bc 36ef 8b3d
00000270: a576 4d3d 67a7 993d 7a74 6a3d 4d7c 9b3d
00000280: 131a 89bd 4b7f 31bd e53e 79bd 6e75 dc3d
00000290: f34d 3dbd 23a8 90bd 35d7 80bd 46b5 28bd
000002a0: e146 c0bd b7ba 5d3d 40b5 b83d 9757 a83d
000002b0: 3263 5fbd 3b57 063d b0ff b33d f683 39bd
000002c0: 65cc b33b 856d 493d 11bd eabb a9be a23c
000002d0: e5c0 e8bc 25a7 bdbc df19 92bd 23cf 5fbd
000002e0: c82d 37bd 219b e03c 57f3 5d3c 8df0 a4bd
000002f0: 85a6 75bd 5c55 3ebd 46eb aebd 54ca eebc
00000300: 244b 2abd dbd6 de3c 4801 f43c da9d 95bd
00000310: 9526 f4bc 5359 6fbd a17c bbbd 9e70 393d
00000320: 8065 823d 3c73 93bd b10b 4e3c 33d4 1d3d
00000330: a9dc 89bd 5a02 e7bc 85d9 c03d 6715 863d
00000340: 8d80 90bc 71f9 c2bc 494d b2bb a463 b03d
00000350: b202 ce3c 042f 953d 58d8 083d c51f 9f3c
00000360: a399 a1bc e2f1 1e3d fb9e 2c3d b105 c73d
00000370: f7b2 d53d 3a32 8f3c 69ce 76bd 2de2 86bd
00000380: 91a8 9ebd b0ff 543c e9e3 fe3c 9992 583c
00000390: 425c 83bd 90c0 a03d b214 c83d c560 ba3d
000003a0: 2b8a ad3c 9ff8 a13b 6d9c 33bc 9cee 4f3d
000003b0: ac31 83bd 0f6c 943c c616 d53d f133 26bd
000003c0: d11a 61bd 7d9f 833d 317d 213d e5f8 a53d
000003d0: cf0d a33d d170 a4bd b294 84bd 0bc3 61bd
000003e0: b843 fc3c 0a8f fbbc 5b87 a63d e62b 733d
000003f0: e1d8 3f3d 5e7d 243d 2458 dabc 2fb5 633c
0.04548732 0.02648727 0.059048206 -0.08186767 0.06866781 0.06536937 0.00027982082 0.05216117
0.105090775 0.09625893 -0.027909948 0.024867762 -0.03420263 0.052643992 -0.06567642 0.035290215
-0.046897262 0.016972438 0.081183456 0.069426306 -0.0550234 -0.07225634 0.03772115 0.084235154
-0.00085864414 -0.07051668 0.08221531 -0.0043874476 0.08458833 0.006934818 -0.085609555 0.100923255
0.048591286 -0.07072892 0.03719355 -0.07148014 -0.009911733 -0.023820912 0.033770155 -0.0203916
-0.048929006 0.06194836 -0.09541806 0.05873285 0.035732616 0.106397085 0.10205289 0.0491976
0.076799735 0.045897864 0.060028628 -0.06789434 0.09138993 -0.01582617 0.06437449 0.0402093
-0.03453248 -0.037299324 -0.041549828 -0.057727225 0.06923389 0.06853952 -0.026048055 0.02935159
0.013498838 0.004342695 0.017115047 0.015322603 -0.025563749 0.0039428053 0.0073302607 0.08149694
-0.021945529 0.085363016 0.08909405 0.04480029 -0.004562289 0.037060596 -0.032587275 0.048449714
-0.009048929 0.027914317 -0.05412641 -0.02585498 0.048717156 -0.009229577 -0.048121057 0.08336863
0.07617259 -0.022735437 0.03166476 0.03178196 0.0692108 -0.018302865 0.026832763 0.06579718
0.0021764007 0.05583388 -0.017774895 0.09553756 0.0529536 0.06259255 0.07400566 -0.049960528
-0.044244334 -0.046044316 0.08599776 0.025460113 0.09304585 -0.034130998 0.07416957 -0.07148944
0.08979618 -0.06749807 -0.04215392 -0.03897185 0.025298527 0.05464592 -0.029676247 -0.06687379
0.09473151 0.0058119046 0.09763223 -0.052133664 0.032343764 -0.011093529 0.041087173 0.06390184
0.0018967037 0.109571815 0.056583673 -0.01706239 0.056934778 0.09486595 0.08209905 0.0069948444
0.024466947 0.006012668 -0.07526349 0.063757025 -0.020135531 0.021049548 -0.07217602 0.00037731702
0.07422607 0.0027016997 -0.040321697 -0.057643913 0.08127887 -0.040699087 -0.032069393 -0.04302228
0.108248174 -0.003106395 -0.014785704 0.06832735 0.050161976 0.075026326 0.057239987 0.07592068
-0.066944264 -0.043334287 -0.060850997 0.107645854 -0.046216916 -0.070633195 -0.062910475 -0.0411885
-0.09388519 0.054133143 0.09018946 0.082198314 -0.05453796 0.032798033 0.08789003 -0.045291863
0.005487012 0.04917671 -0.0071636518 0.019866304 -0.028412292 -0.02315099 -0.07133841 -0.0546409
-0.044721395 0.027417721 0.013546786 -0.08053694 -0.05997326 -0.046468124 -0.085409686 -0.029149212
-0.041575566 0.02720206 0.029785767 -0.073054984 -0.029803554 -0.058434796 -0.091546305 0.045273416
0.06367016 -0.071997136 0.01257603 0.038532447 -0.06731541 -0.028199363 0.094164886 0.06547051
-0.017639423 -0.023800584 -0.005441342 0.08612755 0.02514777 0.07284358 0.033409446 0.019424329
-0.01972658 0.038804896 0.042143803 0.097178824 0.104345255 0.017480005 -0.06025544 -0.06586108
-0.07746995 0.013000414 0.031114535 0.013218545 -0.06414081 0.078492284 0.09769572 0.091004886
0.021184048 0.004942968 -0.010962588 0.050764665 -0.064059585 0.018117933 0.10404734 -0.04057688
-0.054957215 0.06426904 0.039426032 0.081041135 0.07961618 -0.080293305 -0.06473674 -0.055117648
0.03079401 -0.030707855 0.08131286 0.059368037 0.04683769 0.040158622 -0.026653357 0.013898178

network.4.weight f4 [9, 256]
00000000: 8aee a8ba c21d 613d d6e0 8d3d 1e80 4d3d
00000010: 23e3 613c d83a 8f3c 80db 07be 3b96 ee3d
00000020: 1f75 52bd d555 003d 3048 6b3d b095 03be
00000030: a623 173d 9391 dd3d f8ad 0e3d 4558 373d
00000040: 7052 19bd f308 6bbc 5936 ae3d ad54 243d
00000050: cbef 42bd f556 5b3c 5b03 87bd aeca 15be
00000060: 832a 89bb 0414 f23c 66cf 1cbe aabb ba3d
00000070: 8148 993d cd3b 243d f81b 0c3d d19f 483d
00000080: b463 633d 7125 333d 20a8 973b f412 f6bc
00000090: cfd4 173d 685c 9b3d 293d 043c d3e3 053c
000000a0: ce76 1a3d 395a 2dbc 7d84 ab3a 3e04 b93d
000000b0: 5578 53bd 21ad 173d 396d 87bd bd8a 11be
000000c0: 5f1a 88bd e583 bbbd d091 d2bc 71fa 9c3d
000000d0: fc27 5cbd 389d c13d 892c 133a 31ef 33bc
000000e0: ebb6 163b 5fee 36bc 3885 ea3b 0e0d 8fbb
000000f0: 9816 f03d dc8e ad3c 083a 5dbd 4701 963d
00000100: 025c 7ebd 7284 943d ccd8 11be 7a9d d63c
00000110: 8a57 a43d 18d0 423d 3c45 55bd 2a40 fcbc
00000120: 1c71 f9bd 7c5b 333c 68c4 b03d 644a a13d
00000130: c300 853d 0024 2539 f304 b43d e99a 34bc
00000140: 84dd 843d 5d1a b03d 21b5 2d3d a8f4 fdbc
00000150: bd4d ed3c 707d 803d ac75 893d 293e c5bd
00000160: c2e2 9bbd 8aed eabd 60e9 cc3d 5757 683c
00000170: 2317 fe3c 3e40 7dbb e38d bb3d bf76 903d
00000180: 552f 0139 c2c4 9d3d f96f 913d 5d5b 00bd
00000190: 5778 1d3c a42b 593c 44ff ae3d 2419 303c
000001a0: bd7a 763d a787 fe3d 5d37 923c dff8 bbbb
000001b0: b0bf f0bb c0fb 67bd 98db 383d e2e2 27bd
000001c0: 007e 823d 91f7 06bd 0109 243d dcf7 123d
000001d0: f5da a8bd 3628 1b3d f81f 263d 518a fd3c
000001e0: cd79 933d 81aa 643c 81e3 bc3d 6cc4 b53c
000001f0: 2ca9 89bd 769c e93d b1cf a53d 948d 033a
00000200: 54b1 9d3c 35b0 7cbd 454f 0bbe 2da1 6e3d
00000210: c952 15bd c576 b9bd eabc b53b 7da9 753d
00000220: c15a 0dbd d940 23bd f24c adbd e715 c8bc
00000230: a6d9 4d3d 8e39 123d 672b 583d aaa0 13bd
00000240: fc82 a9bd 4cb6 7e3c 1c17 32bc cb2a 77bd
00000250: c8f5 e8bd 6a7d 24be 89df 2fbd 7099 da3c
00000260: f4f3 793d 207f ebbc 6817 56bc 1256 9dbd
00000270: 4121 14bd b047 673c f961 e0bd 80bd 82bc
00000280: 7f28 b7bc a172 09bb 34bc 6bbd e331 d43d
00000290: 78ca c63b 3001 d73b 852e a4bc 2c37 48bd
000002a0: 6456 2cbc ec65 233c 4ba3 a93d 340c 583c
000002b0: 00f2 0db9 e520 edbc 4dd5 913d b94b 883d
000002c0: cf2a 07be 6b2a 02bd 3d63 8e3d 3ed3 f4bd
000002d0: fca1 71bb 55d9 aabc c386 933d 172a 36bd
000002e0: e0e3 91bd b86e c9bd fcd7 673d 804c 57bd
000002f0: 2467 6b3c 867a 1e3d 01ce babc 5b62 3fbd
00000300: 531f adbd 7604 6abc f6b6 aebd 4029 3a3c
00000310: cecd 12bd 57d3 e4bc 0e26 823b 21d6 663d
00000320: 1fb3 40bd 3759 8cbd 0000 10ba e0cb 6f3d
00000330: 9c0a 1abd 1717 813d 287a 103d 3ea2 2bbd
00000340: 1613 f3bd f9d9 093d 81b1 1e3d 69be afbd
00000350: fefd f9bd 4c76 263c dbbc 81bd 7a5d 86bc
00000360: ccf7 2abd a0b5 dd3c c798 d1bd 2dda 823d
00000370: f1d3 f03d 50d1 3939 3cad df3d 4539 5ebd
00000380: dc0b d83c 6580 743b 4322 bc3c fb4e c53c
00000390: 5298 d93d 7b33 44bc 346d eb3d dbcc 113d
000003a0: a56a b43d 1f1c 16bc 7aa0 69bd 0046 a43d
000003b0: ac5f 9b3c 580a a13d 7cbe 0d3b 4478 17bd
000003c0: d596 b63d 0376 58bd d346 0ebd b8b8 433d
000003d0: a548 e33d a278 03bc dc7e 03be fa6d ac3d
000003e0: 1ac3 bf3d b6a1 7abd 3ef3 973d d63e 313d
000003f0: dd40 57bc 165a 713d 41b8 d73d 1eba af3d
-0.0012888473 0.05496002 0.0692765 0.05017101 0.013787064 0.017484114 -0.13267326 0.11649748
-0.051381227 0.031331856 0.05744189 -0.1285007 0.03689923 0.10818782 0.03483388 0.044761915
-0.037432134 -0.014345395 0.0850646 0.040119816 -0.047591966 0.013387431 -0.06592437 -0.14628097
-0.004185976 0.02955056 -0.15313491 0.09117825 0.07484532 0.040096093 0.03420636 0.048980538
0.055515006 0.04373688 0.0046281964 -0.030038334 0.037068184 0.075859845 0.008071222 0.008171993
0.037710957 -0.010580593 0.0013085749 0.09034012 -0.05162843 0.037030343 -0.066126294 -0.1421308
-0.06645655 -0.09156016 -0.025704294 0.076649554 -0.05374907 0.09453815 0.0005614241 -0.010982321
0.0022997211 -0.011165231 0.007156994 -0.00436557 0.117230594 0.021186285 -0.05401042 0.073244624
-0.062099464 0.072518244 -0.14242858 0.026198138 0.08024509 0.047561735 -0.05206798 -0.030792315
-0.12179777 0.010947105 0.086312115 0.07875517 0.06494286 0.00015749037 0.087900065 -0.011023262
0.06487563 0.085987784 0.042409066 -0.03100045 0.028967733 0.06273925 0.06711897 -0.09630997
-0.0761161 -0.11471088 0.1000545 0.01418098 0.031016892 -0.0038643028 0.09157922 0.07053899
0.00012320031 0.07703544 0.07101435 -0.03133713 0.009611211 0.013255034 0.08544782 0.0107481815
0.060175646 0.124282174 0.017848665 -0.005736455 -0.0073470697 -0.056636572 0.045131296 -0.040987857
0.06371689 -0.03295094 0.04004765 0.03588091 -0.08244888 0.037880145 0.04055783 0.030949743
0.07200966 0.013956667 0.092230804 0.022188388 -0.0672172 0.11406796 0.080962546 0.000501835
0.019249596 -0.06169148 -0.13604458 0.058259178 -0.036455903 -0.090558566 0.005546202 0.05997609
-0.034510378 -0.039856765 -0.08461942 -0.024424506 0.050256394 0.03569942 0.052775767 -0.036041893
-0.082769364 0.015546393 -0.0108697675 -0.060343545 -0.11375004 -0.16063467 -0.04293779 0.026684493
0.061023667 -0.028747141 -0.013067104 -0.07682432 -0.036164526 0.014116213 -0.10956187 -0.015959501
-0.022358177 -0.0020972865 -0.05755253 0.10361078 0.0060666166 0.006561421 -0.020041713 -0.04888074
-0.010518644 0.009973031 0.08283099 0.013186503 -0.0001353696 -0.02894635 0.07120762 0.06655068
-0.13199924 -0.031778734 0.06952522 -0.11954354 -0.0036870232 -0.020855585 0.07203438 -0.044473734
-0.07123542 -0.09835571 0.056602463 -0.05256319 0.014367852 0.038691066 -0.022803308 -0.04672466
-0.0845324 -0.01428329 -0.08530991 0.011362374 -0.035840802 -0.027932806 0.0039718216 0.056356553
-0.047045823 -0.06852954 -0.0005493164 0.05854404 -0.037607774 0.06303232 0.035272747 -0.041902773
-0.11868875 0.03365514 0.0387435 -0.0858124 -0.12206648 0.01016004 -0.063348494 -0.016401995
-0.041740224 0.027064145 -0.10234218 0.0638927 0.117591746 0.0001772095 0.10921714 -0.054253835
0.026372842 0.0037307974 0.022965556 0.024085512 0.10624756 -0.0119751645 0.11495438 0.035595756
0.08809403 -0.009161978 -0.057037808 0.08021164 0.018966518 0.07863301 0.002162843 -0.03697993
0.08915488 -0.05284692 -0.034735512 0.047783583 0.1109784 -0.008024367 -0.12841362 0.08419414
0.093633845 -0.061189376 0.07419442 0.043272816 -0.013138023 0.058923803 0.105331905 0.08580421

network.4.bias f4 [9]
00000000: 943b c13b 43aa 0b3c 8b5b 58bb 6590 7a3d
00000010: 0a4d 82bc 89bb 213d a6a3 7abc 188a dc3c
00000020: f1a7 89bd
0.005896995 0.00852448 -0.0033013548 0.06117286 -0.015905876 0.039485488 -0.015297806 0.026921317
-0.067214854
