models/actor6000.pth (torch, 148423 bytes, 6 tensors)

network.0.weight f4 [128, 9]
00000000: 7f2c 9d3e 81e3 f13d b74d 093e c28c 7a3e
00000010: 95a6 10be 46de 23be aaf9 c5be 74cb 82be
00000020: 7232 8e3e 1843 58bc 1707 a03e cb90 36bb
00000030: ce5e 70be ab4f 1c3e afbe 5c3e d029 a63e
00000040: 4074 babc 6fd7 6ebe 88a7 27be 89dd c83b
00000050: b677 a23e 3166 8dbd fdac d2bc f14a 58bd
00000060: ea44 403e 8c12 a6bb 7ceb 74be 5b65 68be
00000070: 3f44 70be 3de7 7fbd 8470 f4bd a3cb 0b3e
00000080: b03d 97be 4b55 6e3e d11d 053e 4315 d23e
00000090: d71e 553e f986 8b3e 2762 803e e236 65bc
000000a0: 227a 063e f0f0 593e 6c26 c93c 8109 46be
000000b0: 0255 98be 3741 873e 175a e8bc 1491 f6bd
000000c0: 1ec5 b93e 9c26 543c 6ab6 9d3c f7c5 d5bd
000000d0: d323 3e3e f0fb 3d3d 819c 28bd f73c e73d
000000e0: aa31 593e c578 4dbe dd70 10bd e25f 2dbe
000000f0: 7e3b c13e 78bc ab3e e5a8 8cbe 5cde 2abd
00000100: db20 8c3e eed0 043e 9635 923e 3b3f 86bd
00000110: 59be 663e c864 d83d 3e85 873e 3576 69be
00000120: 8ea8 0f3e 4d30 99be 0e42 49be 586b 903d
00000130: 2b0d 91be 7617 e1bd f0ee b33d 1952 48be
00000140: c077 c6bd 43f1 a9bd 23c9 81be 838c a63e
00000150: 61db 5a3d ff41 a2be 7924 a63e a7f6 8b3d
00000160: 47ce 23be f556 a2bd 8c5b 0e3e 7852 303e
00000170: e4c9 013e 4668 96be 994d 893e cce9 4abd
00000180: 7eed 91bd a4dd 81be bde0 fdbb fb3e 273e
00000190: f0b6 1a3e 105e 0d3e 7301 d93d 4911 2b3d
000001a0: 1c08 bebd ec89 e63c eb10 96be 17b0 1d3e
000001b0: 5df2 18bd 26a5 ad3e cb41 a83e c8ed 3d3e
000001c0: 6ace 5dbd 8a78 7ebe 5111 413e b231 513e
000001d0: 2404 61be e711 92be e0a1 dfbd 9ef9 b33e
000001e0: 9211 a73e 9ef4 123e 91a0 bdbd b006 95be
000001f0: 8dcf 8bbe ac3b b3bd 9bd5 91be dcf2 0c3e
00000200: f591 22be 2611 5b3e 30d7 edbd 0f68 bd3e
00000210: 0081 1a3e acce 0b3e 4eaa 913e bdc3 8e3d
00000220: 629f c9bc 8087 02bd bce2 9ebe 49e3 c13e
00000230: 5c86 2cbe bee6 08bc da2b 683e 991a 8f3e
00000240: b7f0 283d 0f12 6d3e 7acc 8ebe 1d8d bfbe
00000250: eca8 27bd 94c9 d5b9 a7be db3d ccfe 813e
00000260: 93c0 b93d d9b2 c5bd 46a1 533e 7778 dabb
00000270: 2655 9a3e 2eed 97be 90e7 323e 3ad1 c73d
00000280: 7333 8cbe de6b aebe 3222 58be d7a7 853c
00000290: c01b b3bd 17f1 4f3e eb21 eabd 4ec5 5cbc
000002a0: fe47 943e 085a 7ebe f6dd f2bb 4336 0dbe
000002b0: 3006 53be d659 cfbd 76d6 22be 1351 1d3e
000002c0: 5a0c 953e 8b8b 01bd 436c 7ebe 3e03 99be
000002d0: 3512 973e abc5 f83d 7af9 babd 8be1 2cbe
000002e0: b671 67be c352 13be c682 00be c933 11be
000002f0: 3cdf b93e bf7a 35be b4d3 3b3e 4baf 933e
00000300: f1ea 3a3e a019 4e3e 4968 1fbe ccb2 863e
00000310: da0f 97be b7c5 a6be 4b00 8ebd e8f6 5abe
00000320: 6f51 8cbe b8ef 143e 8722 81be 83f9 493e
00000330: 26bb c6bd d6ea 25bd 469a e03d 483a 66be
00000340: abbc d8bd 04d1 93be 03ec 40be 6ef0 09be
00000350: a615 87bd 60be 603d 8a06 9cbe 1e92 013e
00000360: 43cd 3c3e 6333 56bd 1e83 03bb 5cb0 a6be
00000370: 914c 5c3e 44e8 8f3e a7b2 0ebe bdb0 3cbd
00000380: c797 aebe 4007 6c3e 9961 4e3e 69c2 64be
00000390: f8ef c6bc 1771 bb3e 994a fb3a 57c5 673d
000003a0: 183a 89be 726b cbbd ae2e 123e fb26 d5bd
000003b0: c00e 813e 5a84 a2be 2cd7 5a3e 0ee6 fbbd
000003c0: 06b3 1cbe 2b29 0b3e 56ab 6dbe 2ca3 463e
000003d0: b044 67bb 55fe b23e 36d8 5bbe c7dd 323e
000003e0: 8434 933e 601d 3bbe b4f4 2bbe 2e83 5cbe
000003f0: d9ff 843e 9a86 9b3e 4b25 ed3d c236 633e
0.3069801 0.11810971 0.13408552 0.24467757 -0.14126046 -0.1600276 -0.3866704 -0.25545847
0.27772862 -0.01319959 0.3125541 -0.00278573 -0.23473665 0.15264766 0.21557115 0.32453775
-0.02276051 -0.23324369 -0.16372502 0.0061299247 0.31731957 -0.06904257 -0.025717253 -0.052805845
0.18776289 -0.005068129 -0.23917955 -0.22694914 -0.23463534 -0.062476385 -0.11935523 0.136519
-0.2953925 0.23274724 0.12999655 0.41031846 0.20812546 0.27251413 0.25074884 -0.013990136
0.13132527 0.21283317 0.024554454 -0.19339563 -0.29752356 0.26416942 -0.02836327 -0.1203939
0.362832 0.012948658 0.01925202 -0.104381494 0.18568353 0.046382844 -0.04116488 0.11290925
0.21210352 -0.20065601 -0.035263885 -0.16931108 0.377407 0.33542228 -0.27472606 -0.041715965
0.27368817 0.12970325 0.28556508 -0.06555029 0.2253355 0.105660975 0.26468843 -0.22798999
0.14029142 -0.29919663 -0.19654104 0.07051724 -0.2833036 -0.10990803 0.08785808 -0.19562568
-0.09690809 -0.0829797 -0.25348768 0.32529077 0.053431872 -0.31690976 0.324497 0.068341546
-0.15996657 -0.07926742 0.1390211 0.1721896 0.12674671 -0.2937643 0.26817015 -0.049539372
-0.07125376 -0.2536441 -0.007747738 0.16332619 0.15108848 0.13805413 0.105959795 0.04176453
-0.092788905 0.028141938 -0.29309782 0.15399204 -0.03734051 0.3391506 0.32862696 0.18547738
-0.05415193 -0.2485067 0.18854262 0.20429114 -0.21974236 -0.28529283 -0.10919547 0.3515138
0.32630593 0.14351127 -0.09259141 -0.29106665 -0.27306786 -0.08751616 -0.2848328 0.13764518
-0.1587599 0.2139326 -0.116133094 0.36993453 0.15088272 0.13653058 0.28450245 0.06970928
-0.024612132 -0.031867504 -0.3103236 0.37868717 -0.16848129 -0.0083557945 0.22672978 0.2794998
0.04124519 0.2315142 -0.27890378 -0.37412348 -0.04093258 -0.00040776713 0.107297234 0.25389707
0.09069934 -0.09653253 0.2066699 -0.0066671926 0.30143088 -0.2967314 0.17471147 0.09756704
-0.27383003 -0.3406667 -0.21106794 0.016315384 -0.08745527 0.20306812 -0.114322506 -0.0134747755
0.28961176 -0.24839032 -0.0074117137 -0.1379023 -0.20607829 -0.10124557 -0.15902123 0.15362959
0.29110986 -0.03162722 -0.24845986 -0.29885286 0.29506078 0.12147077 -0.09129615 -0.16882913
-0.22601971 -0.1438704 -0.12549886 -0.1417991 0.36303127 -0.17722605 0.18342477 0.28844675
0.18253686 0.20126963 -0.15567125 0.26308286 -0.2950428 -0.3257272 -0.0693365 -0.2138325
-0.2740588 0.1454457 -0.25221655 0.19724087 -0.097036645 -0.04050716 0.10966925 -0.2248317
-0.105828606 -0.28870404 -0.18840031 -0.13470623 -0.06595926 0.054869056 -0.3047374 0.12653396
0.18437676 -0.0522951 -0.0020067166 -0.32556427 0.21513583 0.28106892 -0.13935338 -0.04606699
-0.34100172 0.2304964 0.20154418 -0.22339787 -0.024284348 0.36609718 0.0019172012 0.056584682
-0.26802135 -0.09932603 0.1427562 -0.104078256 0.25206566 -0.317416 0.21371144 -0.12299739
-0.15302667 0.13589923 -0.2320989 0.19398183 -0.0035288744 0.34959665 -0.21469197 0.17467414
0.28751004 -0.18272924 -0.16792566 -0.21534416 0.25976446 0.3037613 0.11579379 0.22188857

network.0.bias f4 [128]
00000000: 0159 083e 0f98 18be 5f86 0d3e 52ff 413e
00000010: c052 0e3d bf2d 2fbe c23f 9a3d 37c3 723e
00000020: d17d e93d 676b 733e 48fc 80be 8a00 82be
00000030: 0fa9 51be 2d85 813e 7c7f 5fbe 8ecc edbd
00000040: f209 e33d 8f3d 7a3c 2eca 71bc c011 a5bc
00000050: 5010 113e 5e18 8abd 3675 5b3d f801 5fbe
00000060: be02 653e 1614 623e c385 9ebd feb6 8bbd
00000070: 55ca a93d 2629 6d3e 131a 33be ab5d 883e
00000080: 5b1a 623e b6b0 6d3d 13c3 973e e77e a53d
00000090: 3617 853d 9791 9bbc afd2 483e c67e cd3d
000000a0: 0ebb 993e 83ba f7bc a1ed 863e 9ab4 27be
000000b0: ab9a ab3e 0304 c53e 71fc 383c 754f 2e3e
000000c0: bcf3 8cbc 877a 6b3e db5e 67be a694 a73e
000000d0: 6b90 313d 594e 053d f34c 273e 109a a6be
000000e0: 3b88 6fbe bda9 e63d 14d2 c53d 995a 6cbd
000000f0: b0a7 68be 0e88 8cbe 8994 9abe e41b 733e
00000100: d8a6 a73e ca1c 80be 609d da3d 42ae a1be
00000110: b81a 113e 2aab 833e f036 c4ba fad6 983e
00000120: 149e 293e 1628 debc 7de9 af3e ee9f 72be
00000130: 466f 45be 4874 883e 3037 033e f2df 9f3e
00000140: 77f6 203d 2ddb b23e 77d9 4f3c 8a4b abbd
00000150: f053 95be b852 813e 688f 78be ec99 7abd
00000160: cb45 4f3e 000e c5bd f70e f5bc 48ee 673e
00000170: cf5d 84be 7a30 a1bd f778 9e3e 91d1 7dbe
00000180: 626e 60be 2381 203e 76f8 f3bd 71f6 5ebe
00000190: 57dc adbc bb5f b23d 29aa eb3d d92f a03d
000001a0: 724a 823e 71b6 b9bd b9a7 1f3e ed1a 503e
000001b0: 163e 113e 902d 38be 638e 9dbd d45a cc3e
000001c0: ea0c c93d 799a a3be 485e 6b3e 3c00 463d
000001d0: 2ed8 b03e 6ffb e23d 9216 f3bd 2c3d 4bbd
000001e0: a611 2f3e 4c8c 0a3e 6274 353e 1e33 64be
000001f0: 0c87 8e3d 5331 98be 6328 893d 9c2c fbbb
0.13315202 -0.14901756 0.1382079 0.18945053 0.034746885 -0.17107294 0.07531692 0.23707281
0.11400951 0.2377144 -0.25192475 -0.25391036 -0.20474647 0.25296918 -0.21825975 -0.11611281
0.11085881 0.015273466 -0.014757676 -0.020150065 0.14166379 -0.06742929 0.053578578 -0.21778095
0.22364327 0.22077975 -0.07740357 -0.06822012 0.08290545 0.23160228 -0.17490415 0.26633963
0.22080366 0.058029853 0.29641017 0.08080845 0.06498568 -0.018990321 0.1961162 0.10033946
0.30025524 -0.030240303 0.2635317 -0.16377488 0.3351644 0.38479623 0.0112906555 0.17022498
-0.017206065 0.22995959 -0.22594778 0.32730597 0.04335062 0.03254542 0.16337948 -0.32539415
-0.23391812 0.11262844 0.0965921 -0.05770359 -0.22720218 -0.2744755 -0.30191448 0.23741108
0.3274448 -0.25021964 0.10674548 -0.3157826 0.14170349 0.25716525 -0.0014969986 0.29851514
0.16564208 -0.027118724 0.34357825 -0.23693821 -0.19280729 0.26651216 0.12814021 0.31225544
0.039297547 0.34932843 0.012686125 -0.08364017 -0.29165602 0.25258422 -0.24273455 -0.061181948
0.20241468 -0.09621811 -0.029914362 0.22649491 -0.2585282 -0.07870574 0.30951664 -0.24786974
-0.21917108 0.15674262 -0.119126245 -0.21773697 -0.02122323 0.087096654 0.11507065 0.07821626
0.25447422 -0.09068001 0.15591325 0.20322771 0.1418384 -0.1798613 -0.07693174 0.39913046
0.09816916 -0.3195379 0.22985184 0.048340067 0.34539932 0.110831134 -0.11869539 -0.049618885
0.17096576 0.13530082 0.17720178 -0.22285125 0.06959352 -0.2972513 0.06697156 -0.00766523

network.2.weight f4 [256, 128]
00000000: 8c60 b23d 4c96 e0bd 965e 4dbd 8cde 6c3d
00000010: 1841 fa3c 1200 723d 21b9 4e3c 8b61 c53d
00000020: 2dc7 9e3d ba6c 5d3d 0663 8a3d c030 ec3c
00000030: 13c3 c33d 5f2f bf3d d331 69bd c26c c7bc
00000040: 34e9 eebd 1df8 d7bc e88f cf3d cd07 a8bd
00000050: 2912 203d af0a 843d 4e33 8bbd ca93 2cbd
00000060: f75a 0abe fc4e 35bd 451a 5cbc d02f ab3c
00000070: 2659 be3d 9d3f c03d d0d9 253c 8e1e 853c
00000080: 14ce 143d 43d0 75bd fe49 ce3c fea4 d93c
00000090: df82 11bd 74e2 e6bc 10e2 c9bd 82e9 a53d
000000a0: a3ea 49bd a1d8 87bd 73b9 cf3d 823b 93bc
000000b0: 2cde 7c3d 5ac6 4c3e 57e1 003d 1cd5 eebd
000000c0: a28a c43b a5ad ccbb 80b9 a83d 5ef6 bbbc
000000d0: 4ea4 6cbd 7ed1 843d f34f 133e 29a5 ab3c
000000e0: 742b ccbb 3e56 293d 1dc5 73bb ef3d edbd
000000f0: d4eb a1b7 9aca 493d 9315 2bbc 46f7 d83c
00000100: 0010 c43d 49de 88bd 97b9 e43d 6d46 a83c
00000110: 49f1 10bd 7907 d7bd 8bcf 853c f5c6 bebd
00000120: a9e4 a33c 3224 bd3c bdb9 123e 898d 063d
00000130: 8e25 113d 05cf 15bd df81 ce3c daca cb3b
00000140: d0b9 8a3c 67ce 533d fad1 2dbc 2fa1 683c
00000150: e7b6 01be a0c3 04bd 602b 31bd 71f4 76bd
00000160: 3a7c adbd cf3d 783c d89c 863d 3236 acbd
00000170: 8665 8d3c d25f f0bc 2f28 ad3d 120f e83c
00000180: b4b7 513d f61e 01be b506 8fbd cd6d ffbc
00000190: 6005 fc3d 0d51 cabc 34d3 f0ba 8c77 e13d
000001a0: 1ddf 77bd 9965 2b3d 775a 10bc 9ff5 ce3c
000001b0: dd63 253d 488f 023e c9d6 743d ea3e fdbd
000001c0: 5fd1 39be 74a9 2f3d 14be 2c3d fc47 8bbd
000001d0: a11d c53d b460 713d 28d4 dcbd 154f adbd
000001e0: c615 923d 11be c6bc 44d3 e53d d6c3 09bd
000001f0: f7bf f7b7 18af ab3d 8c1f a53c 8436 943c
00000200: 873e dfbc f62b debc 9e4a b13d 6a60 f53c
00000210: f184 98bd 18c2 69bd 1e70 b63b 4eda c53d
00000220: 3eea 82bd a509 96bd 22c6 8e3d d711 96bd
00000230: 55c2 463d 8852 babc c977 683d 8b64 b73d
00000240: aa1f 753d dd18 f7bc cde6 41bd ff8f 76bd
00000250: 5108 743b 4a17 e43c e827 ecbc b13e 96bd
00000260: 07ec 173c 8cfb 953d 4932 6ebd d627 9cbd
00000270: 4501 07bd 98c5 2f3d 777d 823c bbff f03c
00000280: 83f0 05bd b0a8 1a3d 4b34 47bd 6a5d a13c
00000290: dfd8 7bbd 78ae ca3b f0ff 863d 167a 65bd
000002a0: 359f ef3d 4ef4 01bd 059a 363c 44d1 843d
000002b0: 7429 173d 9459 fb3c c437 a73d 0086 173d
000002c0: 96ee 9d3c 96ee 06bc 8d91 2c3d 3b15 cfbb
000002d0: 808a 70bc 3b28 7c3d 5172 5b3b cb4f 243c
000002e0: 63d7 09bd 4d4a 86bd 4a66 40bd 0552 b13d
000002f0: d9ae 6e3d a403 403c ccbe 77bd e744 053c
00000300: 0721 70bd 310c d8bc 7955 8d3d dbea 66bd
00000310: 426d a1bd cc53 e0bc 6d3d a1bd ffc7 2cbc
00000320: 313b 703b f102 2c3d 20fa 913d eb1d aebd
00000330: 2077 353d 7400 5e3c dca5 dd3c 6edb aabd
00000340: c0bd 963c f132 5b3d 7066 253b 8df8 86bd
00000350: 7ab3 b23d 03de 4b3c 0971 333d 56e8 8c3d
00000360: 1cfa b23d 6c6f 92bd 054d b13c 46f8 4bbd
00000370: deed d83c 5b6c 19bd 93db e63c 495f f0bb
00000380: 276e c03a cdd9 003b 4703 ab3d 9e9f 143c
00000390: b41d 61bc d0f1 82ba 9511 933c a153 2cbd
000003a0: 6210 593d 2737 403d 124c 91bd 5b1f 57bd
000003b0: 81a7 363c 4bac e83c e624 993d 53f6 71bd
000003c0: 0405 4bbd 4db7 673d 2664 863c 1a28 f13b
000003d0: e4b9 a03d 6998 963a bb1f cdbc cb7c 243d
000003e0: 4593 863d 2d68 b23d 3b71 e03d 3726 993d
000003f0: ba7a a13d 41e8 993d 2d1c 973d 6647 39bd
0.08709821 -0.10966167 -0.050139032 0.057829425 0.030548617 0.0590821 0.01261738 0.096377455
0.077528335 0.054058768 0.067571685 0.02883184 0.09558692 0.09335207 -0.05693228 -0.024343852
-0.11665574 -0.026363427 0.1013487 -0.08204613 0.03907982 0.0644735 -0.06796895 -0.04213313
-0.13511263 -0.04426478 -0.0134339975 0.020896822 0.092943475 0.09387133 0.010122731 0.016249921
0.036329344 -0.060013067 0.025181767 0.026567932 -0.0355252 -0.028184153 -0.09857571 0.08101179
-0.049296033 -0.066331156 0.101427935 -0.017972711 0.061735317 0.1999754 0.0314649 -0.11661741
0.0059979716 -0.006246286 0.08238506 -0.022944625 -0.05777388 0.0648527 0.14385967 0.020952778
-0.006230766 0.041342013 -0.0037196346 -0.115840785 -1.9302512e-05 0.04926548 -0.010442155 0.026485097
0.09573364 -0.066830225 0.11168211 0.020541394 -0.035386357 -0.10499472 0.016334316 -0.09315292
0.020006495 0.023088548 0.14328666 0.032849822 0.035436206 -0.036574382 0.025208412 0.00621925
0.016934305 0.051710512 -0.010609144 0.014198585 -0.12667428 -0.032413125 -0.043254256 -0.06029171
-0.0847096 0.015151455 0.06572884 -0.084087744 0.017260324 -0.029342566 0.0845493 0.028327499
0.051200584 -0.12609467 -0.06983701 -0.031180287 0.12305713 -0.024696851 -0.001837349 0.1100913
-0.06051551 0.041844938 -0.008810631 0.025263606 0.04037844 0.1274997 0.059775148 -0.123655155
-0.18146275 0.042886212 0.04217346 -0.06800839 0.09624792 0.058930114 -0.10782653 -0.08462349
0.07133059 -0.024260553 0.11221936 -0.03363403 -2.9534085e-05 0.08383006 0.020156644 0.018092401
-0.027251495 -0.027120572 0.0865681 0.0299532 -0.074472316 -0.057069868 0.0055675646 0.09660779
-0.063923344 -0.07326058 0.069713846 -0.073276214 0.048525173 -0.022744432 0.05675486 0.08954724
0.05984465 -0.030163223 -0.04733925 -0.06019592 0.0037236402 0.027843136 -0.028827623 -0.07336176
0.009272582 0.073233694 -0.058153424 -0.076247856 -0.032960195 0.04291305 0.015928967 0.029418817
-0.032700073 0.03775853 -0.048633855 0.019697864 -0.06148612 0.006185349 0.06591785 -0.056024633
0.11700288 -0.031727128 0.01114512 0.06485227 0.036904767 0.030682363 0.08164933 0.036993027
0.019278806 -0.008235594 0.042130996 -0.0063196695 -0.0146814585 0.061561804 0.0033484886 0.01002879
-0.033652674 -0.065571405 -0.04697255 0.08658222 0.058272216 0.011719618 -0.060484692 0.008134103
-0.058625247 -0.026373 0.06901068 -0.05637632 -0.078821674 -0.027383707 -0.07873044 -0.01054573
0.0036656375 0.041994993 0.07127786 -0.085018 0.04430306 0.013549913 0.027056627 -0.08342634
0.018401027 0.05351538 0.002523806 -0.06590376 0.08725639 0.012443068 0.04380897 0.06880252
0.08739111 -0.07150158 0.021643171 -0.04979732 0.026480611 -0.03745685 0.028180873 -0.0073355776
0.0014681265 0.001966107 0.083502345 0.009071259 -0.013739992 -0.0009990279 0.01795272 -0.042071942
0.05299414 0.046927597 -0.070945874 -0.052520137 0.0111483345 0.028402468 0.07477741 -0.059072804
-0.04956533 0.056571294 0.016405176 0.007359517 0.07847956 0.0011489514 -0.025039544 0.040158074
0.06571058 0.08711276 0.10959097 0.07477992 0.07884736 0.07515002 0.07378421 -0.045234106

network.2.bias f4 [256]
00000000: dcbd 2e3d 5cc4 b73c 5112 713d 3daa a7bd
00000010: a1da 8a3d d9a4 823d 0b9e 8fbb 979a 833d
00000020: 151a d43d c9eb ce3d 67a3 e4bc 43ea bf3c
00000030: 0f18 0cbd e4d5 603d 5c81 86bd 9469 233d
00000040: 5817 40bd c809 8b3c e8d3 b83d 4cf4 993d
00000050: 904e 13bd acd9 8dbd c9ec 3d3d 922a b43d
00000060: 61fb ad3a d2fe 57bd 2f7b 9f3d 3deb 09bb
00000070: 834f a33d ffc0 543c 1054 afbd 57f1 c53d
00000080: 2b08 523d 53da 90bd 4458 183d 2e64 92bd
00000090: a3e3 09bc b9b5 8ebc 6243 243d 2799 ccbc
000000a0: b69f 74bd 3852 7f3d a0e0 aebd 412a 893d
000000b0: bb0e 243d 6573 c93d 26c2 c93d ae9e 433d
000000c0: 96a6 a93d 481b 493d 94e0 753d 5806 6ebd
000000d0: 2b9a c23d 1caf a5bc 3451 7a3d 6b87 293d
000000e0: 963a 18bd 2dc7 18bd 6e4f 40bd 6273 6cbd
000000f0: 024c 8b3d 5465 8b3d 37c7 b8bc 5f2e f03c
00000100: 3b2a 5d3c 402e 22ba 06ac 463c aca5 203c
00000110: 012e bcbc aa5d e13b f06a a83b 583f 9e3d
00000120: fdb3 ccbc 82f0 a23d 46d5 c83d b402 3d3d
00000130: 35b3 c13b dacc 173d 26ee 8ebc 35cf 363d
00000140: ad6e 97bc a845 d43c 40d7 24bd d3cd d3bc
00000150: 476e 0c3d 357b fdbb 92b9 59bd 734f 9f3d
00000160: c16e 973d 4100 e7bc 0e39 fc3c eb25 e63c
00000170: b165 913d e4ef 95bc 4fa9 bc3c 3a9d 8d3d
00000180: f2a1 0e3b 273c 7c3d b0a7 a3bc 1ba3 bc3d
00000190: 8e93 613d 8ea3 563d 1456 a13d 5915 28bd
000001a0: 9bb8 35bd c0bc 2ebd 68a9 b43d ba91 d03c
000001b0: 6d0a ba3d b441 1cbd 0e96 9d3d cebe 8ebd
000001c0: d5d4 ca3d 1437 80bd 7b9b 4abd 3d5f 03bd
000001d0: 13c7 a73c 277e 5b3d ed9c 95bc c31a 61bd
000001e0: 85cd b53d ca71 be3b 2817 ce3d 1c8a 55bd
000001f0: 2d95 b73c 36f1 88ba fd15 1a3d 13e0 7e3d
00000200: add5 92b9 e1de db3d 0250 653d eec5 81bc
00000210: 463a 563d 0c1a ba3d 883d 9f3d 246b 203c
00000220: 6a25 d43c ea05 c53b 3435 8bbd bb1d 833d
00000230: dfce dcbc 1a70 ac3c dbf6 8dbd 4eb1 e23b
00000240: 8d70 6c3d 7480 6e3c 0039 3abd 061c 6cbd
00000250: e75e a93d 5361 1cbd 1965 10bd 2138 30bd
00000260: c338 d23d 4003 f1bb bd3f 72bc 6c46 9b3d
00000270: 2930 3a3d b871 803d 765d 573d 4d7c 9b3d
00000280: 131a 89bd 4b7f 31bd e53e 79bd 6884 c73d
00000290: ca81 31bd 23a8 90bd 258f 77bd 46b5 28bd
000002a0: e146 c0bd 6e7d 6d3d e02c b13d 71f0 a03d
000002b0: 3263 5fbd 20e8 bb3c 5fb9 b63d 1e0b 51bd
000002c0: 9614 493c f2d2 143d 799d 2a3a 3647 bb3c
000002d0: e5c0 e8bc 34e0 5fbc a2f4 83bd 3fdd 81bd
000002e0: df78 44bd dd89 323d 82fb 0e3d abb4 9ebd
000002f0: 1236 87bd 5c55 3ebd 3b4a a2bd 0931 f4bc
00000300: ec7e 08bd 243d 233d af57 0c3d da9d 95bd
00000310: 9526 f4bc 9be3 5fbd a17c bbbd 5a96 433d
00000320: f7bd 903d 600d 8abd b10b 4e3c b738 153d
00000330: a9dc 89bd 240b c6bc 5491 be3d 3cb6 7d3d
00000340: 32df 9dbc 71f9 c2bc 494d b2bb 9beb c33d
00000350: c9d6 813c 042f 953d c398 f23c ffbd 203c
00000360: a399 a1bc e2f1 1e3d bc83 3d3d f8ac d13d
00000370: 5917 da3d 7c5c 893c b9a0 62bd 1179 90bd
00000380: 91a8 9ebd bded 23bb b336 f03c 55b9 143c
00000390: 2bbf 64bd 2619 873d 2517 c03d 705d a53d
000003a0: e40f 993c 5b4d 363c d8c1 aebc 14ca 6b3d
000003b0: 3e8f 7fbd 57da 003d 9b5a b83d df5d 32bd
000003c0: fa29 61bd 1d1d 8b3d 317d 213d 1fab a43d
000003d0: e1c2 a63d c620 9abd 3055 88bd 5055 4bbd
000003e0: 4b02 f33c c4c8 07bd 77df b53d cb2a 433d
000003f0: 5291 5f3d 41f8 ee3c 0524 37bc bae5 f63c
0.042661533 0.022432499 0.05885536 -0.08186767 0.067799814 0.063790984 -0.004382854 0.0642597
0.10356537 0.10103566 -0.027909948 0.023427134 -0.03420263 0.054891482 -0.06567642 0.03989561
-0.046897262 0.016972438 0.09024793 0.07517299 -0.035963595 -0.06926283 0.046368394 0.08797182
0.0013273769 -0.05273325 0.07787167 -0.0021044754 0.0797415 0.012985467 -0.085609555 0.096651725
0.05127732 -0.07072892 0.03719355 -0.07148014 -0.008416089 -0.017420636 0.040103324 -0.024975372
-0.059722625 0.06233427 -0.085389376 0.066975124 0.04005311 0.09836463 0.09851484 0.04775875
0.08283727 0.049098283 0.060028628 -0.05811152 0.095020615 -0.0202251 0.061112598 0.04138891
-0.037165247 -0.037299324 -0.04695075 -0.057727225 0.06801607 0.06806436 -0.02255593 0.029318986
0.013498838 -0.00061867014 0.0121259745 0.009805124 -0.022971155 0.0068776207 0.005139701 0.077269256
-0.024988169 0.079560295 0.09806304 0.046145156 0.0059112557 0.037060596 -0.017447542 0.0446312
-0.018485392 0.025912121 -0.04024434 -0.02585498 0.034284856 -0.0077356347 -0.05315549 0.077788256
0.073941715 -0.028198363 0.030788925 0.028094253 0.07099474 -0.018302865 0.023029951 0.06914754
0.0021764007 0.061580803 -0.01997742 0.092107974 0.05507236 0.05240207 0.07877746 -0.041035984
-0.044365507 -0.042660475 0.08821374 0.025460113 0.0908402 -0.038148597 0.07694636 -0.06969987
0.09903876 -0.06260505 -0.049464684 -0.03207325 0.020480668 0.053587105 -0.018263305 -0.054957163
0.0887709 0.0058119046 0.100630105 -0.052133664 0.02241 -0.0010447863 0.037618626 0.062225413
-0.0002800649 0.1073587 0.055984505 -0.01584145 0.052301668 0.09086999 0.07775408 0.009791169
0.025896747 0.006012668 -0.06797257 0.06402155 -0.026954113 0.021049548 -0.069318496 0.006918109
0.057724524 0.014556993 -0.045464516 -0.057643913 0.08270054 -0.038178753 -0.035252664 -0.04302228
0.10264733 -0.0073551238 -0.014785704 0.07581791 0.045456085 0.0627169 0.052579366 0.07592068
-0.066944264 -0.043334287 -0.060850997 0.09742051 -0.043336667 -0.070633195 -0.060439248 -0.0411885
-0.09388519 0.057980947 0.08651137 0.078583606 -0.05453796 0.022937834 0.089220755 -0.051035993
0.0122729745 0.036333986 0.00065084506 0.022861104 -0.028412292 -0.013664294 -0.064431444 -0.063410275
-0.047966834 0.043588508 0.034907825 -0.077493034 -0.0660211 -0.046468124 -0.079243146 -0.029808538
-0.033324167 0.03985323 0.03426331 -0.073054984 -0.029803554 -0.05466042 -0.091546305 0.04775081
0.07067483 -0.06740832 0.01257603 0.03643104 -0.06731541 -0.024175234 0.09305063 0.06194137
-0.019271467 -0.023800584 -0.005441342 0.095664226 0.015849488 0.07284358 0.029613858 0.009810924
-0.01972658 0.038804896 0.04626821 0.10238069 0.106489845 0.016767733 -0.05532906 -0.070543416
-0.07746995 -0.002501353 0.029322958 0.00907739 -0.055846374 0.065965936 0.093794145 0.080744624
0.018684335 0.011126841 -0.021332666 0.057565764 -0.062392466 0.031458225 0.090016566 -0.043546554
-0.054971673 0.06792662 0.039426032 0.08040451 0.08142639 -0.07525782 -0.06656873 -0.049641907
0.02966418 -0.03315045 0.08880513 0.047648232 0.054581948 0.029171111 -0.011178021 0.030138839

network.4.weight f4 [9, 256]
00000000: 1e34 9bbb 346a 573d 7e72 8b3d 1e80 4d3d
00000010: 0d05 253c 8a61 a23c 12aa f2bd 078f ec3d
00000020: 5724 32bd 0945 693c 3048 6b3d c5da ecbd
00000030: a623 173d 0918 dc3d f8ad 0e3d 61b3 c83c
00000040: 7052 19bd f308 6bbc 131c af3d ec63 053d
00000050: ab9d 0dbd 5031 863c 8d2f 49bd 8a6b 04be
00000060: 02b3 e1ba f770 0e3d 3319 0dbe 1b90 be3d
00000070: dbc9 913d 147f 323d f81b 0c3d 3290 ba3c
00000080: f20c 793d 7125 333d 20a8 973b f412 f6bc
00000090: 41b4 163d b9c9 9c3d 2e6f a63b daeb 713b
000000a0: 0077 0f3d 4eb5 bfbb 801f c03b cfe1 b33d
000000b0: e196 3bbd 8b2b 1d3d f4d0 75bd 7ec9 ffbd
000000c0: 033c 92bd 104a aebd d091 d2bc d50d 993d
000000d0: 28c7 16bd 92a0 bf3d a77a 02bc bd00 51bc
000000e0: 404e a23b 5fee 36bc ac90 313c 0e0d 8fbb
000000f0: 7494 f13d 0ae4 c83c 4004 54bd a2bc 9a3d
00000100: 025c 7ebd 83b5 9b3d d742 fabd aa1d d63c
00000110: a10e 9c3d e182 443d fb3c 41bd 91a6 eebc
00000120: 3ed3 dcbd 5893 7c3b 07ac 953d 2245 a23d
00000130: 1250 863d 0024 2539 7d68 aa3d 0fd9 0bbc
00000140: d8e8 5c3d 801b ac3d 01d2 393d a8f4 fdbc
00000150: 4c24 ac3c 2d1c 503d 31dd 883d bfa1 bfbd
00000160: 7739 9ebd d10c c1bd 2830 d03d 55a4 6b3c
00000170: 7de8 ea3c 3e40 7dbb 814d 973d b843 903d
00000180: 552f 0139 e76c 9b3d 6d86 8c3d 0225 1bbd
00000190: 1379 8ebb a641 6aba 91e2 af3d ba0d 533c
000001a0: 8b66 743d 1491 fd3d ea62 803c dff8 bbbb
000001b0: dd00 773b c144 71bd ba92 2d3d d9e0 2dbd
000001c0: d6aa 833d 7803 1bbd 40dd 2a3d 8424 063d
000001d0: 009c b1bd edca 163d 8b94 2e3d 3ded d13c
000001e0: 0b76 6e3d 81aa 643c 5147 b93d 6cc4 b53c
000001f0: a374 8cbd 1f22 e43d 6b04 553d 7875 4e3a
00000200: e154 b13c e790 7ebd 86f3 f8bd 0cde 713d
00000210: 3c1e 15bd 858f 9ebd e682 aabc ca50 533d
00000220: d296 07bd d940 23bd dbe1 adbd d296 c4bc
00000230: 0549 4a3d 8e39 123d b0df 633d fbf8 f2bc
00000240: 14cc 8dbd 08d2 9b3c 28b8 0abc cb2a 77bd
00000250: 2c5a dcbd 452c 12be 5912 28bd 7099 da3c
00000260: 3084 7b3d 8371 cabc 6817 56bc c417 93bd
00000270: 7a2a 47bd f4b0 54bc 4ecf c2bd 80bd 82bc
00000280: 7f28 b7bc a172 09bb 34bc 6bbd 535b 9e3d
00000290: 08c5 a33a 3001 d73b 1790 a7bc 2c37 48bd
000002a0: 6456 2cbc 844f 29bc 533f b13d 3615 b03b
000002b0: 00f2 0db9 26d2 edbc 5636 953d c4ac 8b3d
000002c0: 2aaf f8bd ce62 edbc 0d1a 903d 69f4 e0bd
000002d0: fca1 71bb 7188 54bc 4649 963d a14f 75bd
000002e0: 81bb 85bd b714 a7bd 7f38 753d 952b 5dbd
000002f0: d054 c53b 867a 1e3d d849 88bc ccce 2abd
00000300: fb62 a7bd 1ad7 0fbc a13d 8bbd 4029 3a3c
00000310: cecd 12bd 90f4 16bd 0e26 823b 9cc5 5a3d
00000320: 7984 56bd b540 88bd 0000 10ba 7e23 783d
00000330: 9c0a 1abd 294f 873d a0d0 0a3d 6fd9 15bd
00000340: 022a e8bd f9d9 093d 81b1 1e3d 88e5 8abd
00000350: 3ae3 cabd 4c76 263c 4272 53bd b31e 04bd
00000360: ccf7 2abd a0b5 dd3c 37f9 b5bd 6bef 823d
00000370: e3a9 ed3d 7970 f93a 0919 dc3d 39f6 31bd
00000380: dc0b d83c 4b8e f33b c02e c83c 364d ca3c
00000390: ed5f dc3d 9d28 32bc abf9 e93d 3589 e43c
000003a0: 9916 b43d 6037 03bc 24f4 54bd aa5d 9d3d
000003b0: a8b7 8d3c 6dad a03d 9775 083b 1002 0bbd
000003c0: 7055 bb3d 2e27 2cbd d346 0ebd 77ab 493d
000003d0: 320b e33d 992b 44bb 1250 dcbd 8f8c b33d
000003e0: 3afe 983d 6e61 8fbd ec70 823d 1016 cf3c
000003f0: 311c a9bc 5481 583d aef7 c43d 63f7 9d3d
-0.0047364375 0.052591518 0.06808947 0.05017101 0.010072005 0.0198219 -0.118488446 0.11550718
-0.043491688 0.014237651 0.05744189 -0.115651645 0.03689923 0.10746772 0.03483388 0.024499597
-0.037432134 -0.014345395 0.085502766 0.032565996 -0.034574192 0.016380936 -0.049117614 -0.12931648
-0.0017219486 0.0347757 -0.13779144 0.0930483 0.07118579 0.043578222 0.03420636 0.022773836
0.06080336 0.04373688 0.0046281964 -0.030038334 0.036792997 0.07655663 0.0050791716 0.003691426
0.035025597 -0.0058504706 0.00586313 0.08783304 -0.045798186 0.038371604 -0.060013726 -0.124896035
-0.071403526 -0.0851022 -0.025704294 0.074733414 -0.036811024 0.09356798 -0.007963813 -0.012756524
0.004953176 -0.011165231 0.010837715 -0.00436557 0.11795893 0.0245228 -0.051761866 0.0755551
-0.062099464 0.0760298 -0.1221978 0.026137192 0.07619978 0.04797638 -0.047177296 -0.02913216
-0.10782479 0.0038539972 0.07308202 0.07923342 0.06558241 0.00015749037 0.08320711 -0.0085356375
0.053932995 0.08403683 0.04536629 -0.03100045 0.021013401 0.05080812 0.06682814 -0.093570225
-0.07725804 -0.09426273 0.10165435 0.0143824415 0.028675312 -0.0038643028 0.073878296 0.07044166
0.00012320031 0.07589131 0.06861577 -0.03787709 -0.0043479293 -0.0008936174 0.08588136 0.012881691
0.059668105 0.12381187 0.015672166 -0.005736455 0.0037689724 -0.05890346 0.042376257 -0.04245076
0.06429069 -0.037845105 0.041714907 0.032749668 -0.08672333 0.03681462 0.04262213 0.02562582
0.058218043 0.013956667 0.09046806 0.022188388 -0.06858184 0.111393206 0.052006166 0.00078757806
0.021646919 -0.06214991 -0.121558234 0.05904965 -0.036405787 -0.07742218 -0.02081437 0.05159072
-0.033102818 -0.039856765 -0.08490344 -0.023997698 0.049386043 0.03569942 0.055633247 -0.029659739
-0.069236904 0.01902105 -0.008466758 -0.060343545 -0.107593864 -0.142747 -0.041033123 0.026684493
0.06140536 -0.02471233 -0.013067104 -0.07182267 -0.048624493 -0.012981642 -0.095121965 -0.015959501
-0.022358177 -0.0020972865 -0.05755253 0.077322625 0.0012494633 0.006561421 -0.02045445 -0.04888074
-0.010518644 -0.010333899 0.08654656 0.0053736223 -0.0001353696 -0.02903087 0.072857544 0.06820062
-0.12142785 -0.028977778 0.07036219 -0.109841175 -0.0036870232 -0.012971983 0.073381945 -0.059890393
-0.06529904 -0.08158248 0.059868332 -0.05399664 0.0060220733 0.038691066 -0.016636774 -0.041701123
-0.08173176 -0.008779312 -0.06798864 0.011362374 -0.035840802 -0.036854327 0.0039718216 0.05341111
-0.05237243 -0.06652967 -0.0005493164 0.060580723 -0.037607774 0.066068955 0.033890367 -0.036584314
-0.11336137 0.03365514 0.0387435 -0.06782061 -0.09906621 0.01016004 -0.051622637 -0.03225584
-0.041740224 0.027064145 -0.088854246 0.063933216 0.11604669 0.0019030712 0.107469626 -0.043447707
0.026372842 0.007432734 0.024436355 0.02469502 0.10760484 -0.010873941 0.114245735 0.027897457
0.08793373 -0.008008808 -0.051990643 0.076838806 0.017299488 0.07845578 0.0020822042 -0.033937514
0.09147155 -0.042029552 -0.034735512 0.049235787 0.1108612 -0.0029933213 -0.1075746 0.08767044
0.07470365 -0.07001005 0.063691944 0.025279075 -0.020643326 0.052857712 0.09617554 0.07713201

network.4.bias f4 [9]
00000000: 3864 803b 6b66 a43c 0035 363b 8f51 5f3d
00000010: 9793 c2bc b761 d53c 59c2 68bc 5757 243c
00000020: 82ff 80bd
0.003918197 0.020068368 0.0027802587 0.05452114 -0.023752017 0.02604757 -0.014206492 0.010030589
-0.06298734
