models/actor4000.pth (torch, 148423 bytes, 6 tensors)

network.0.weight f4 [128, 9]
000000 71 16 9e 3e 7c 63 f4 3d 8f b4 0a 3e 1e 1f 72 3e
       0.30876496 0.11933038 0.1354544 0.23644683
000010 0d 3b 0c be 5a 74 22 be 5c 1e c5 be 16 18 83 be
       -0.13694401 -0.15864697 -0.38499725 -0.25604314
000020 52 bb 8e 3e c3 fe 6c bc 81 63 9f 3e 61 fb 88 bb
       0.2787729 -0.014465037 0.31130603 -0.0041803573
000030 2a 09 6a be cb bf 17 3e 7b 89 5c 3e 99 41 a5 3e
       -0.22855058 0.14819257 0.2153682 0.3227661
000040 2a 99 d2 bc a6 ed 6a be 3c d2 27 be 09 54 c3 3b
       -0.0257078 -0.22942218 -0.16388792 0.0059609455
000050 55 55 a2 3e f6 42 86 bd 65 b5 ed bc 33 63 55 bd
       0.31705728 -0.065557405 -0.02901716 -0.052096557
000060 f3 76 40 3e a3 17 01 bc df f5 6a be e3 3b 67 be
       0.18795376 -0.007879171 -0.22945355 -0.22581439
000070 a4 da 6e be 0b 42 7a bd 01 6b f5 bd d9 8c 0d 3e
       -0.23325592 -0.06109814 -0.119833 0.1382326
000080 b0 3d 97 be 8a 0f 71 3e 10 af 0b 3e 5d 96 cf 3e
       -0.2953925 0.23541084 0.13641 0.40544406
000090 01 88 53 3e 59 44 8b 3e 3d 0c 80 3e 5c 60 c0 bb
       0.2065735 0.27200583 0.25009337 -0.005870862
0000a0 8d ed fe 3d e1 06 5d 3e 94 ca c0 3c f1 a8 47 be
       0.12447653 0.21584655 0.023534097 -0.1949804
0000b0 24 02 96 be 7b 02 86 3e 4f f8 e8 bc da 15 f7 bd
       -0.29298508 0.26173767 -0.028438715 -0.12064715
0000c0 4b c9 b7 3e 46 32 36 3c 22 56 a0 3c 3a c8 da bd
       0.35895762 0.011120385 0.019572321 -0.106827214
0000d0 5c 55 40 3e 70 1c 2e 3d 0e e2 2e bd c1 eb e6 3d
       0.18782562 0.04250759 -0.04269605 0.11275435
0000e0 cf d8 58 3e 85 cf 49 be f0 07 20 bd 2b 25 2c be
       0.21176456 -0.19708069 -0.03907007 -0.16811053
0000f0 fa 54 c0 3e 7e b7 aa 3e 54 20 87 be 2a 0a 34 bd
       0.37564832 0.33343118 -0.26391852 -0.043955006
000100 7f ee 8b 3e 37 42 04 3e a7 bf 92 3e 82 c6 8b bd
       0.27330396 0.12915884 0.28661844 -0.06824972
000110 20 f2 67 3e f6 14 d4 3d a3 ac 86 3e 07 41 62 be
       0.22650957 0.103555605 0.26303586 -0.22095118
000120 4d ae 0a 3e 52 4e 9b be 5e af 4d be 86 76 96 3d
       0.13543053 -0.3033319 -0.20086429 0.07346825
000130 1f 09 93 be 1f 9d f5 bd e8 bc aa 3d 19 52 48 be
       -0.28717896 -0.11992859 0.08336812 -0.19562568
000140 c0 77 c6 bd 37 e0 a5 bd cc fd 81 be 14 5c a6 3e
       -0.09690809 -0.08099406 -0.25388944 0.32492125
000150 db 32 66 3d ff 41 a2 be 65 e8 a4 3e ce 4b 8d 3d
       0.056200843 -0.31690976 0.32208553 0.06899224
000160 26 64 23 be e0 e8 a8 bd 8c a6 0f 3e 15 8f 31 3e
       -0.15956172 -0.082475424 0.14028376 0.17339738
000170 73 11 03 3e 78 e5 94 be 5d b7 87 3e ef 90 27 bd
       0.12799625 -0.2908132 0.26507083 -0.040909704
000180 3f e3 91 bd 7a 4e 7f be 7c 91 f1 bb 77 56 25 3e
       -0.07123422 -0.2493228 -0.0073720794 0.16146265
000190 28 e2 1b 3e 34 97 0e 3e 85 f7 d7 3d d1 4e 25 3d
       0.1522299 0.13924867 0.105452575 0.04035837
0001a0 b7 87 b4 bd 7a b1 f7 3c dd 02 99 be ba 71 20 3e
       -0.08814948 0.030235995 -0.29884997 0.15668383
0001b0 54 29 20 bd be bf ad 3e 2f 48 a8 3e de c8 3d 3e
       -0.039101914 0.3393535 0.32867572 0.18533656
0001c0 08 c8 66 bd ba 0f 7b be 90 bb 3f 3e 58 46 50 3e
       -0.05634311 -0.24517718 0.18723893 0.20339334
0001d0 da 7d 5c be a2 59 92 be 6e 66 e0 bd e8 ca b3 3e
       -0.21532384 -0.2858401 -0.10957037 0.35115743
0001e0 a6 0b a4 3e e4 44 16 3e 7b 0d ba bd c4 36 94 be
       0.32040137 0.14674717 -0.090846024 -0.28948033
0001f0 b8 91 8c be c1 15 b1 bd fd 2d 93 be bc 22 0a 3e
       -0.27454925 -0.08646727 -0.28746024 0.13489813
000200 0e 68 25 be d1 12 5a 3e 30 d7 ed bd 89 9a bc 3e
       -0.16152975 0.2129624 -0.116133094 0.3683665
000210 88 b5 1b 3e 50 d8 09 3e a6 b1 8f 3e eb 5f 8f 3d
       0.15205967 0.13461423 0.28065223 0.07000717
000220 46 3f c9 bc da f5 01 bd bc e2 9e be 29 68 c0 3e
       -0.024566304 -0.031728603 -0.3103236 0.37579468
000230 0d f8 27 be 85 e7 eb bb 7f fe 69 3e 60 c7 8e 3e
       -0.16403218 -0.00719923 0.22850989 0.27886486
000240 25 75 24 3d f9 9b 6a 3e 58 07 90 be 62 b7 b9 be
       0.04015078 0.22911061 -0.28130603 -0.36272722
000250 48 dc 36 bd 74 92 7e 39 fb 8b d6 3d c8 20 82 3e
       -0.04464367 0.00024277886 0.10475918 0.25415635
000260 f9 31 c0 3d 57 90 c6 bd 35 4e 54 3e b4 6f c5 bb
       0.093845315 -0.096954994 0.20732959 -0.006025279
000270 3f 5e 9a 3e 2e ed 97 be ef 95 34 3e e7 8b ca 3d
       0.3015003 -0.2967314 0.1763532 0.098899655
000280 4e f5 8c be d7 4a ad be 41 c0 56 be 9b 21 94 3c
       -0.27530903 -0.3384616 -0.20971777 0.01808243
000290 f3 83 af bd 86 31 50 3e eb 21 ea bd 11 cc 15 bc
       -0.08570089 0.20331392 -0.114322506 -0.0091428915
0002a0 d0 43 95 3e 08 5a 7e be f6 dd f2 bb 43 36 0d be
       0.291533 -0.24839032 -0.0074117137 -0.1379023
0002b0 30 06 53 be d6 59 cf bd 76 d6 22 be 13 51 1d 3e
       -0.20607829 -0.10124557 -0.15902123 0.15362959
0002c0 5a 0c 95 3e 8b 8b 01 bd 43 6c 7e be 3e 03 99 be
       0.29110986 -0.03162722 -0.24845986 -0.29885286
0002d0 f5 0c 97 3e 65 47 f9 3d 8c 38 ba bd 66 60 30 be
       0.29502073 0.121718206 -0.09092817 -0.17224273
0002e0 94 7d 64 be 1b bb 13 be de ef 00 be 23 63 10 be
       -0.22313529 -0.14426844 -0.12591502 -0.14100318
0002f0 0e 6f ba 3e 7b e7 38 be bd e2 3a 3e c7 2a 93 3e
       0.36412853 -0.18057053 0.18250556 0.28743574
000300 8a d5 3f 3e 1b e1 48 3e 08 d8 1b be 6b ab 86 3e
       0.18733802 0.19617121 -0.15219128 0.26302657
000310 65 70 99 be d5 1a a3 be 4b 00 8e bd e8 f6 5a be
       -0.29968563 -0.3185641 -0.0693365 -0.2138325
000320 6f 51 8c be b8 ef 14 3e 87 22 81 be 83 f9 49 3e
       -0.2740588 0.1454457 -0.25221655 0.19724087
000330 26 bb c6 bd d6 ea 25 bd 46 9a e0 3d 48 3a 66 be
       -0.097036645 -0.04050716 0.10966925 -0.2248317
000340 ab bc d8 bd 04 d1 93 be 03 ec 40 be 6e f0 09 be
       -0.105828606 -0.28870404 -0.18840031 -0.13470623
000350 a6 15 87 bd 60 be 60 3d 8a 06 9c be 1e 92 01 3e
       -0.06595926 0.054869056 -0.3047374 0.12653396
000360 2c 93 3a 3e 37 00 64 bd d7 f9 b3 bb 09 ec a4 be
       0.18220204 -0.055664267 -0.0054924297 -0.3221133
000370 96 91 56 3e 26 d5 90 3e df e6 13 be 00 61 3d bd
       0.20953974 0.2828762 -0.14443539 -0.046235085
000380 75 e6 ab be 08 32 6b 3e 5a bd 4e 3e e9 88 64 be
       -0.33574262 0.22968304 0.2018942 -0.22317852
000390 ce af 87 bc 97 d9 b6 3e 2d b1 b7 3b 4b ec 6a 3d
       -0.016563322 0.35712883 0.005605838 0.057354253
0003a0 21 81 8b be 33 4e c3 bd 22 a3 11 3e 00 19 d5 bd
       -0.27246955 -0.095364 0.14222386 -0.10405159
0003b0 e2 fc 80 3e 52 9e a1 be 31 a7 58 3e 27 db f9 bd
       0.25192934 -0.315661 0.21157528 -0.12200003
0003c0 fe 64 23 be 5f e5 0e 3e b6 02 67 be 27 6a 45 3e
       -0.15956494 0.13954686 -0.22559628 0.19278775
0003d0 6d b3 74 bb eb cf b2 3e 4d e2 53 be 4f 2f 30 3e
       -0.0037338391 0.34924254 -0.20691796 0.17205547
0003e0 8b bf 92 3e 75 4c 3e be 7d 8e 29 be ff 87 57 be
       0.2866176 -0.18583854 -0.16558261 -0.21047972
0003f0 b4 9d 85 3e 4d dc 9b 3e a5 e9 ee 3d ea 8c 5b 3e
       0.2609688 0.30441514 0.11665658 0.21440473

network.0.bias f4 [128]
000000 7b 16 0a 3e a6 95 1a be 03 b5 0c 3e f6 81 43 3e
       0.13485138 -0.15096149 0.13740925 0.19092545
000010 05 2a 0a 3d 6a f4 2f be f5 d3 98 3d 28 eb 71 3e
       0.03373148 -0.1718308 0.074623026 0.23624861
000020 c9 4b e0 3d 0e 30 73 3e ff 9a 80 be 78 46 81 be
       0.10951955 0.237488 -0.25118253 -0.25249076
000030 71 00 52 be 58 8f 81 3e ae 10 62 be 8d e9 ed bd
       -0.20507981 0.25304675 -0.22076675 -0.11616812
000040 bd 26 de 3d 67 54 83 3c fd 4f 52 bc c0 11 a5 bc
       0.108472325 0.016031457 -0.0128364535 -0.020150065
000050 34 f7 11 3e e9 49 8d bd 36 75 5b 3d f8 01 5f be
       0.14254457 -0.06898863 0.053578578 -0.21778095
000060 11 09 61 3e 9a 9e 61 3e fb 30 a0 bd 6f 79 8c bd
       0.21976115 0.22033158 -0.07821842 -0.06859099
000070 9b 27 ac 3d 26 f6 6c 3e f7 3f 32 be fe d8 89 3e
       0.08405992 0.23140773 -0.17407213 0.26923364
000080 a4 3b 61 3e b6 b0 6d 3d 0d 06 96 3e 48 45 a5 3d
       0.21995407 0.058029853 0.2930149 0.08069855
000090 96 05 87 3d 36 7d a3 bc 34 19 4b 3e f1 33 d3 3d
       0.06592862 -0.019957166 0.19833833 0.103126414
0000a0 4b 16 99 3e 46 dd ef bc 47 ab 86 3e 0c ae 26 be
       0.2989982 -0.029280316 0.2630255 -0.16277331
0000b0 41 5b ab 3e 95 43 c4 3e 95 40 43 3c 31 5c 31 3e
       0.3346806 0.3833281 0.011917253 0.17320324
0000c0 fc e9 96 bc 2c ba 6a 3e 9d bc 68 be a0 b1 a7 3e
       -0.01842212 0.22922581 -0.227282 0.32752705
0000d0 52 d0 31 3d 9b 3c f4 3c c0 21 28 3e 10 9a a6 be
       0.04341156 0.029814055 0.16419125 -0.32539415
0000e0 37 aa 6e be d9 91 ec 3d f1 97 ce 3d ed 0c 62 bd
       -0.2330712 0.11551256 0.10087574 -0.05518811
0000f0 7f 21 69 be eb 69 8d be 37 14 9b be c0 d8 70 3e
       -0.22766684 -0.27619871 -0.3028886 0.23520184
000100 c7 53 a8 3e ca 1c 80 be b5 93 d5 3d 42 ae a1 be
       0.32876417 -0.25021964 0.104285635 -0.3157826
000110 b8 1a 11 3e 12 cc 83 3e de 09 02 bb d2 85 9a 3e
       0.14170349 0.2574163 -0.0019842307 0.30180222
000120 14 9e 29 3e 16 28 de bc 24 b9 af 3e e8 08 75 be
       0.16564208 -0.027118724 0.3432094 -0.23929179
000130 46 6f 45 be 16 8e 88 3e 1b 38 04 3e 06 da a1 3e
       -0.19280729 0.26670903 0.12912028 0.3161165
000140 c5 9e 1e 3d 5b e1 b2 3e 73 53 44 3c 1f eb a6 bd
       0.038725633 0.34937558 0.0119827865 -0.081503145
000150 e4 a5 92 be 01 71 7f 3e 47 72 7e be af 9f 7b bd
       -0.2864219 0.24945451 -0.24848281 -0.061431583
000160 65 78 4d 3e 00 0e c5 bd 59 17 01 bd 06 2a 66 3e
       0.20065458 -0.09621811 -0.031516407 0.22476968
000170 cf 5d 84 be b2 ce 9f bd 15 14 a0 3e 22 75 7d be
       -0.2585282 -0.07803096 0.3126532 -0.24751714
000180 3d ac 60 be 54 91 20 3e 76 f8 f3 bd aa d2 5f be
       -0.21940704 0.15680438 -0.119126245 -0.21857706
000190 5e ae d1 bc bb 5f b2 3d a2 0e ec 3d 29 22 a0 3d
       -0.02559584 0.087096654 0.115262285 0.078190155
0001a0 af a1 84 3e d5 7c be bd 54 5e 20 3e 8d ff 51 3e
       0.25904605 -0.093011536 0.15660983 0.20507641
0001b0 eb 9d 10 3e e3 0c 35 be 22 23 9f bd ac 8a cb 3e
       0.14122741 -0.17680697 -0.07770373 0.39754236
0001c0 99 ca ca 3d 79 9a a3 be 44 56 6c 3e de 57 44 3d
       0.09901924 -0.3195379 0.23079783 0.04793536
0001d0 a9 2d b1 3e 74 09 e2 3d c0 d1 f3 bd fe c4 5a bd
       0.34605148 0.11036959 -0.11905241 -0.053410523
0001e0 63 3d 2d 3e 69 37 0b 3e b3 e7 33 3e 1e 33 64 be
       0.16917948 0.13595356 0.17568855 -0.22285125
0001f0 0d f1 8c 3d 5f 48 99 be c7 1e 86 3d 4b 26 5f bc
       0.06881914 -0.29938027 0.06548839 -0.01361997

network.2.weight f4 [256, 128]
000000 bf f6 ae 3d e5 65 de bd 29 e1 43 bd cf 39 67 3d
       0.08543157 -0.108592786 -0.04782215 0.056451615
000010 04 7b f9 3c c2 ba 64 3d c8 cc 57 3c 05 86 c7 3d
       0.030454166 0.05584217 0.013171382 0.09742359
000020 8b 8c 8e 3d 31 90 66 3d 23 f8 86 3d e4 df e4 3c
       0.069604 0.056289855 0.06590297 0.02793879
000030 8c f6 c4 3d e8 85 be 3d 84 b6 73 bd 65 7c d7 bc
       0.096173376 0.09302884 -0.059500232 -0.026304433
000040 9a ee eb bd 7d 11 da bc c5 fc d2 3d cd 07 a8 bd
       -0.11520119 -0.026619667 0.10302118 -0.08204613
000050 5e f8 18 3d 02 b9 88 3d 4e 33 8b bd ca 93 2c bd
       0.037346236 0.066759124 -0.06796895 -0.04213313
000060 bc 8e 0a be 1c 68 3b bd ea 50 66 bc f6 32 a7 3c
       -0.13531011 -0.045753583 -0.014057377 0.020410042
000070 ba 1d bd 3d 36 8b bf 3d 34 06 26 3c 3f ba 82 3c
       0.092341855 0.09352724 0.010133315 0.01595795
000080 b3 7f 0e 3d 43 d0 75 bd bd ed c4 3c 2a 22 cb 3c
       0.034789752 -0.060013067 0.024039144 0.024796564
000090 d7 77 19 bd 29 e1 e6 bc 8f c3 c5 bd f7 96 a3 3d
       -0.037467804 -0.028183537 -0.096564405 0.07987779
0000a0 45 08 3e bd 62 ee 88 bd 2b 79 cf 3d ad f6 99 bc
       -0.046394605 -0.06686093 0.10130533 -0.018794382
0000b0 b2 82 7e 3d 2b c3 4a 3e 4c 1d f6 3c af 74 f0 bd
       0.06213636 0.19801013 0.030043267 -0.11741006
0000c0 c7 ef e4 3b 3f e6 5a bc bc 5f a7 3d b1 ee b4 bc
       0.0069865915 -0.013360559 0.08172557 -0.022086473
0000d0 74 2c 6f bd 42 19 82 3d 73 4c 10 3e 29 a5 ab 3c
       -0.058392003 0.06352474 0.14091663 0.020952778
0000e0 70 a5 d0 bb 7c 0f 29 3d 2f 28 2d bb 8b 9d e7 bd
       -0.006367378 0.041274533 -0.0026421656 -0.11309346
0000f0 05 54 94 ba dd ac 35 3d 87 fb 2c bc 0b 63 dd 3c
       -0.0011316544 0.04435431 -0.010558016 0.027024766
000100 b2 7b be 3d 49 de 88 bd 21 59 e5 3d 6d 46 a8 3c
       0.09300937 -0.066830225 0.111986406 0.020541394
000110 49 f1 10 bd 97 f5 d9 bd e8 d4 82 3c 91 af b9 bd
       -0.035386357 -0.10642546 0.015970662 -0.0906669
000120 a9 e4 a3 3c 32 24 bd 3c a2 de 12 3e 40 a5 11 3d
       0.020006495 0.023088548 0.1434274 0.035557985
000130 8e 25 11 3d 3c b6 1c bd 40 55 df 3c 8f e0 83 3b
       0.035436206 -0.03825973 0.02726233 0.004024572
000140 43 6f 88 3c 02 af 4d 3d b3 8b 44 bc e8 9f 42 3c
       0.016654616 0.05021573 -0.0119961975 0.011878945
000150 a0 fd 07 be 8d 38 01 bd d7 7a 4e bd 06 cf 77 bd
       -0.13280344 -0.03154807 -0.050410118 -0.060500167
000160 8d 5a ae bd cf 3d 78 3c 67 a0 85 3d 2d 3c aa bd
       -0.08513365 0.015151455 0.06524735 -0.08312259
000170 86 65 8d 3c 5b ae cb bc 99 05 ab 3d be 08 ad 3c
       0.017260324 -0.024863413 0.08350677 0.021122333
000180 39 ee 4e 3d b7 f4 fc bd b5 06 8f bd 21 93 02 bd
       0.050520156 -0.12351363 -0.06983701 -0.031878594
000190 20 00 f5 3d 0d 51 ca bc f1 55 8a bb f9 69 e2 3d
       0.119629145 -0.024696851 -0.004221671 0.11055369
0001a0 db ce 7f bd 63 d0 26 3d c2 12 2d bc 3f a5 be 3c
       -0.062453132 0.040726077 -0.010563554 0.023272155
0001b0 91 12 25 3d af 2c f8 3d 9a 63 75 3d c5 08 01 be
       0.04030091 0.12117898 0.05990944 -0.12601002
0001c0 93 d7 35 be 74 a9 2f 3d c5 00 2b 3d 57 a6 8a bd
       -0.17758016 0.042886212 0.04174878 -0.06770008
0001d0 6a b8 c5 3d 27 66 69 3d 81 72 d7 bd 8a 65 a3 bd
       0.09654315 0.056982186 -0.10519887 -0.079783514
0001e0 a2 08 92 3d 48 3d bd bc 04 3d e6 3d d6 c3 09 bd
       0.07130553 -0.02310051 0.112421066 -0.03363403
0001f0 f0 d0 8c 38 58 a6 ac 3d 02 0b ad 3c 1a ea 5c 3c
       6.714638e-05 0.08430165 0.021123413 0.013483549
000200 90 aa b8 bc c2 c7 c7 bc 3c 48 aa 3d 1f 58 dd 3c
       -0.022542268 -0.024387244 0.08314559 0.027019558
000210 0a de 92 bd 86 87 51 bd de 71 91 3b 7e 88 c6 3d
       -0.07171257 -0.051154636 0.004438623 0.096940026
000220 db 4a 45 bd d1 30 8b bd 59 5a 95 3d 71 87 87 bd
       -0.04816709 -0.0679642 0.07292623 -0.0661763
000230 71 57 42 3d b0 11 c0 bc bd 7e 82 3d 09 8c b3 3d
       0.047446672 -0.023445934 0.0637183 0.08766944
000240 8d 54 78 3d 93 d6 e6 bc 0a bb 41 bd ff 8f 76 bd
       0.06062751 -0.028178489 -0.047297515 -0.06019592
000250 69 de 30 3c 59 27 de 3c e8 27 ec bc b1 3e 96 bd
       0.010795214 0.027118372 -0.028827623 -0.07336176
000260 10 69 45 3c 5d a1 9b 3d 40 e5 6b bd 35 d3 94 bd
       0.012048975 0.07599137 -0.057591677 -0.07266847
000270 78 58 e7 bc d9 ea 39 3d 27 ab 9e 3c fe 2e 01 3d
       -0.028240427 0.045389984 0.019368721 0.031538956
000280 56 87 0b bd b0 a8 1a 3d 9f a2 47 bd b5 f9 a2 3c
       -0.034064613 0.03775853 -0.048739072 0.01989446
000290 f2 49 62 bd b7 ee 22 3c ab d1 8c 3d 2d 93 55 bd
       -0.0552463 0.009944609 0.068759285 -0.05214231
0002a0 70 59 ee 3d ee a3 fe bc f4 83 6a 3c 8a fb 83 3d
       0.116381526 -0.031084027 0.014313687 0.06444462
0002b0 15 57 1e 3d 17 12 04 3d 7d d9 b0 3d 36 13 19 3d
       0.038657267 0.032243814 0.086352326 0.037371837
0002c0 4a a6 ba 3c 9a 63 3a bc 69 f5 3e 3d b7 83 02 bc
       0.02278437 -0.011376286 0.04662076 -0.007965974
0002d0 7a 61 4a bc 04 03 83 3d e8 fc a3 3a cb 4f 24 3c
       -0.012352342 0.063970596 0.0012511285 0.01002879
0002e0 a6 c8 00 bd 09 07 8a bd ae 1f 33 bd ab dc bd 3d
       -0.031441353 -0.06739623 -0.043731384 0.09270605
0002f0 85 d6 7e 3d 49 70 b7 3c fe e7 6c bd 2d 85 24 3c
       0.0622163 0.022392409 -0.057838432 0.010041517
000300 4d fd 61 bd 31 0c d8 bc d8 ca 8b 3d db ea 66 bd
       -0.055173207 -0.026373 0.06825799 -0.05637632
000310 42 6d a1 bd f5 f9 b5 bc 02 54 98 bd e7 aa e5 bb
       -0.078821674 -0.022213915 -0.07437898 -0.0070088985
000320 31 3b 70 3b f1 02 2c 3d a3 7f 90 3d 5d fb ac bd
       0.0036656375 0.041994993 0.07055595 -0.08446381
000330 20 77 35 3d fa d9 59 3c 0f e2 d9 3c d6 7d ab bd
       0.04430306 0.013296599 0.026597051 -0.08373611
000340 45 cc a4 3c 8d 68 5e 3d 2d 29 90 ba 9b 71 87 bd
       0.020116935 0.054298926 -0.00109986 -0.066134654
000350 f6 90 bc 3d 89 e6 3a 3c dd bf 79 3d c0 f3 8a 3d
       0.092073366 0.011407503 0.06097399 0.06784773
000360 64 41 b6 3d 6c 6f 92 bd b4 94 d6 3c 8e ea 47 bd
       0.08899191 -0.07150158 0.026193954 -0.048807673
000370 de ed d8 3c 70 17 0a bd 15 f6 00 3d ea 25 f8 3a
       0.026480611 -0.033713758 0.031484682 0.0018932198
000380 04 6f b2 3b cd aa e2 3a 47 03 ab 3d 4a bf 85 3b
       0.005445363 0.0017293334 0.083502345 0.0040816413
000390 2f 20 3c bb d0 f1 82 ba 3d b8 7c 3c 90 64 35 bd
       -0.0028705706 -0.0009990279 0.015424785 -0.044285357
0003a0 15 0f 59 3d 38 4f 55 3d 27 c2 87 bd 2f 72 56 bd
       0.0529929 0.052077502 -0.066288285 -0.052354988
0003b0 98 b8 29 3c 62 d8 da 3c cf d2 97 3d 87 ee 65 bd
       0.010358952 0.026714507 0.074132554 -0.05613568
0003c0 b0 be 42 bd 4d b7 67 3d 0d a4 88 3c 7e 8f 55 3c
       -0.047545135 0.056571294 0.016679788 0.0130346995
0003d0 59 d4 a3 3d 12 2a 61 3b f6 b6 d3 bc e7 f6 30 3d
       0.079994865 0.0034357351 -0.025844079 0.043204214
0003e0 bc f1 8b 3d 7d ea b5 3d 16 bb d6 3d 37 26 99 3d
       0.068332165 0.08882616 0.104849026 0.07477992
0003f0 50 13 a6 3d 14 7c 9d 3d 11 ed 98 3d 7d 0d 29 bd
       0.08109152 0.07689682 0.07467092 -0.04127263

network.2.bias f4 [256]
000000 05 46 2f 3d ca 26 ba 3c 98 d2 6e 3d 3d aa a7 bd
       0.042791385 0.022723574 0.058306307 -0.08186767
000010 98 d0 8a 3d 81 e5 80 3d df 01 42 bb 71 2f 7a 3d
       0.06778067 0.062937744 -0.0029603166 0.0610804
000020 94 f2 db 3d c6 aa cc 3d 67 a3 e4 bc f1 6e bf 3c
       0.107396275 0.0999351 -0.027909948 0.02336833
000030 0f 18 0c bd 70 8f 5b 3d 5c 81 86 bd ca f9 25 3d
       -0.03420263 0.05360359 -0.06567642 0.04052142
000040 58 17 40 bd c8 09 8b 3c 01 c9 b4 3d ca 56 96 3d
       -0.046897262 0.016972438 0.08827401 0.073407724
000050 56 5f 0d bd ac d9 8d bd cd b1 46 3d e8 65 b5 3d
       -0.034514748 -0.06926283 0.048509408 0.08857328
000060 61 fb ad 3a 67 63 5b bd b7 6a 9d 3d 65 41 6c bb
       0.0013273769 -0.053561594 0.0768637 -0.003604972
000070 d6 dd a4 3d ae 87 50 3c 10 54 af bd 2e 0f c8 3d
       0.08050124 0.012727661 -0.085609555 0.0976852
000080 ee dd 54 3d 53 da 90 bd 44 58 18 3d 2e 64 92 bd
       0.05196946 -0.07072892 0.03719355 -0.07148014
000090 a3 e3 09 bc 88 d3 8c bc d8 ec 18 3d 0b a1 a6 bc
       -0.008416089 -0.01719071 0.037335247 -0.020340463
0000a0 ea 6b 6d bd 56 33 83 3d a0 e0 ae bd e8 aa 84 3d
       -0.057964243 0.06406276 -0.085389376 0.0647791
0000b0 bb 0e 24 3d 41 16 c7 3d 32 2b c7 3d 83 a1 3a 3d
       0.04005311 0.097210415 0.09725036 0.045564186
0000c0 34 08 a8 3d 78 29 44 3d 94 e0 75 3d 37 9f 74 bd
       0.082046896 0.04789111 0.060028628 -0.05972215
0000d0 cb 72 cb 3d 45 f9 a3 bc 1a 72 6d 3d 6b 87 29 3d
       0.099340044 -0.020016322 0.057970144 0.04138891
0000e0 96 3a 18 bd 2d c7 18 bd 87 cd 47 bd 62 73 6c bd
       -0.037165247 -0.037299324 -0.04877999 -0.057727225
0000f0 62 f2 87 3d ab 8a 89 3d 1d 93 dd bc ba 33 ec 3c
       0.06638028 0.06715902 -0.027047688 0.028833259
000100 3b 2a 5d 3c 4a 2a 3a ba e0 78 52 3c c1 6c 10 3c
       0.013498838 -0.00071016385 0.012846202 0.008814991
000110 19 6b a8 bc 8e 9d d9 3b 90 15 1f 3b 39 10 9b 3d
       -0.02055888 0.0066410964 0.0024274327 0.075714536
000120 39 4a af bc 55 ea a8 3d 2f fa be 3d 30 b8 33 3d
       -0.021397697 0.0824782 0.093250625 0.043876827
000130 fd 80 83 3b da cc 17 3d 6e 70 9b bc ef b5 34 3d
       0.0040131793 0.037060596 -0.01897451 0.044118818
000140 6b 1b a0 bc 45 88 c7 3c 86 4e 31 bd d3 cd d3 bc
       -0.019544324 0.02435697 -0.043287776 -0.02585498
000150 e4 c9 11 3d 98 dc be bb 91 aa 4f bd fb ef a5 3d
       0.03559293 -0.0058246367 -0.050699774 0.08102413
000160 ac 29 95 3d 2b fe ef bc 42 04 f4 3c ae ad d7 3c
       0.07283339 -0.029296001 0.029787187 0.026327934
000170 b1 65 91 3d e4 ef 95 bc 79 56 b1 3c e8 4d 88 3d
       0.07099474 -0.018302865 0.021647679 0.066554844
000180 f2 a1 0e 3b 39 8f 73 3d 87 5a b4 bc 8d 91 bc 3d
       0.0021764007 0.05946276 -0.022015823 0.09207449
000190 39 14 68 3d 22 34 5f 3d f4 15 a0 3d bc 0c 2d bd
       0.05665991 0.054493077 0.07816687 -0.042248473
0001a0 27 bd 3b bd c4 51 32 bd 7e f5 b5 3d ba 91 d0 3c
       -0.045834687 -0.04353501 0.088847145 0.025460113
0001b0 cb 60 be 3d 47 9b 22 bd 25 ba a2 3d ce be 8e bd
       0.092958055 -0.039698865 0.079456605 -0.06969987
0001c0 84 38 c8 3d 14 37 80 bd 50 92 47 bd ab 9e 04 bd
       0.097764045 -0.06260505 -0.04872352 -0.03237788
0001d0 e5 dd af 3c 80 61 57 3d c0 a5 a3 bc 0f 8e 61 bd
       0.021468112 0.052583218 -0.019976497 -0.05506712
0001e0 28 c5 b4 3d ca 71 be 3b 12 f8 ca 3d 1c 8a 55 bd
       0.08826667 0.0058119046 0.09910597 -0.052133664
0001f0 22 bc da 3c ef cd 21 bb 95 00 1a 3d 86 ad 81 3d
       0.026701037 -0.0024689396 0.03759821 0.06331925
000200 6c 69 e7 39 e5 2f d9 3d 96 9a 6a 3d 77 bb 7c bc
       0.000441383 0.10604838 0.05727633 -0.0154255545
000210 46 3a 56 3d b2 68 b8 3d 21 bd a2 3d d5 ee 18 3c
       0.052301668 0.09004344 0.0794623 0.009334286
000220 43 cd e2 3c ea 05 c5 3b 58 7a 8a bd cf 26 89 3d
       0.027685767 0.006012668 -0.067616165 0.06696855
000230 1b 5f e9 bc 1a 70 ac 3c db f6 8d bd 01 9d f8 3b
       -0.028487733 0.021049548 -0.069318496 0.0075870757
000240 9f a3 81 3d 9b d0 5e 3c e2 3d 49 bd 06 1c 6c bd
       0.06330036 0.01359954 -0.04913128 -0.057643913
000250 d0 b4 ab 3d f5 0a 16 bd 74 8d 19 bd 21 38 30 bd
       0.083840966 -0.036631543 -0.037488416 -0.04302228
000260 57 a5 d2 3d 31 49 17 bc bd 3f 72 bc 06 dc 9d 3d
       0.10285442 -0.009233759 -0.014785704 0.07707982
000270 76 19 3d 3d f4 a8 87 3d 84 99 56 3d 4d 7c 9b 3d
       0.04616686 0.06624022 0.052392498 0.07592068
000280 13 1a 89 bd 4b 7f 31 bd e5 3e 79 bd 0d e1 c5 3d
       -0.066944264 -0.043334287 -0.060850997 0.09662066
000290 cd 6f 23 bd 23 a8 90 bd 25 8f 77 bd 46 b5 28 bd
       -0.039901543 -0.070633195 -0.060439248 -0.0411885
0002a0 e1 46 c0 bd 30 03 74 3d 24 51 b0 3d d5 c0 a1 3d
       -0.09388519 0.059573352 0.08609226 0.07898108
0002b0 32 63 5f bd d3 1c b9 3c 56 e0 bb 3d 69 c7 4d bd
       -0.05453796 0.022596752 0.09173648 -0.050239
0002c0 28 73 52 3c 59 8a 10 3d 2d 0d 77 3b bf a7 a7 3c
       0.012844838 0.03528819 0.0037697062 0.02046573
0002d0 e5 c0 e8 bc 60 25 80 bc 1f 37 85 bd 9d d9 85 bd
       -0.028412292 -0.015642822 -0.06504654 -0.06535647
0002e0 7a 9f 51 bd 99 55 47 3d 6f aa 0a 3d ab b4 9e bd
       -0.05117748 0.048665617 0.033853944 -0.077493034
0002f0 62 97 84 bd 5c 55 3e bd 3b 4a a2 bd 0f 62 04 bd
       -0.064741865 -0.046468124 -0.079243146 -0.03232008
000300 62 d5 0c bd af 3e 18 3d 86 eb 00 3d da 9d 95 bd
       -0.034383185 0.037169155 0.031474613 -0.073054984
000310 95 26 f4 bc 9b e3 5f bd a1 7c bb bd ae 0c 3d 3d
       -0.029803554 -0.05466042 -0.091546305 0.04615467
000320 b7 9f 9a 3d e6 30 88 bd b1 0b 4e 3c 9d a0 12 3d
       0.075499944 -0.06649952 0.01257603 0.035797704
000330 a9 dc 89 bd ff cb d6 bc ee 74 c1 3d bb 0a 75 3d
       -0.06731541 -0.02622032 0.09446131 0.059824686
000340 63 25 ca bc 71 f9 c2 bc 49 4d b2 bb 10 8b c3 3d
       -0.02467603 -0.023800584 -0.005441342 0.095480084
000350 5c b8 8c 3c 04 2f 95 3d 38 9a f4 3c 3f 4a 40 3c
       0.017177753 0.07284358 0.029858693 0.011736452
000360 a3 99 a1 bc e2 f1 1e 3d fe fb 50 3d 1e fd cc 3d
       -0.01972658 0.038804896 0.05102157 0.10009216
000370 51 c3 d4 3d 65 8c 8f 3c 73 19 5e bd 69 05 8f bd
       0.10388816 0.017523 -0.05422349 -0.06983454
000380 91 a8 9e bd a4 f1 38 3a 6a 18 e8 3c e1 f4 ee 3b
       -0.07746995 0.000705505 0.028331954 0.0072923754
000390 e8 09 6f bd c6 bf 88 3d 81 d5 c0 3d 51 59 a3 3d
       -0.058359057 0.06677203 0.09415723 0.0797602
0003a0 74 d7 95 3c 5b 4d 36 3c 33 87 b2 bc 85 85 64 3d
       0.018291213 0.011126841 -0.021792984 0.055791397
0003b0 3e 8f 7f bd 03 62 e5 3c d5 8c bf 3d b1 7d 39 bd
       -0.062392466 0.028000837 0.093530335 -0.045285884
0003c0 a6 82 60 bd b3 ab 8a 3d 31 7d 21 3d 40 f3 a0 3d
       -0.054812096 0.0677103 0.039426032 0.07858896
0003d0 14 a5 a2 3d c6 20 9a bd 63 86 8e bd ef 42 4e bd
       0.079416424 -0.07525782 -0.06959226 -0.0503568
0003e0 de 25 f4 3c 11 d8 02 bd fb 68 b5 3d 39 60 34 3d
       0.029803213 -0.03194434 0.08857914 0.044037078
0003f0 95 b3 5f 3d f8 7a f1 3c 77 d0 45 bc 58 d9 f1 3c
       0.054614622 0.029477581 -0.012073628 0.029522583

network.4.weight f4 [9, 256]
000000 f5 f2 c2 bb 97 b7 53 3d 66 7a 8a 3d 1e 80 4d 3d
       -0.005949373 0.051688757 0.06761627 0.05017101
000010 0a af 28 3c 57 43 93 3c d2 b7 e6 bd 7c c7 e9 3d
       0.010295639 0.017976446 -0.1126553 0.11415002
000020 2b 9f 17 bd c7 73 68 3c 30 48 6b 3d bf 2e e1 bd
       -0.03701703 0.01418776 0.05744189 -0.10995244
000030 a6 23 17 3d ea 0f db 3d f8 ad 0e 3d 90 12 cb 3c
       0.03689923 0.10696395 0.03483388 0.024789125
000040 70 52 19 bd f3 08 6b bc aa 8c ab 3d 57 9e f5 3c
       -0.037432134 -0.014345395 0.08376439 0.029982729
000050 f3 66 fe bc 50 31 86 3c ea 38 32 bd de c1 f6 bd
       -0.03105495 0.016380936 -0.04351131 -0.12048696
000060 02 b3 e1 ba e2 35 09 3d 45 1a 07 be 8b 8e bb 3d
       -0.0017219486 0.033498652 -0.13193615 0.09158047
000070 3b 33 8f 3d 18 73 35 3d f8 1b 0c 3d 52 6b c9 3c
       0.06992193 0.044299215 0.03420636 0.024587307
000080 95 19 75 3d 71 25 33 3d 20 a8 97 3b f4 12 f6 bc
       0.05983885 0.04373688 0.0046281964 -0.030038334
000090 41 b4 16 3d 07 22 9e 3d 2c 71 52 3b 0b 3a a0 3b
       0.036792997 0.07721334 0.0032110913 0.0048897318
0000a0 9f 31 19 3d f0 eb 2a 38 80 1f c0 3b 20 f5 b3 3d
       0.037400838 4.0750892e-05 0.00586313 0.08786988
0000b0 e1 96 3b bd 45 f7 18 3d 1a c0 62 bd 73 21 ef bd
       -0.045798186 0.03734519 -0.055358984 -0.11676302
0000c0 e5 ec 89 bd 5f 72 a4 bd d0 91 d2 bc ea e8 97 3d
       -0.06734637 -0.08029627 -0.025704294 0.07417472
0000d0 1c 51 f2 bc 4e 17 bd 3d 12 42 c2 bb bd 00 51 bc
       -0.029579692 0.09232961 -0.0059282864 -0.012756524
0000e0 40 4e a2 3b 5f ee 36 bc 2d d1 22 3c 0e 0d 8f bb
       0.004953176 -0.011165231 0.009937567 -0.00436557
0000f0 79 f6 ef 3d 0a 76 c0 3c 3f 37 5a bd 74 75 98 3d
       0.11716933 0.023493785 -0.053275343 0.074442774
000100 02 5c 7e bd fd 6c 98 3d df 75 eb bd f4 2c db 3c
       -0.062099464 0.07442663 -0.114970915 0.026754834
000110 80 09 9c 3d 57 90 41 3d 4c 3d 48 bd f5 d2 d6 bc
       0.076189995 0.047256794 -0.048886582 -0.026223639
000120 01 73 cf bd d3 b4 8a 3b 33 56 92 3d b1 c9 a2 3d
       -0.10129357 0.0042329817 0.071453474 0.07948626
000130 f5 ae 83 3d 00 24 25 39 a6 49 a8 3d 86 5c 1c bc
       0.06429855 0.00015749037 0.08217172 -0.009543544
000140 07 18 5c 3d 42 22 aa 3d 0f 75 37 3d a8 f4 fd bc
       0.05373385 0.083073154 0.04478937 -0.03100045
000150 58 fd b4 3c 34 aa 56 3d d9 29 87 3d 67 24 b8 bd
       0.02209346 0.052408412 0.06599779 -0.08991318
000160 b9 eb 98 bd 13 81 ba bd ff 2b cd 3d f1 62 5d 3c
       -0.074668355 -0.0910665 0.10018157 0.013512359
000170 7d e8 ea 3c 3e 40 7d bb 86 98 96 3d fe f4 8e 3d
       0.028675312 -0.0038643028 0.0735331 0.06980322
000180 55 2f 01 39 9d 4f 9c 3d 14 ef 8e 3d fe 88 14 bd
       0.00012320031 0.076323725 0.06979194 -0.03626346
000190 5d aa cb ba c9 37 a6 38 12 c1 ac 3d 83 c5 38 3c
       -0.0015538443 7.9258876e-05 0.08435263 0.011277559
0001a0 f9 1f 6e 3d aa 1a fc 3d d8 cf 6f 3c df f8 bb bb
       0.05813596 0.12309773 0.014636956 -0.005736455
0001b0 2f fe 77 3b e8 30 67 bd 50 a9 28 3d d9 e0 2d bd
       0.0037840714 -0.056443125 0.041177094 -0.04245076
0001c0 7d 3c 86 3d 78 03 1b bd 13 87 24 3d ec ca fe 3c
       0.06554506 -0.037845105 0.04016788 0.03110262
0001d0 92 db ae bd 16 c9 15 3d a0 c9 28 3d 4e d1 d9 3c
       -0.085379735 0.036568724 0.04120791 0.026589062
0001e0 df b6 73 3d 81 aa 64 3c e7 63 b6 3d 6c c4 b5 3c
       0.05950057 0.013956667 0.089057736 0.022188388
0001f0 4b e2 8c bd f8 18 e0 3d cc 3c 58 3d 44 1f 22 ba
       -0.068790995 0.109422624 0.052792355 -0.00061844685
000200 8c 27 a3 3c 6c 6e 81 bd 6b 5e eb bd 70 37 6d 3d
       0.019916318 -0.063198894 -0.11492618 0.057914197
000210 3c 1e 15 bd da 4a 9e bd 6c c6 b4 bc ce cc 54 3d
       -0.036405787 -0.077291206 -0.022067271 0.05195313
000220 ed 31 dd bc d9 40 23 bd 4c 5d a4 bd 1a 59 b5 bc
       -0.027001346 -0.039856765 -0.080256075 -0.022137213
000230 f7 fb 44 3d 8e 39 12 3d b0 df 63 3d 01 3e ee bc
       0.048091855 0.03569942 0.055633247 -0.0290823
000240 18 0b 89 bd 37 f8 a3 3c 3b c0 1e bc cb 2a 77 bd
       -0.06691569 0.020015819 -0.009689386 -0.060343545
000250 c8 54 d3 bd d5 e8 09 be 6c 64 2a bd 70 99 da 3c
       -0.10318905 -0.13467725 -0.041599676 0.026684493
000260 a3 7e 76 3d 11 3f d4 bc 68 17 56 bc e6 ad 8d bd
       0.060179364 -0.025908979 -0.013067104 -0.06917934
000270 6d dc 40 bd 28 fb 6b bc 6a 14 c2 bd 80 bd 82 bc
       -0.047085214 -0.014403142 -0.0947655 -0.015959501
000280 7f 28 b7 bc a1 72 09 bb 34 bc 6b bd fe 65 9d 3d
       -0.022358177 -0.0020972865 -0.05755253 0.07685469
000290 68 4e 50 b9 30 01 d7 3b 17 90 a7 bc 2c 37 48 bd
       -0.00019865634 0.006561421 -0.02045445 -0.04888074
0002a0 64 56 2c bc ae 1c 30 bc b4 0e ae 3d 2b 11 7e 3b
       -0.010518644 -0.010749025 0.08498898 0.0038767557
0002b0 00 f2 0d b9 03 59 f4 bc fd 24 97 3d 7b 53 90 3d
       -0.0001353696 -0.0298276 0.07380102 0.07047173
0002c0 88 85 ea bd cd 90 f1 bc 69 f6 90 3d 0f 8a d7 bd
       -0.1145125 -0.029487992 0.07078249 -0.105243795
0002d0 fc a1 71 bb 3c 1e f4 bb 8b 6d 99 3d 4e 75 7a bd
       -0.0036870232 -0.0074498933 0.07491597 -0.061147027
0002e0 5b 00 89 bd c1 ff 92 bd b4 ee 6e 3d 95 2b 5d bd
       -0.06689521 -0.071776874 0.058333114 -0.05399664
0002f0 cb 83 06 3c 86 7a 1e 3d d8 49 88 bc 02 80 30 bd
       0.008210133 0.038691066 -0.016636774 -0.043090828
000300 08 94 9c bd f5 2b 1c bc cf 4c 78 bd 40 29 3a 3c
       -0.07645422 -0.009531965 -0.060620125 0.011362374
000310 ce cd 12 bd 90 f4 16 bd 0e 26 82 3b 44 ec 66 3d
       -0.035840802 -0.036854327 0.0039718216 0.056377664
000320 70 3f 54 bd e3 9d 7f bd 00 00 10 ba e8 55 75 3d
       -0.05181831 -0.062406432 -0.0005493164 0.05989638
000330 9c 0a 1a bd c9 d5 84 3d 79 4c 07 3d 2a f8 1c bd
       -0.037607774 0.06486089 0.033031914 -0.038322605
000340 27 91 de bd f9 d9 09 3d 81 b1 1e 3d a6 35 80 bd
       -0.10867529 0.03365514 0.0387435 -0.062602326
000350 9e bf bb bd 4c 76 26 3c 29 57 3e bd d6 b1 f8 bc
       -0.091674075 0.01016004 -0.04646984 -0.030358236
000360 cc f7 2a bd a0 b5 dd 3c ba 21 ab bd 4e 75 7f 3d
       -0.041740224 0.027064145 -0.08356042 0.06236773
000370 d4 7a ea 3d 0a 49 ee 39 bf 17 db 3d 1a 54 1b bd
       0.11449209 0.00045449316 0.106978886 -0.037922002
000380 dc 0b d8 3c 1b d3 96 3b f3 86 c6 3c d5 58 c3 3c
       0.026372842 0.0046028025 0.02423427 0.02384607
000390 78 94 d9 3d 1b 39 47 bc 64 42 e7 3d a3 32 d9 3c
       0.10624021 -0.012159611 0.1129196 0.026513403
0003a0 b3 cd b1 3d 60 37 03 bc 43 54 51 bd b0 f5 99 3d
       0.08681812 -0.008008808 -0.05110575 0.07517564
0003b0 a8 b7 8d 3c 3e 63 9d 3d 34 55 12 3b 32 db 03 bd
       0.017299488 0.076849446 0.0022328617 -0.032191463
0003c0 00 c9 bb 3d 45 f1 12 bd d3 46 0e bd 3a 8f 45 3d
       0.09169197 -0.035874624 -0.034735512 0.048232295
0003d0 d0 a8 e1 3d 99 2b 44 bb e3 ec d3 bd 0a 1c b2 3d
       0.110185266 -0.0029933213 -0.10347917 0.08696754
0003e0 40 79 98 3d 7e 37 89 bd e0 0c 7b 3d e9 7e db 3c
       0.074450016 -0.067000374 0.061291575 0.026793914
0003f0 31 6a 81 bc 48 0b 55 3d 54 82 c3 3d 03 02 9b 3d
       -0.015797706 0.05201271 0.095463425 0.07568743

network.4.bias f4 [9]
000000 3a f6 80 3b a7 1a ba 3c 6f a1 0f ba 89 5d 65 3d
       0.0039356025 0.022717787 -0.00054790726 0.055997405
000010 5b 65 ba bc 5f 1a c1 3c ae 2c 81 bc e7 41 52 3c
       -0.022753408 0.023572145 -0.015768375 0.012833095
000020 31 0f 85 bd
       -0.06497038
