models/actor1.pth (torch, 146375 bytes, 6 tensors)

network.0.weight f4 [128, 5]
0	0xbd889c8d	-0.06670485
1	0xbea0370c	-0.31291997
2	0x3c88115b	0.016609838
3	0x3ea67beb	0.32516417
4	0x3dfe26d7	0.12409752
5	0xbe2754d4	-0.16340953
6	0x3ea5769b	0.3231705
7	0xbea5558a	-0.32291824
8	0x3dc38645	0.09547094
9	0xbe020baf	-0.1269977
10	0x4117ebf4	9.495106
11	0x4144b4dc	12.294155
12	0x41447078	12.277458
13	0x413146bf	11.079772
14	0x4126bd0c	10.421154
15	0x41281220	10.504425
16	0x4147377d	12.451047
17	0x4143a412	12.227556
18	0x41418804	12.095707
19	0x412bc6a8	10.736
20	0xbed04884	-0.40680325
21	0x3c89edc0	0.016837
22	0x3de562ce	0.11200486
23	0x3e68ce77	0.2273501
24	0xbeca9baf	-0.39571902
25	0x411a1884	9.630985
26	0x41488f71	12.53502
27	0x414116ca	12.068064
28	0x412fb529	10.981729
29	0x4126624b	10.398997
30	0x41263624	10.388218
31	0x4147f01b	12.4961195
32	0x414b9f49	12.726388
33	0x413abba3	11.67081
34	0x41252a1a	10.322779
35	0x41226af8	10.151115
36	0x4145b018	12.355492
37	0x41421ebd	12.132504
38	0x4137b4cb	11.481639
39	0x412f80f3	10.968982
40	0x411fb52e	9.981733
41	0x41420799	12.126855
42	0x414379c2	12.217226
43	0x41323977	11.1390295
44	0x412caa51	10.791581
45	0x412aba04	10.670414
46	0x414b55d0	12.70845
47	0x41460346	12.375799
48	0x4135b509	11.356698
49	0x4120f9b8	10.0609665
50	0xbe84a008	-0.25903344
51	0xbeb4a3db	-0.35281262
52	0xbe32a107	-0.1744424
53	0xbec54f1d	-0.3853692
54	0xbedd7cf2	-0.43259388
55	0xbe17bb60	-0.14817572
56	0x3e2062b6	0.15662655
57	0x3e8a8fc2	0.27062804
58	0xbeed0857	-0.46295425
59	0xbe7cecf8	-0.24699771
60	0x412bd6e5	10.7399645
61	0x414942a6	12.578772
62	0x414b745c	12.715908
63	0x413e2319	11.883569
64	0x41210e8c	10.0660515
65	0x4121bef7	10.109122
66	0x413d0430	11.813522
67	0x4139bf99	11.609277
68	0x412d06d4	10.814167
69	0x411e0311	9.875749
70	0x41273574	10.45055
71	0x414bbac2	12.733095
72	0x414b0c3e	12.690489
73	0x413d8473	11.844836
74	0x4127c49e	10.485502
75	0x41236169	10.211282
76	0x4147cab0	12.486984
77	0x41470b30	12.440231
78	0x4130bfe6	11.04685
79	0x4129c971	10.61168
80	0xbb62a1ea	-0.0034581372
81	0x3db3b142	0.087740436
82	0xbdf9b1b8	-0.121921
83	0xbe45a549	-0.19301333
84	0xbdd99983	-0.10624983
85	0x412b8a96	10.721334
86	0x41468130	12.40654
87	0x41423bc0	12.139587
88	0x41358b5a	11.346521
89	0x4121f3ca	10.122019
90	0x4120dc2b	10.053752
91	0x413e3621	11.888215
92	0x4147df20	12.491974
93	0x413e9316	11.91091
94	0x412e3655	10.888265
95	0x4127dcf1	10.491441
96	0x4147f54b	12.497386
97	0x413ea3ef	11.915023
98	0x413d4a86	11.830694
99	0x41285653	10.521075
100	0x411a0797	9.626853
101	0x4142e482	12.180788
102	0x413d4537	11.829398
103	0x412c3774	10.763538
104	0x412cf5da	10.810022
105	0x412846b7	10.517264
106	0x4148463a	12.517145
107	0x413e6826	11.900427
108	0x41394acb	11.58076
109	0x412695ba	10.411554
110	0xbd576ca6	-0.05259385
111	0xbe7a255a	-0.24428311
112	0xbe956702	-0.2918015
113	0xbe9c1778	-0.30486655
114	0xbeb5dff2	-0.3552242
115	0x41249b19	10.287866
116	0x4149fd70	12.624374
117	0x41494e7e	12.581663
118	0x413d73e7	11.840796
119	0x41297716	10.591574
120	0x4129fa2c	10.623577
121	0x41464104	12.390873
122	0x41451538	12.31768
123	0x41383d52	11.514971
124	0x412647d6	10.392538
125	0x411b573a	9.708796
126	0x413b4600	11.70459
127	0x4147f8ec	12.498272
128	0x41374487	11.45423
129	0x412d9bf3	10.850574
130	0x411a5a1b	9.646998
131	0x414af8a2	12.685701
132	0x413e5f37	11.898246
133	0x412d8fd7	10.847617
134	0x412fb4f6	10.98168
135	0xbeb59431	-0.35464624
136	0xbe6dc3a8	-0.23219168
137	0xbe2d058f	-0.16896652
138	0x3e78d73a	0.24300852
139	0xbeb59ded	-0.3547205
140	0x4123010f	10.187758
141	0x41383d57	11.514976
142	0x413c275d	11.75961
143	0x412d0080	10.812622
144	0x411bdf14	9.741962
145	0xbeba6c00	-0.36410522
146	0xbe521445	-0.20515545
147	0xbedc1d5e	-0.42991155
148	0xbd8ed757	-0.069746666
149	0xbe84ceac	-0.25938928
150	0x41298fa4	10.5975685
151	0x41486618	12.524925
152	0x4149fa7f	12.623656
153	0x413e3839	11.888726
154	0x412112e5	10.067113
155	0x411ce5d9	9.806115
156	0x4143b524	12.231724
157	0x4146dc70	12.428818
158	0x4135d176	11.363638
159	0x4129182d	10.568402
160	0x4129887f	10.595824
161	0x41491802	12.568361
162	0x4148a111	12.539323
163	0x413b2f01	11.698976
164	0x4123121f	10.191924
165	0x411ef1a9	9.933999
166	0x4148bad4	12.545612
167	0x4146f7ef	12.435531
168	0x4133d397	11.239158
169	0x412abf85	10.671758
170	0x4036cbc2	2.8561864
171	0x4066babd	3.6051476
172	0x40647f44	3.5702677
173	0x40633b13	3.5504806
174	0x40650931	3.578686
175	0xbd51ea3f	-0.051248785
176	0x3d001e88	0.031279117
177	0xbe45116d	-0.19244929
178	0xbe5fb7e4	-0.21847492
179	0xbe9ba67c	-0.30400455
180	0x412704cc	10.438671
181	0x4147a7e2	12.478487
182	0x414c4f51	12.769364
183	0x413cbd21	11.796174
184	0x412c16d1	10.75557
185	0x412956a5	10.583653
186	0x41419c1a	12.100611
187	0x4144f7f4	12.310535
188	0x4139ccc9	11.612496
189	0x41263a6c	10.389263
190	0x41299188	10.59803
191	0x4144f02a	12.308634
192	0x41489e64	12.53867
193	0x413f24f7	11.946525
194	0x4123e794	10.244038
195	0x3fb9019d	1.4453617
196	0x3fff9ad3	1.9969124
197	0x40055789	2.0834677
198	0x403dc870	2.9653587
199	0x40055668	2.0833988
200	0x411cbc30	9.795944
201	0x4146a18c	12.41444
202	0x4142d70d	12.177503
203	0x413b4233	11.703662
204	0x4128331e	10.51248
205	0x411bad19	9.72976
206	0x41402124	12.008091
207	0x4141d451	12.114335
208	0x413b8981	11.72107
209	0x412c32b7	10.762382
210	0x4129bb89	10.608285
211	0x4148771c	12.529079
212	0x414392ad	12.2233095
213	0x41351bac	11.319256
214	0x4121feca	10.124704
215	0x41275917	10.45925
216	0x413e4409	11.89161
217	0x4144be57	12.29647
218	0x413cbb43	11.795718
219	0x4126cb06	10.424566
220	0x412baf0e	10.730238
221	0x414ac3e8	12.672829
222	0x41443843	12.263736
223	0x4138ece3	11.557834
224	0x412b9856	10.724691
225	0x4119d2cf	9.613967
226	0x414548f8	12.330315
227	0x4149aaef	12.604232
228	0x41355ab8	11.334648
229	0x412ee949	10.931954
230	0x4129b669	10.607034
231	0x4141a8e4	12.103733
232	0x4148dd94	12.554096
233	0x413d880f	11.845717
234	0x41247f52	10.281084
235	0x4122ce47	10.175361
236	0x413b8f4d	11.722486
237	0x413a8478	11.657341
238	0x412c39a3	10.764071
239	0x412043ae	10.016523
240	0x41290586	10.5638485
241	0x4149b790	12.607315
242	0x4146a769	12.415872
243	0x413889d6	11.533651
244	0x412d1843	10.818423
245	0xbed91136	-0.42395943
246	0xbe2ae96f	-0.1669061
247	0xbea17f3a	-0.3154238
248	0x3e43dcb5	0.19127162
249	0xbed25359	-0.41079214
250	0xbeddc9f3	-0.43318138
251	0xbbee5475	-0.0072732517
252	0xbe54a068	-0.20764315
253	0xbbf1a223	-0.0073740645
254	0x3e49a17e	0.1969051
255	0x412b9372	10.723497

network.0.bias f4 [128]
0	0xbee4c90b	-0.44684634
1	0xbec7990f	-0.38983962
2	0x41486d29	12.52665
3	0x41454be1	12.331025
4	0xbe9418d0	-0.2892518
5	0x4149dca7	12.61637
6	0x414cf897	12.810691
7	0x413d9ad1	11.850297
8	0x4146c8f0	12.424057
9	0x414a11d7	12.629355
10	0x3d935b2a	0.071951225
11	0xbecbda12	-0.39814812
12	0x41459dc1	12.351014
13	0x41395f0d	11.585706
14	0x4141b732	12.107225
15	0x4143ff3e	12.249815
16	0xbdb7a302	-0.08966638
17	0x4144d61c	12.302273
18	0x4148e3f5	12.555654
19	0x414c0b8c	12.752819
20	0x414c4c88	12.768684
21	0x414d50ae	12.832197
22	0xbd56fd20	-0.052487493
23	0x4148d326	12.55155
24	0x414ab0c9	12.66816
25	0x41461ef3	12.382556
26	0x414121b7	12.070731
27	0xbe75336b	-0.23945396
28	0x413b7151	11.715165
29	0xbc3c93d0	-0.011509851
30	0x414b1e7e	12.694944
31	0x414aa145	12.664372
32	0x4140b2f9	12.0436945
33	0x4142a869	12.166116
34	0x40801900	4.0030518
35	0xbe9d0b96	-0.30672902
36	0x414d2f28	12.824013
37	0x414d79ac	12.842205
38	0x414b3ca1	12.702302
39	0x4043d124	3.05964
40	0x414bb9a1	12.73282
41	0x414c210a	12.758066
42	0x414d5feb	12.835917
43	0x414aad42	12.667299
44	0x4145ec1d	12.370145
45	0x414bfa63	12.74863
46	0x41416f76	12.089712
47	0x4138bcc5	11.546086
48	0x414855a9	12.520913
49	0xbdc8686d	-0.09785543
50	0xbee04f9c	-0.43810737
51	0x41411089	12.066537
52	0x41466bd1	12.401322
53	0x414a89f0	12.658676
54	0x414942a7	12.578773
55	0x414a81b4	12.656666
56	0x4144299f	12.260161
57	0xbea57988	-0.32319283
58	0x41474f8d	12.456922
59	0x414543fa	12.329096
60	0x41403115	12.011983
61	0x41454ba0	12.330963
62	0x413fd1bc	11.988705
63	0x4146647c	12.399532
64	0x41474d3f	12.456359
65	0x414a1bef	12.63182
66	0x41453fea	12.328104
67	0x414745a6	12.454504
68	0x3e10dd90	0.1414702
69	0x4142aa60	12.166595
70	0x4148fc1f	12.561553
71	0x41456966	12.338232
72	0x3e08ccb9	0.13359345
73	0x41446d8c	12.276745
74	0x41452e08	12.323738
75	0x414d13ae	12.817305
76	0xbde2323e	-0.11044739
77	0x4149fb52	12.6238575
78	0xbde4d52e	-0.11173473
79	0xbde3aee8	-0.11117345
80	0x414bad28	12.729774
81	0x41440d86	12.253302
82	0x4144c83e	12.298887
83	0x41457383	12.340701
84	0x41428446	12.157293
85	0x413fc47b	11.985469
86	0x414ca4ef	12.790267
87	0x414d4620	12.82962
88	0x41498b52	12.596514
89	0x41427507	12.153571
90	0x41499190	12.598038
91	0x413f6590	11.962296
92	0x4048daf1	3.1383631
93	0x3ea4e6cb	0.3220733
94	0x414c13a1	12.754792
95	0xbe6b3b26	-0.22971782
96	0x41436ac7	12.213569
97	0x414bcda0	12.737701
98	0x41493a82	12.576784
99	0x41485359	12.520349
100	0xbec0abf8	-0.37631202
101	0x414bfe1c	12.749538
102	0x414ad311	12.67653
103	0x41442995	12.260152
104	0x41446455	12.274495
105	0x41499d68	12.600929
106	0x4143f57e	12.247435
107	0x414978e2	12.592012
108	0x41440c65	12.253026
109	0x41434cf7	12.20629
110	0x414b1e44	12.694889
111	0x4140c552	12.048174
112	0x41446869	12.275491
113	0xbe7e9e3d	-0.2486505
114	0x4148aaff	12.541747
115	0x4143a5a7	12.227942
116	0x4140ccbe	12.049986
117	0x4148d2f7	12.551505
118	0x4149b843	12.607486
119	0xbca727f8	-0.0204048
120	0x41448da2	12.284578
121	0x413acdfc	11.675289
122	0x41263438	10.387749
123	0x414ad040	12.675842
124	0x4141498f	12.080459
125	0x41448d08	12.284431
126	0x414c37af	12.763595
127	0x41468c5b	12.409266

network.2.weight f4 [256, 128]
0	0xbd49907d	-0.04921006
1	0x3d9f7a66	0.077870175
2	0xbd37b85e	-0.04485356
3	0xbd803c73	-0.0626153
4	0xbd8f42ce	-0.06995164
5	0xbcd744ad	-0.026277864
6	0xbd87985d	-0.06620858
7	0xbd204c80	-0.039135456
8	0x3d85152b	0.06498178
9	0xbd9f4eee	-0.077787265
10	0xbd94aba8	-0.07259303
11	0x3d30b2fd	0.043139447
12	0xbda5331b	-0.08066388
13	0x3d939692	0.072064534
14	0xbdab0cff	-0.08352088
15	0xbd0d58fc	-0.03450869
16	0x3d6a02f2	0.057131715
17	0xbd5752ad	-0.05256908
18	0x3bf1dd8a	0.007381146
19	0x3d836484	0.06415656
20	0xbd256c95	-0.040386755
21	0xbdb33bd9	-0.087516494
22	0x3d979cb4	0.074029356
23	0x3d404e1c	0.04694949
24	0xbd7fa173	-0.06240983
25	0x3d13de8d	0.036100913
26	0x3d8eebb1	0.06978548
27	0xbc6ee3a2	-0.014580639
28	0xbd2103f0	-0.039310396
29	0xbd74a26a	-0.059725203
30	0x3d127c94	0.03576334
31	0xbc48cce5	-0.012255882
32	0x3d8ddf98	0.06927413
33	0x3cd9492c	0.026524149
34	0x3d2b2ddc	0.04179178
35	0x3bb253b2	0.005442106
36	0xbba5b098	-0.005056452
37	0x3d4b1823	0.049583565
38	0x3ce8aa8b	0.028401634
39	0xbcdbd3e3	-0.026834434
40	0xbd9154b7	-0.07096236
41	0xbd94b41f	-0.07260918
42	0x3d610cd7	0.054943886
43	0xbc3dd006	-0.011585241
44	0xbd1c6c95	-0.03818949
45	0x3caf5a7f	0.021405457
46	0x3d9a0c5f	0.07521891
47	0x3d4d2020	0.050079465
48	0x3d819a50	0.06328261
49	0xbcfcd242	-0.030861977
50	0xbd921adc	-0.07134029
51	0x3d6a5fbe	0.057220213
52	0xb9f95f03	-0.0004756377
53	0x3d2a43eb	0.041568678
54	0xbc9f540a	-0.019449253
55	0xbdaa1897	-0.083054714
56	0xbd501364	-0.050799742
57	0x3cff6c6b	0.031179627
58	0xbd31d3de	-0.043414943
59	0xbd970bdc	-0.07375309
60	0x3d01c662	0.031683333
61	0xbd02e03e	-0.031952135
62	0x3d960c58	0.07326573
63	0xbda2c259	-0.07947225
64	0xbd6d0080	-0.057861805
65	0x3bc183a3	0.005905585
66	0xbd38a51e	-0.045079343
67	0x3d465513	0.048420977
68	0xbcef9df4	-0.029250123
69	0xbc1a9979	-0.009436005
70	0xbd8397e9	-0.06425459
71	0x3cdcc218	0.02694802
72	0xbc58ca56	-0.013231834
73	0xbd53ed87	-0.051740196
74	0x3a07b209	0.00051763706
75	0xbd54ebb1	-0.051982585
76	0x3c84bbf3	0.016202902
77	0xbd5fc929	-0.0546352
78	0x3d8ba023	0.06817653
79	0xbda27bec	-0.079337925
80	0xbd020096	-0.03173884
81	0x3d2fc649	0.04291371
82	0x3d280c90	0.041027606
83	0x3c7725b4	0.015084673
84	0xbda80ac6	-0.0820518
85	0xbd1069be	-0.035257094
86	0xbd8821cc	-0.06647071
87	0x3cb7a4fd	0.02241754
88	0xbb340061	-0.0027466046
89	0xbcaafd01	-0.020872595
90	0x3d9be09c	0.076112
91	0x3d42a0e3	0.047516715
92	0xbdac023f	-0.08398866
93	0x3d2c7f86	0.042113803
94	0xbd971347	-0.07376724
95	0x3d8afc67	0.06786423
96	0x3d716c4b	0.058941167
97	0x3d96df9e	0.0736687
98	0x3d89e175	0.06732456
99	0x3db4a880	0.08821201
100	0xbd2b017d	-0.041749466
101	0xbc618060	-0.013763517
102	0x3b8a2c38	0.004216697
103	0xbcba128f	-0.022713928
104	0x3d5f6bf5	0.054546315
105	0x3d9f31dc	0.07773182
106	0xbd1d2de1	-0.03837383
107	0x3da9c6bb	0.08289858
108	0xbd2a416c	-0.041566297
109	0xbc97f2d4	-0.018548407
110	0xbd690113	-0.05688579
111	0x3d49a312	0.04922778
112	0xbd5c4a24	-0.053781644
113	0x3c9b8c7f	0.018987892
114	0x3d374475	0.04474302
115	0xbc902b16	-0.01759867
116	0xbd923811	-0.071396
117	0x3cdb63c4	0.02678097
118	0x3be10430	0.0068669543
119	0xbda424e4	-0.08014849
120	0x3ca3c643	0.019992
121	0xbd011f02	-0.031523712
122	0xbc812395	-0.015764037
123	0xbd6dda5e	-0.05806958
124	0xbd12925e	-0.035784118
125	0xbb1ed9b6	-0.0024238653
126	0xbd9995f8	-0.074993074
127	0x3cd98415	0.02655224
128	0xbd897483	-0.06711676
129	0x3d92b50f	0.071634404
130	0xbdf0e1f6	-0.11761849
131	0xbd0e74ea	-0.034779467
132	0x3d804cdb	0.06264659
133	0xbcb1c7f2	-0.021701787
134	0x3d561a9a	0.052271463
135	0x3da4c062	0.080445066
136	0x3c7df820	0.015501052
137	0xbdfdd5c3	-0.123942874
138	0xbd3d0b0a	-0.046153106
139	0xba4ef606	-0.0007894937
140	0x3d2c0af4	0.042002633
141	0x3d400bc1	0.04688621
142	0xbd9e3bf1	-0.07726277
143	0xbc81a38f	-0.015825061
144	0xbd5c307f	-0.053757187
145	0xbd543660	-0.05180967
146	0xbc1a380a	-0.009412775
147	0xbbc8d062	-0.006128357
148	0xbd8922a7	-0.066960625
149	0xbd3f03e2	-0.046634562
150	0xbd8ea8e0	-0.06965804
151	0x3b6a68fa	0.0035768137
152	0x3c36c82a	0.011156121
153	0xbc1e558e	-0.0096639525
154	0x3bbd41e5	0.0057756775
155	0x3d4f02f2	0.05053992
156	0xbd226dcf	-0.039655503
157	0xbc2f143a	-0.010685975
158	0x3ccbe356	0.024888676
159	0x3c852aab	0.016255697
160	0xbd3ec544	-0.046574846
161	0xbdad4943	-0.08461239
162	0x3bdcd2e3	0.006739007
163	0xbdaef7a9	-0.08543331
164	0x3c704715	0.014665385
165	0xbd77c282	-0.06048823
166	0xbd8d5147	-0.06900268
167	0xbcdaef29	-0.026725369
168	0x3d9b65bb	0.07587763
169	0xbdc6e7e0	-0.097121954
170	0x3bccc300	0.0062488317
171	0xbd924da9	-0.07143719
172	0x3b68c392	0.003551696
173	0xbdba0195	-0.09082333
174	0xbd7499a4	-0.059716836
175	0xbc16eb6a	-0.0092114005
176	0xbc41142e	-0.011784596
177	0x3cd3c548	0.025850907
178	0x3cca9ebf	0.0247339
179	0xbd23dc1b	-0.04000483
180	0xbdbcf248	-0.09225899
181	0xbdbd3331	-0.092382796
182	0xbd01c7c8	-0.031684667
183	0xbcb16e4c	-0.021659039
184	0xbc9f5235	-0.019448379
185	0xbb1b4279	-0.0023690744
186	0xbdaa67df	-0.08320593
187	0x3c0f01a9	0.008728423
188	0x3daa3104	0.0831013
189	0xbb12d582	-0.0022405093
190	0xbd0630cd	-0.032761384
191	0xbd4b47f2	-0.04962916
192	0x3d9a7809	0.07542426
193	0xbd926364	-0.071478635
194	0x3cb2fc4d	0.021848822
195	0xbda9c901	-0.082902916
196	0xbd9b4f93	-0.07583537
197	0xbc92e700	-0.017932415
198	0x3d6db745	0.058036108
199	0x3d364a65	0.044504542
200	0xbda62fa0	-0.081145525
201	0xbbe971ec	-0.0071241762
202	0x3b80b73d	0.0039280937
203	0xbd8f21df	-0.06988882
204	0x3da380db	0.079835616
205	0xbdfb90e5	-0.12283496
206	0xbc1813b5	-0.009282042
207	0xbd80809d	-0.06274531
208	0xbcb6e533	-0.022326088
209	0xbd4f2f5d	-0.05058228
210	0xbcba200b	-0.022720357
211	0xbb6f0a22	-0.0036474545
212	0x3d63a3f6	0.055576287
213	0x3d80486e	0.06263815
214	0xbd5a096c	-0.05323164
215	0x3cf8a76a	0.030353267
216	0xbcd2c078	-0.025726542
217	0x3ca0a81e	0.019611415
218	0x3d6cc5c7	0.057805803
219	0x3d4a007a	0.04931686
220	0x3d25c0a6	0.040466927
221	0x3d032571	0.03201813
222	0x3bb16e1f	0.005414739
223	0xba92c41e	-0.0011197363
224	0xbc867e1a	-0.016417552
225	0xbd1d2f53	-0.03837521
226	0xbc9ec802	-0.01938248
227	0x3c7567e9	0.014978387
228	0xbce7d461	-0.028299512
229	0xbc12f0bb	-0.008968527
230	0xbcfd3739	-0.030910121
231	0x3cb532f2	0.02211902
232	0xbad74a5e	-0.0016425361
233	0xbe01935b	-0.12653868
234	0x3bb3f103	0.0054913773
235	0xbd0c7f5d	-0.03430115
236	0xbdaed5af	-0.08536851
237	0xbc5c01c9	-0.01342816
238	0xbd3a37cb	-0.045463365
239	0xbdc6856c	-0.09693417
240	0xbd110c71	-0.035412256
241	0x3d3788b4	0.044808105
242	0x3c7790f2	0.015110241
243	0xbc4f0cb0	-0.012637302
244	0xbdb5f049	-0.088837214
245	0x3cc94c65	0.02457256
246	0xbcd5fc7c	-0.02612137
247	0x3ca02abc	0.019551627
248	0xbd50224f	-0.05081397
249	0xbd4c60b5	-0.049896915
250	0x3d391bfc	0.045192704
251	0xbd730920	-0.059334874
252	0xbcd60f84	-0.026130445
253	0xbdcae12e	-0.09906231
254	0x3be22b0e	0.006902105
255	0xbbc66ffb	-0.0060558296

network.2.bias f4 [256]
0	0x3babb84c	0.0052404758
1	0x3ca23e12	0.019804988
2	0x3d1d3b4a	0.03838662
3	0x3c583342	0.013195815
4	0xbc282394	-0.010262389
5	0x4145952a	12.348917
6	0xbd58b495	-0.05290659
7	0xbe0d183b	-0.13778774
8	0x4146acdb	12.417201
9	0xbc37eea9	-0.011226335
10	0xbd40ce9e	-0.047072046
11	0x3d08ffe6	0.03344717
12	0x41426d6e	12.151716
13	0xbd491c3f	-0.049099203
14	0xbc5764a1	-0.01314655
15	0xbd0f1468	-0.03493157
16	0x3d8b1d57	0.067927055
17	0x414492a1	12.285798
18	0x41435516	12.208273
19	0x4143cc8d	12.237439
20	0xbd8fdd00	-0.07024574
21	0xbde1458c	-0.10999593
22	0x41440a21	12.252473
23	0xbd050a91	-0.03248078
24	0x414372bd	12.215512
25	0xbe198092	-0.14990452
26	0xbdb1d63b	-0.08683439
27	0x41435412	12.208025
28	0xbbe94d86	-0.007119837
29	0x41439789	12.224496
30	0x41464ae4	12.393284
31	0xbda939cd	-0.08262978
32	0x41404cbd	12.018735
33	0xbda6cf7e	-0.08145045
34	0x41427166	12.152685
35	0x4145332e	12.324995
36	0x3d05a0c7	0.032624032
37	0xbd30a19a	-0.043122865
38	0x3d45293a	0.04813502
39	0xbd025223	-0.031816613
40	0x3d63e1c0	0.055635214
41	0x3dab289e	0.083573565
42	0x4143cc1f	12.237334
43	0xbd725dc2	-0.059171446
44	0x3b8a763c	0.0042255204
45	0xbd1d5769	-0.03841344
46	0x41448bf6	12.28417
47	0x41434768	12.204933
48	0xbdaf3556	-0.08555095
49	0x4144201e	12.257841
50	0xbcef7319	-0.029229688
51	0x41432110	12.195572
52	0xbdbeae1b	-0.09310552
53	0xbddcd861	-0.107834585
54	0x3d9c596a	0.07634242
55	0x3cbcbf63	0.023040479
56	0xbda1b16b	-0.07895168
57	0x4144fdc9	12.311959
58	0x3d4439d3	0.047906708
59	0x3d15e1ed	0.036592413
60	0xbc7e82ec	-0.015534144
61	0xbdb12ac3	-0.08650734
62	0x4143279d	12.197171
63	0x4143f8b7	12.248221
64	0x3d0bd279	0.03413627
65	0xbce5a3ff	-0.028032301
66	0x3d17bfdb	0.037048202
67	0xbdd198a7	-0.10234194
68	0xbd577a57	-0.052606907
69	0x41413375	12.075063
70	0xbda96339	-0.08270878
71	0xbd3549c5	-0.044259805
72	0xbd7c3802	-0.06157685
73	0x3d0c5ff3	0.03427119
74	0x41427b7c	12.155148
75	0x3d6915e7	0.056905653
76	0x414568f9	12.338128
77	0x3d347a42	0.044061907
78	0x3cfbefb4	0.030753948
79	0xbdb64218	-0.08899325
80	0xbcc834b2	-0.02443919
81	0xbd82de29	-0.0639003
82	0x3c895b3c	0.016767137
83	0x41443572	12.263048
84	0x3d8fcad1	0.07021106
85	0xbd5aa156	-0.05337652
86	0x41438ea1	12.2223215
87	0x41441167	12.254249
88	0x41444096	12.265768
89	0x4141de09	12.116708
90	0xbd47dab9	-0.048792575
91	0x41430aa8	12.190102
92	0xbd554ada	-0.052073337
93	0xbe19ca6e	-0.15018627
94	0xbd81e736	-0.06342928
95	0x4143bb3c	12.2332115
96	0xbd885fe1	-0.066589125
97	0x3c325248	0.010883875
98	0x3be58009	0.0070037884
99	0x3d3c8fd8	0.046035618
100	0xbd95e456	-0.07318942
101	0xbc8025d8	-0.015643045
102	0xbd4781c0	-0.048707724
103	0x41439ae9	12.22532
104	0x41431fbc	12.195248
105	0xbc9aa29f	-0.018876372
106	0x3d01a9c8	0.031656057
107	0x3cef20d7	0.029190464
108	0x414266fd	12.150144
109	0x3af97f81	0.0019035192
110	0x4141af99	12.1053705
111	0x41451a36	12.318899
112	0x41426566	12.1497555
113	0x3ce48148	0.027893677
114	0xbda04bbe	-0.07826947
115	0xbcfaff9c	-0.030639462
116	0x3d87ce2d	0.06631122
117	0x3d1209b8	0.0356538
118	0x3d4ada4e	0.049524598
119	0x41431f7d	12.195188
120	0x41437b4f	12.217605
121	0x41452122	12.320589
122	0xbd39e04c	-0.04537992
123	0x3cb51bdd	0.022108013
124	0x4144c1a2	12.297274
125	0x3cf0fdc8	0.029417887
126	0x4143f140	12.246399
127	0x4146e6b5	12.431325
128	0x3d285b8a	0.041102923
129	0xbbb76cd5	-0.0055976906
130	0x4142778c	12.154186
131	0x414273e2	12.153292
132	0x3d17bddf	0.03704631
133	0x41422bbd	12.135678
134	0xbdab9128	-0.08377296
135	0x414444d9	12.2668085
136	0x3d333412	0.04375083
137	0x3c951570	0.018198699
138	0x4147292c	12.447552
139	0x41430f45	12.191228
140	0xbd5d98b4	-0.054100707
141	0x3cf13da5	0.02944834
142	0x3d827f4f	0.063719384
143	0x4143ad08	12.229744
144	0xbd701191	-0.058610503
145	0x41423a91	12.139298
146	0x41453637	12.325736
147	0x3dae32d5	0.08505789
148	0xbcb6316a	-0.02224036
149	0x41416fd8	12.089806
150	0x41439519	12.223901
151	0x41414ff6	12.082022
152	0x41428be8	12.159157
153	0x3da7a1ab	0.081851326
154	0xbd8f0c23	-0.06984737
155	0xbd3605f5	-0.044439275
156	0x4142e801	12.181642
157	0x3d3b693a	0.04575465
158	0xbd50d37b	-0.050982933
159	0xbe12d405	-0.14338692
160	0x4141ce7a	12.112909
161	0xbb9bac8a	-0.004750793
162	0x4142a289	12.164681
163	0xbc31b6ee	-0.0108468365
164	0xbd2d1939	-0.042260382
165	0x4141742e	12.090864
166	0x3b672b37	0.003527356
167	0xbd41a31f	-0.047274705
168	0xbcbc6185	-0.02299572
169	0x414324c2	12.196474
170	0xbd6cee83	-0.05784465
171	0x41420c4b	12.128001
172	0x3d2f7214	0.042833403
173	0xbdf81c76	-0.121148035
174	0xbd052026	-0.032501362
175	0x414260f7	12.148673
176	0x414279f6	12.154776
177	0x4143228f	12.195937
178	0x3c001f61	0.007819981
179	0xbdc97c64	-0.09838179
180	0x3c617b12	0.013762252
181	0x4142517e	12.144896
182	0x3d21ee5e	0.039533965
183	0x41423eec	12.140362
184	0xbd41c4a3	-0.047306668
185	0x41437c5a	12.217859
186	0xbd482459	-0.04886279
187	0xb9d62d0f	-0.00040850832
188	0x3d2547e4	0.040351763
189	0x41425d06	12.147711
190	0xbbf28c2e	-0.0074019646
191	0x3db436de	0.087995276
192	0x41436b95	12.213765
193	0x41432720	12.197052
194	0x414496f1	12.286851
195	0xbdf15368	-0.117834866
196	0x41443ba5	12.264562
197	0x41433d97	12.202537
198	0xbcadb4d3	-0.021204388
199	0x4142b782	12.169802
200	0x41431830	12.193405
201	0x414569fb	12.338374
202	0x3d8f391c	0.069933146
203	0xbd03bff0	-0.032165468
204	0xbd98262f	-0.07429158
205	0x4144490d	12.267835
206	0x3bdeb9a7	0.006797034
207	0x414495ad	12.286542
208	0x3d8b498f	0.068011396
209	0x3ceddb5f	0.029035268
210	0xbe1a0f41	-0.15044881
211	0x3ce5c316	0.028047126
212	0xbc88c382	-0.016694788
213	0x3d324218	0.043520063
214	0xbdbdb6b1	-0.09263361
215	0xbb0f2d3c	-0.002184703
216	0x4145b379	12.356317
217	0x414523f8	12.321281
218	0x4146a470	12.415146
219	0x4143ed37	12.245414
220	0xbdaef017	-0.08541887
221	0x3cbbce17	0.02292542
222	0xbd5cc988	-0.053903133
223	0x41445f29	12.273232
224	0x4141dafc	12.115963
225	0x4143dc18	12.241234
226	0x3d1768e1	0.036965255
227	0xbb1ac2a7	-0.0023614557
228	0x4143390a	12.201426
229	0x4141d6b2	12.114916
230	0x41432f66	12.199072
231	0xbccf5dba	-0.025313247
232	0x4144eafe	12.307371
233	0x414140cd	12.0783205
234	0x3da9eac3	0.0829673
235	0x4142413e	12.140928
236	0x41437ca8	12.217934
237	0xbd8f1024	-0.069855005
238	0x41425c40	12.147522
239	0x4144fa4a	12.311106
240	0x4143d0ef	12.238509
241	0x3c9d59e8	0.01920791
242	0xbddfcb8d	-0.10927496
243	0x41469dc1	12.413514
244	0x4141d1dd	12.113736
245	0x395cdf16	0.00021063941
246	0xbd668754	-0.056281403
247	0x41442d86	12.261114
248	0xbda02c52	-0.078209534
249	0x414352a4	12.207676
250	0xbd390855	-0.04517396
251	0x414501a6	12.312902
252	0x414387c4	12.220646
253	0x4141915a	12.097986
254	0x414303b8	12.188408
255	0xbcb074b8	-0.02154003

network.4.weight f4 [9, 256]
0	0x3d7f59e6	0.062341593
1	0x3d2713b4	0.040790275
2	0x3cedf79c	0.029048733
3	0x3d13d621	0.03609288
4	0xbc0bd8c0	-0.008535564
5	0xbf00641d	-0.5015276
6	0xbbf558a0	-0.0074873716
7	0x3cd7a271	0.026322575
8	0xbf1a8544	-0.603596
9	0x3cbfc538	0.02340947
10	0xbb9dc450	-0.004814662
11	0x3d343d91	0.044004027
12	0xbef12717	-0.47100136
13	0xbd4180ac	-0.04724185
14	0xbce939a8	-0.028469875
15	0xbd2014b8	-0.03908226
16	0x3d1c55ac	0.03816764
17	0xbf12f5e6	-0.5740646
18	0xbf05744b	-0.52130574
19	0xbf0c3d52	-0.5478107
20	0x3c30b008	0.010784157
21	0xbac6ea44	-0.0015176018
22	0xbf03990c	-0.51405406
23	0x3d87c29d	0.066289164
24	0xbf067b46	-0.5253185
25	0x3c8cc573	0.017183995
26	0x3d0d3b92	0.03448064
27	0xbf004daa	-0.50118506
28	0x3d166bcd	0.0367239
29	0xbf13c523	-0.5772268
30	0xbf0c8fa3	-0.5490667
31	0x3c15c9d3	0.009142357
32	0xbef17a75	-0.4716374
33	0x3c1bb4b0	0.0095035285
34	0xbeeab7f3	-0.45843467
35	0xbf149b6e	-0.58049667
36	0xbd0e888a	-0.034798183
37	0xbc3c5e2b	-0.011497061
38	0xbd0971e4	-0.03355588
39	0xbd5abda6	-0.05340352
40	0xbc866355	-0.016404787
41	0xbd17e636	-0.03708478
42	0xbf0ea57c	-0.5572126
43	0x3c161e90	0.00916256
44	0x3d862e7c	0.06551835
45	0xbc9567f8	-0.018238053
46	0xbf11c144	-0.56935525
47	0xbeff455d	-0.49857607
48	0x3c3bae60	0.011455148
49	0xbf206a3b	-0.62662095
50	0x3c96ab0c	0.018392108
51	0xbf05ecd8	-0.5231452
52	0xbc30ed82	-0.010798814
53	0x3d85be05	0.06530384
54	0xbcbd6f34	-0.023124315
55	0x3df54795	0.11976544
56	0x3d03358c	0.03203349
57	0xbf110255	-0.56644183
58	0xbd457974	-0.04821153
59	0x3ceec52c	0.029146753
60	0x3b58d547	0.0033086108
61	0xbd341632	-0.04396648
62	0xbef9dc9a	-0.48801118
63	0xbef7934f	-0.48354575
64	0xbd4f0bfc	-0.05054854
65	0xbcd4f594	-0.025996007
66	0x3d9c3b94	0.07628551
67	0xbc52f53e	-0.012875853
68	0xbd7385a2	-0.059453614
69	0xbf0e740e	-0.55645835
70	0xbd27af96	-0.040938936
71	0x3ca52458	0.020158932
72	0x3c6d3ae0	0.014479369
73	0x3dbd0229	0.09228928
74	0xbef76b6d	-0.48324147
75	0x3c03e3b1	0.008049891
76	0xbf030c4a	-0.51190627
77	0xbd1b89a6	-0.03797307
78	0x3cfca161	0.03083867
79	0x3d36d45e	0.044636123
80	0x3ca39f25	0.019973347
81	0x3cc177e8	0.023616746
82	0x3d8c4c1e	0.06850456
83	0xbf0d2798	-0.5513854
84	0x3be5f500	0.0070177317
85	0x3d1406cc	0.036139295
86	0xbf0d8dcf	-0.5529451
87	0xbf052bad	-0.5201977
88	0xbf16e921	-0.58949476
89	0xbf09252c	-0.53572345
90	0xbcf612a4	-0.030038185
91	0xbf132b5d	-0.5748804
92	0x3cf059b2	0.029339645
93	0x3d1c8e1a	0.038221456
94	0x3b9d9bcd	0.0048098327
95	0xbf18bc35	-0.5966218
96	0xbb8473c0	-0.004042119
97	0xbc9016d8	-0.017589018
98	0x3cbde251	0.023179205
99	0x3d4b292a	0.049599804
100	0x3d797a3e	0.060907595
101	0x3c8f1220	0.017464697
102	0x3bcb8e80	0.0062120557
103	0xbef99529	-0.48746613
104	0xbf0d2966	-0.55141294
105	0xbb0c0220	-0.0021363571
106	0x3b84ab85	0.004048767
107	0x3d6b98e6	0.057518862
108	0xbf02f38e	-0.51152885
109	0x3d38022f	0.044923957
110	0xbef5ce7a	-0.48009092
111	0xbf1604f1	-0.5860129
112	0xbf11edf8	-0.57003736
113	0x3d257df9	0.04040334
114	0xbca46174	-0.020066
115	0xbd5449a2	-0.051828034
116	0x3c89fb40	0.016843438
117	0x3be99c78	0.007129248
118	0xbd77a0fa	-0.060456254
119	0xbf071105	-0.52760345
120	0xbf0bab33	-0.54558104
121	0xbf178512	-0.59187424
122	0xbcc6dc60	-0.024275005
123	0xbd148594	-0.036260203
124	0xbef94e3a	-0.48692495
125	0x3d3bc644	0.045843378
126	0xbf12ee26	-0.57394636
127	0xbf1ec0c7	-0.62012905
128	0xbd07a178	-0.033112973
129	0xbd5ab78c	-0.0533977
130	0xbf003e00	-0.50094604
131	0xbef30c4c	-0.4747032
132	0xbd25f8ae	-0.040520363
133	0xbef2ba59	-0.47407797
134	0xbcc9517e	-0.024574991
135	0xbf0f3e91	-0.55954844
136	0x3d4b0196	0.04956206
137	0x3d89a9ca	0.06721838
138	0xbf1bd7cf	-0.6087617
139	0xbf0fc3af	-0.56157964
140	0x3c072138	0.008247666
141	0x3cb9cda8	0.022681072
142	0x3b9b6a6f	0.0047429125
143	0xbf1483c7	-0.58013576
144	0xbd57d406	-0.052692436
145	0xbf11f3e3	-0.57012767
146	0xbf1e0670	-0.6172857
147	0xbd0493a2	-0.032367356
148	0x3d345e64	0.04403533
149	0xbefb9b5d	-0.4914197
150	0xbf154a5b	-0.5831658
151	0xbefce833	-0.49395904
152	0xbf051a74	-0.5199349
153	0xbd6c0eb2	-0.057631202
154	0xbd4a4914	-0.0493861
155	0xbca6e317	-0.020371957
156	0xbf14444b	-0.57916707
157	0xbc7c2f23	-0.015392098
158	0x3d162aa6	0.036661766
159	0x3d9cb1b1	0.076510794
160	0xbf132abe	-0.57487094
161	0xbd391676	-0.045187436
162	0xbf0c7dde	-0.5487956
163	0xbd02c389	-0.031924758
164	0xbcd059a6	-0.025433373
165	0xbf1498bd	-0.5804556
166	0x3be95e9e	0.007121875
167	0x3d7b3dec	0.06133835
168	0xbd13e8ae	-0.036110573
169	0xbf04a0fe	-0.51808155
170	0xbc3106b6	-0.010804823
171	0xbf06312e	-0.5241879
172	0xbc069b57	-0.008215747
173	0x3d001480	0.03126955
174	0x39cbab6a	0.0003884689
175	0xbf18a76f	-0.59630483
176	0xbefe3bea	-0.49655086
177	0xbf11cbe5	-0.56951743
178	0x3c353703	0.011060479
179	0xbc376b2a	-0.0111949835
180	0x3d37b7fa	0.044853188
181	0xbf0045ec	-0.5010669
182	0x3d716c0c	0.058940932
183	0xbf01880f	-0.50598234
184	0x3d2f74a4	0.042835847
185	0xbf058153	-0.5215046
186	0x3b5a9d20	0.0033357814
187	0xbd79043c	-0.060795054
188	0x3d0b74e3	0.03404702
189	0xbef1d462	-0.47232348
190	0xbda9a1b4	-0.082827955
191	0xbd0edaa8	-0.034876496
192	0xbf05ea52	-0.5231067
193	0xbf1de53b	-0.616779
194	0xbf12d388	-0.5735402
195	0x3c012e13	0.00788452
196	0xbf136224	-0.57571626
197	0xbf0bfd90	-0.5468378
198	0xbd629b08	-0.05532363
199	0xbf168970	-0.58803463
200	0xbf0d01b6	-0.55080736
201	0xbf1686c5	-0.5879939
202	0xbc736aa0	-0.014856964
203	0xbd61f7cc	-0.05516796
204	0x3c27404d	0.010208202
205	0xbf13df4c	-0.577626
206	0xbcdb0171	-0.026734086
207	0xbf0d6992	-0.5523921
208	0x3c3f2267	0.011665917
209	0x3da3f66f	0.08005988
210	0x3d8f5946	0.069994494
211	0x3d4dc17e	0.050233357
212	0xbd71eeb0	-0.05906552
213	0x3cc39857	0.023876352
214	0x3c292d6d	0.010325772
215	0x3d67e178	0.056611508
216	0xbf1ec193	-0.6201412
217	0xbf065a5b	-0.5248162
218	0xbf3a58e3	-0.7279188
219	0xbf09bcce	-0.5380372
220	0x3ce5b024	0.028038092
221	0x3da819f8	0.08208078
222	0xba27fe00	-0.00064083934
223	0xbf0e0661	-0.55478483
224	0xbefadc7e	-0.48996347
225	0xbf0753e4	-0.5286238
226	0xbcf97d65	-0.0304553
227	0xbd0b0843	-0.033943426
228	0xbef6e624	-0.48222458
229	0xbf3e77d5	-0.744016
230	0xbf09388f	-0.53601927
231	0x3a8de813	0.001082661
232	0xbf20ba21	-0.6278401
233	0xbf02914f	-0.51002973
234	0x3d6e7ae6	0.058222674
235	0xbf11f57e	-0.57015216
236	0xbf041f39	-0.5161014
237	0x3cb4d6b8	0.022075042
238	0xbf037c12	-0.5136119
239	0xbf1c80d7	-0.61134094
240	0xbf0f8d0e	-0.5607461
241	0x3d0eda18	0.03487596
242	0x3d55da52	0.05221016
243	0xbef63a29	-0.48091248
244	0xbeeeba49	-0.466265
245	0x3cc3d5c0	0.023905635
246	0xbd32da30	-0.04366511
247	0xbf0d7981	-0.55263525
248	0xbb5b78bb	-0.003348871
249	0xbf0cf843	-0.5506632
250	0x3d62877c	0.05530499
251	0xbf0b6f35	-0.54466563
252	0xbf001741	-0.5003548
253	0xbeecd791	-0.46258214
254	0xbf0e23d7	-0.5552344
255	0xbc7ab0b8	-0.015300922

network.4.bias f4 [9]
0	0xbe272715	-0.16323502
1	0xc055e0a6	-3.3418365
2	0x41207857	10.02938
3	0x410f572c	8.958782
4	0x412085b0	10.032639
5	0xbefce476	-0.49393052
6	0xbf95d1f1	-1.1704694
7	0xc088d745	-4.276278
8	0xc093a942	-4.6144114
