models/critic_final1.pth (torch, 144783 bytes, 5 tensors)

network.0.weight f4 [128, 18]
000000 bf ee a0 bc 66 d7 1a be 99 68 54 be 26 fb 90 3d
       -0.019645093 -0.1512123 -0.20743026 0.07079153
000010 38 e9 98 3e bd 50 1d bc ae b3 7b 3d 21 b4 f2 bd
       0.29865432 -0.009601769 0.061450653 -0.11850763
000020 9f d7 94 3e 9e d5 b0 3e 6e e3 28 3e ee be 8c be
       0.29070756 0.34537977 0.16493008 -0.27489418
000030 31 fb 77 be 1c 9a f7 bc 11 a7 91 bd 25 b1 97 bd
       -0.24216916 -0.030224852 -0.071119435 -0.074068345
000040 20 90 80 3e 15 84 39 3e fc b2 21 be 80 a9 48 3e
       0.2510996 0.18116792 -0.15790933 0.19595909
000050 40 9c 68 bb ea be 62 3e 3b 00 08 3e 98 c9 1b bd
       -0.0035493523 0.2214314 0.13281338 -0.03803405
000060 8b 5e 0e be 54 36 81 be ec d4 15 3e ef a2 c5 3b
       -0.13903253 -0.25236762 0.14632004 0.006031386
000070 f6 90 56 3d f2 42 c4 be 8c 12 06 bd ff 7b dc be
       0.05238434 -0.38332325 -0.03273253 -0.43063352
000080 b4 c4 ae bd 50 f6 14 3e 5e 29 f5 be c4 a9 89 3e
       -0.08533612 0.14547086 -0.47883123 0.26887333
000090 6a db 07 3e 3f 31 96 3d 29 e8 82 3e 99 9c eb bd
       0.13267294 0.07333612 0.2556775 -0.11504478
0000a0 ae 2e 0b 3e 4f cf 26 be 64 8a 05 bd d1 bf be 3e
       0.13592026 -0.1629002 -0.032602683 0.3725572
0000b0 21 31 7a be 74 7f d7 3d d3 10 82 3d 8f 37 95 bc
       -0.24432804 0.10522357 0.06350865 -0.018214969
0000c0 79 44 49 3d 2c 7d ee 3d 46 5f 36 bd 4c df 44 be
       0.049137566 0.116449684 -0.044524454 -0.19225806
0000d0 08 7d 10 3e cc 29 00 3d f8 88 9b 3d 18 2f ca bd
       0.14110196 0.03128986 0.07594484 -0.09872264
0000e0 d3 4c 0d be 7d c5 81 be 3e 8b fc bd dc ad 42 3e
       -0.13798837 -0.25345984 -0.12331246 0.19011635
0000f0 0d b5 be bc 06 da fa bd ae 9e 8e 3e c9 09 db 3d
       -0.023279691 -0.12248616 0.27855438 0.10695226
000100 35 5c d8 bc 64 df 90 bc f6 2b f1 be 32 92 11 bb
       -0.026411155 -0.017684646 -0.47103852 -0.0022212383
000110 46 ee 80 3d a6 96 3d be 45 18 63 bc d2 46 0d bf
       0.06295447 -0.18514499 -0.013860767 -0.5518619
000120 e5 fc fd bb a0 97 45 be e6 6a ee 3d 5d e7 38 be
       -0.0077510946 -0.19296122 0.11641483 -0.18057008
000130 88 e6 88 be c9 2f 8c 3e 39 96 8e be dc 29 c3 bd
       -0.2673838 0.27380207 -0.27848986 -0.095294684
000140 ec 8d 63 3e 30 ac 52 3c 6b 73 c7 be 0c e0 5c 3e
       0.22222108 0.0128584355 -0.38955244 0.21569842
000150 ef 7b ea be c9 ed 71 be 6d 2b 0b 3f aa cb d6 bb
       -0.4579768 -0.23625864 0.5436314 -0.0065550404
000160 65 8d 50 3e 20 9c b4 be 81 86 84 3d d9 3f 09 be
       0.20366438 -0.35275364 0.06470967 -0.13403262
000170 b2 d8 b4 3c f6 28 6e be fb 0b 29 3e ed 3b 69 3e
       0.022075985 -0.23257813 0.16508476 0.22776766
000180 32 d4 dd bd 76 3e fe bd d3 f6 97 3e 73 5b fd 3d
       -0.10831489 -0.12414257 0.296805 0.12370958
000190 ce bd 8b be 62 30 cb 3d 22 13 15 bf d6 6f 94 bd
       -0.27293247 0.09921338 -0.5823232 -0.072478935
0001a0 0d bb b8 3d bb b6 ac be 32 d4 ea 3b eb 6f 03 3e
       0.09020052 -0.33733162 0.007166409 0.12835662
0001b0 cc fe 1c 3c 34 9b 90 bd cb 77 3d bc e5 b8 81 be
       0.009582233 -0.07060853 -0.011564205 -0.25336376
0001c0 be 39 44 be de bd f3 3d 9e 76 7e 3d a3 cd 82 be
       -0.19162652 0.11901449 0.06212484 -0.25547513
0001d0 38 8e 89 3d 64 f7 8b bd ca 4a 9b bd 9b 97 86 be
       0.06716579 -0.068342954 -0.07582624 -0.2628754
0001e0 0e a3 69 be 70 51 86 be ce 7f d5 bd 97 ca 9f 3d
       -0.22816107 -0.26234007 -0.104247674 0.07802313
0001f0 a6 fd 45 3e 10 a6 d3 3d 09 ee bb 3d 99 92 dc bd
       0.1933504 0.10334408 0.09176261 -0.10770149
000200 0e 94 3e 3d cd 91 86 be 64 21 6a be 07 64 00 be
       0.046527915 -0.26283112 -0.228643 -0.12538157
000210 34 84 b9 3d a2 f4 a0 be 25 fc 85 be cf 0d c6 bd
       0.09058419 -0.3143664 -0.26168934 -0.096706025
000220 4e da 6c 3e 3c 71 03 be 6b b3 fc bd 39 03 ba bc
       0.23130152 -0.12836164 -0.12338909 -0.022706615
000230 f3 fd e7 bd 3d b6 7a be 2c 8f 94 3e 43 2d 98 3d
       -0.11327734 -0.24483581 0.2901548 0.07430508
000240 31 8f 07 be 03 95 63 bd 1e b4 47 be 77 4d 79 3e
       -0.13238217 -0.05556203 -0.19502303 0.24345957
000250 85 70 e1 3d 8f 7b 85 3c ae c1 2c bd 20 1f 4c be
       0.110077895 0.016294269 -0.042176895 -0.19933748
000260 7d d0 01 3e d5 75 f2 3b 51 2c 1d bd 3f a7 a2 be
       0.12677188 0.0073993006 -0.03837234 -0.31768224
000270 4a d7 d8 3d a4 a2 f9 be 84 8d 2a 3e 11 36 ba 3d
       0.10587938 -0.48756897 0.16655546 0.090923436
000280 b0 09 06 3d 5a ba 60 3e 74 b1 10 be f9 f8 cb bd
       0.032724082 0.21946087 -0.14130193 -0.09959597
000290 bb 48 38 3e 9f 7b e8 bd c3 57 3c be 7c 54 31 3e
       0.17996494 -0.11351704 -0.18392853 0.17317384
0002a0 d7 6e a1 be 8a 27 43 3e 7c 26 90 bc 00 a5 88 be
       -0.31529877 0.19058052 -0.017596476 -0.26688385
0002b0 7a 47 d5 3e 53 ca ec bd 1b ae 3a be d7 47 84 be
       0.41656095 -0.11562028 -0.18230478 -0.2583606
0002c0 ac 2a 85 be a8 84 ef 3d b0 ef 6d be d8 fb 49 be
       -0.2600912 0.11695224 -0.23235965 -0.19724977
0002d0 1b 54 8a bd 70 1b 67 3e e7 39 cd 3d 5f 79 54 3e
       -0.06754323 0.2256906 0.100208096 0.20749424
0002e0 a3 b7 e0 bd b9 66 46 be 24 14 bd bc 53 6d 7f bd
       -0.10972526 -0.19375123 -0.023080893 -0.06236012
0002f0 04 6a f5 3d a2 c2 c1 3d aa 4f 37 be ca af 01 3e
       0.119831115 0.094609514 -0.17901483 0.12664714
000300 6c ac 7c bd b3 5f 79 be 0b 9c a2 be d5 95 4c 3d
       -0.06168787 -0.24352913 -0.31759676 0.04994758
000310 b7 88 7a 3e b0 b2 95 3d b4 b5 42 be c3 10 37 bc
       0.24466215 0.073094726 -0.19014627 -0.01117343
000320 0b 16 0c 3e 1f 15 0a 3d 52 78 da bd 6d e3 b4 3e
       0.13680284 0.03371155 -0.106674805 0.35329762
000330 cc 3c d2 be e0 85 3c be e1 ae e2 3d be fc 35 3d
       -0.4106201 -0.18410444 0.11068512 0.044430487
000340 5f 6e b9 be d6 61 41 3d ac a0 cd be e3 d4 ef be
       -0.3621702 0.047212444 -0.40161645 -0.46842107
000350 28 cd d0 3e 2a e2 5a 3e b2 b1 62 bc a4 b5 99 bd
       0.40781522 0.21375337 -0.013836311 -0.07505348
000360 2a 68 02 be 6f a6 95 bc e8 42 ed 3c 63 c1 82 bd
       -0.12735048 -0.018267838 0.028962567 -0.06384542
000370 41 40 90 3c 64 08 62 3e 92 85 21 be 78 dc b8 bd
       0.017608764 0.22073513 -0.1577361 -0.09026426
000380 a9 61 a0 bc 03 09 c3 3d fb 20 1c be 9d bb 8b 3e
       -0.019577818 0.09523203 -0.15246956 0.27291575
000390 f3 d5 82 be 79 dd 34 3d f2 20 ad 3e c4 55 1c be
       -0.25553855 0.044156525 0.33814198 -0.15267092
0003a0 13 2c e2 3d f8 c2 f8 bd 75 44 95 bd 9f 71 c9 bd
       0.11043563 -0.12146562 -0.07288448 -0.09836125
0003b0 44 ca e7 bd a0 54 65 3e 3f 3f 80 be 82 6c c6 3d
       -0.11317876 0.22395563 -0.25048253 0.09688665
0003c0 b6 a9 54 3e 51 2b 57 3e a1 23 0e be 50 be 9b be
       0.20767865 0.21012618 -0.13880779 -0.30418634
0003d0 de d6 68 3c 88 53 6b 3d ed 64 78 3e ff 07 59 be
       0.014211385 0.05745271 0.2425725 -0.21194457
0003e0 ac f1 8b 3e a3 dd b4 3d b3 2e 0e bd 8b fd 4c 3e
       0.27332819 0.08831336 -0.034712505 0.20018594
0003f0 67 3d a8 bb b9 45 11 be 7c 8c aa bd f3 f3 89 3d
       -0.005134273 -0.14186753 -0.083275765 0.06735983

network.0.bias f4 [128]
000000 a8 bd 91 bd a7 de 08 bd f8 f1 e3 bd 99 45 24 3e
       -0.07116252 -0.033415463 -0.11130136 0.16042174
000010 dc 0d 49 3a 62 10 94 3e 7e de 03 bd 0a ef 60 3d
       0.0007669607 0.2891875 -0.032194607 0.054915465
000020 7e a8 c3 3d 8c 15 e7 bd f2 7a 0f 3c 62 f0 98 3d
       0.09553622 -0.112834066 0.00875734 0.074677244
000030 60 32 3e 3c 1c a1 8b 3d 07 11 1f be 0d 9a 2d bd
       0.01160869 0.068178385 -0.15533839 -0.042383242
000040 a1 79 bb 3d c9 c3 02 be dc 9d 53 be a9 a0 6e be
       0.09154058 -0.12769999 -0.20665687 -0.23303474
000050 7a f8 56 be d5 cb 89 bc 3b 92 e3 3b 41 cd 49 3e
       -0.20993224 -0.016820827 0.0069449223 0.19707204
000060 8f ba a0 bd e5 94 ef bd 8e c1 19 bd f2 eb 29 be
       -0.07848083 -0.11698321 -0.037538104 -0.16593912
000070 a3 77 9d be 8f 7a e7 bd ee d3 83 bd 87 4a 7d be
       -0.30755338 -0.11302673 -0.06436907 -0.24735461
000080 df 15 32 3e c5 a1 a2 bd e7 ab 4d 3d 72 aa 80 bd
       0.17391156 -0.07941011 0.050212767 -0.0628251
000090 1f 84 11 3d b9 80 d5 3d f1 e9 c6 3d b3 ae 47 be
       0.03552639 0.104249425 0.097125895 -0.19500236
0000a0 86 4a eb bd c9 41 80 be 30 aa df 3d c5 ce 97 be
       -0.114888236 -0.2505019 0.109211326 -0.2964994
0000b0 05 37 a4 3d b3 7d 55 3e f9 2f 3c 3d de cd 99 3c
       0.08018307 0.20848732 0.045944188 0.018774923
0000c0 0a bd 59 be 73 06 1c be 14 7c b0 3d d8 ca 15 3d
       -0.21263519 -0.15236835 0.08617416 0.0365704
0000d0 f5 d3 e1 bd bc 33 bf bd 28 02 16 3d 12 f0 d3 bb
       -0.11026756 -0.093360394 0.03662315 -0.0064678276
0000e0 34 3f 8e be b5 23 d7 bc 7a 04 e2 3c cb ba 28 3c
       -0.27782595 -0.026262144 0.027590025 0.010298441
0000f0 7d e0 02 3e fe 39 64 bd 85 5e 6a bc c0 ea 8d bd
       0.12780948 -0.05571937 -0.014304762 -0.06929541
000100 49 30 0d be 45 4f 7a 3b 8c 1a 35 be 97 b1 9b 3a
       -0.1378795 0.003819422 -0.17685908 0.0011878487
000110 65 eb f3 3d c3 37 40 3d 49 d3 f6 3d 6b 18 96 3d
       0.11910132 0.04692818 0.12052018 0.07328876
000120 b0 65 6e bd 46 e4 4a bd fc 5c 8e 3d 18 ec d5 3b
       -0.058202446 -0.049534105 0.06951329 0.0065283887
000130 d7 a1 dd 3d cf 62 82 bd 90 29 d0 bd 3c 7d 7d bd
       0.10821884 -0.063665025 -0.101641774 -0.06188701
000140 ad c1 56 3e 2b e7 48 3d 61 f3 01 be 58 f4 2a 3e
       0.20972319 0.049048584 -0.12690498 0.16694772
000150 27 60 59 be 4b ef ce bd c5 2e 3f be 1a 44 58 be
       -0.21228085 -0.10104235 -0.18670185 -0.21119729
000160 2a cc fb 3d 2a 84 5b be 27 79 6e 3e c6 b7 37 be
       0.122948006 -0.21437135 0.23288403 -0.17941198
000170 cd 1c b3 bd fe 28 d0 3b 00 b0 f4 bd b8 14 98 bc
       -0.08745728 0.006352543 -0.11947632 -0.018564567
000180 e3 36 a9 bd 5e c9 61 be d9 2b 83 3a 8a 68 ee bd
       -0.08262422 -0.22049472 0.0010007574 -0.11641033
000190 f0 e5 01 bd 69 e8 28 be 5c 20 4d bd 26 c5 dd bd
       -0.031713426 -0.16494907 -0.05007969 -0.10828619
0001a0 47 c7 c9 3d f0 ff bd bd a3 cc 0c be 03 a8 59 be
       0.09852462 -0.09277332 -0.13749938 -0.21255498
0001b0 f7 43 78 bd 86 41 67 3d 0a 51 06 3d cd b2 8d 3d
       -0.06061169 0.056458972 0.03279213 0.06918869
0001c0 20 7a 98 be 46 20 f0 3d 69 07 0e 3e 01 04 63 3d
       -0.29780674 0.11724906 0.13870014 0.05542374
0001d0 cd e6 03 3e fa 00 ce bd ef b3 10 be f1 64 77 bd
       0.12881012 -0.1005878 -0.14131139 -0.060399
0001e0 14 ba 11 be 8b 03 25 be 96 12 77 3e 35 7b 3a 3e
       -0.1423114 -0.16114633 0.24128184 0.18211062
0001f0 b1 b7 31 be 86 74 8d bd a2 8d 48 bc a1 b7 53 be
       -0.17355229 -0.06906991 -0.012240799 -0.20675518

network.2.weight f4 [256, 128]
000000 d5 71 8b 3e a3 7a ce 3d df c8 12 be 04 87 23 3e
       0.27235284 0.10081985 -0.14334439 0.15969473
000010 8f ca b5 3e 23 0a bb 3d 0a f9 07 bd dd 55 be 3d
       0.35506102 0.09132793 -0.033196487 0.09293721
000020 24 61 03 bc cb b6 92 be f8 bc a4 3d b9 45 67 3e
       -0.008018766 -0.28655085 0.080438554 0.22585191
000030 2e cb 93 3c 03 e3 bd 3d f4 0e 8f 3d e3 b0 cf 3d
       0.01804122 0.09271815 0.06985274 0.1014116
000040 cc 61 fb 3e 9f 2d 05 3d 90 cd c5 bc 66 d1 df bd
       0.4909805 0.03251421 -0.024145871 -0.109286115
000050 2c f2 64 bd b9 d9 b4 3d 3b cb 8b be 6e 5b 4b be
       -0.055895016 0.0883059 -0.2730349 -0.19859096
000060 39 f5 cc 3e 04 ec 2b 3d 11 59 e3 3c 50 4d a9 3e
       0.4003084 0.04197313 0.027752431 0.33066797
000070 89 b8 8c be 86 da 0d be d2 02 bb bb da 72 73 3d
       -0.2748454 -0.13852891 -0.0057071233 0.059435703
000080 b5 9b c1 3d 62 cb 2e 3d b8 eb 20 3d e9 6c 14 bd
       0.09453527 0.04267443 0.0392873 -0.036236677
000090 f8 62 10 3e 73 f1 85 3d 30 97 29 3d 43 ee de 3d
       0.14100254 0.065401934 0.04140395 0.108852886
0000a0 3c 95 55 be 3c fc f5 bb b3 64 3b bc f0 42 c3 3d
       -0.2085771 -0.0075068753 -0.011437583 0.09534252
0000b0 80 9c 89 3e 11 05 12 bd 76 60 13 3e 89 e9 6c bd
       0.26877213 -0.035649363 0.14392266 -0.057839904
0000c0 42 7e ff be 46 a5 50 3e 7b 78 a8 bc f1 ee 9c bd
       -0.49901015 0.20375547 -0.020565262 -0.07662762
0000d0 16 f0 21 3d f6 de 61 bc c7 1c 4e 3e 5c cd 5e be
       0.039535604 -0.013786068 0.20128165 -0.21758026
0000e0 80 8d d6 3d f1 cf 8a 3e 77 b2 21 3e 32 eb c0 3e
       0.10476208 0.27111772 0.15790735 0.3767944
0000f0 c6 7b 0b 3f 1b 7d 62 bd 8f f2 9f be 3c a9 fa bd
       0.5448574 -0.05529509 -0.31239745 -0.1223931
000100 73 cb 5b 3e 6c 3e d0 3c 43 a9 af 3d c2 29 ad 3e
       0.21464328 0.02542039 0.08577206 0.3382092
000110 9e fc 09 3e 44 d8 10 3f 25 2f 29 be 68 0f 1c 3d
       0.13475272 0.56579995 -0.1652189 0.03810063
000120 cf 28 56 3d b8 05 97 bd 69 2f 2b bd c5 bb 98 bd
       0.05228501 -0.07374138 -0.04179326 -0.07457689
000130 ba cb 9b 3d 36 20 50 3e c3 e1 85 bc 13 25 dd be
       0.07607217 0.20324787 -0.016343003 -0.43192348
000140 31 5b 11 3e a1 a2 96 3c 16 bb 6a 3e cc 28 ab 3d
       0.14194943 0.018388094 0.2292293 0.08357391
000150 cf be a5 bc 30 a7 e1 be b2 0d 07 3e b0 70 c9 be
       -0.020232586 -0.44072866 0.13188818 -0.39343786
000160 47 97 ec 3d b9 57 44 be a8 52 b7 3e f3 3a 02 3d
       0.11552291 -0.19174089 0.3580525 0.0317945
000170 2a dc 95 bd 19 69 72 3d 0d 1c d2 be 62 e7 a2 3e
       -0.073173836 0.05918226 -0.41037026 0.31817156
000180 36 3c d7 3c 1e b7 b4 3d cf e5 a8 3e 3b 0c f9 3d
       0.026273828 0.08823989 0.3298783 0.12160536
000190 ef 6a 64 3d 99 6a 48 3e 34 65 b3 3d 4d 32 8f 3e
       0.055766042 0.19571914 0.08759537 0.27968064
0001a0 66 e5 80 be 8c f7 62 3e 16 e6 05 be 17 94 2e bd
       -0.25175017 0.22164744 -0.13076052 -0.0426217
0001b0 44 6d 97 3d f6 07 f8 bc 9b c9 64 bd 4d 8e f1 3c
       0.07393888 -0.030277234 -0.05585633 0.0294868
0001c0 58 4e e0 bd 29 12 4a 3d ca d8 8d bd 1f a8 a4 be
       -0.10952443 0.049333725 -0.06926115 -0.32159516
0001d0 30 b9 24 3c b7 d1 e9 be 1c a1 5f 3e 4a 42 16 3e
       0.010053918 -0.45667812 0.21838802 0.14673725
0001e0 c5 5c 6a 3e b0 56 16 bb 9d 40 78 bd 53 7c 29 3e
       0.22886951 -0.0022939853 -0.060608495 0.16551332
0001f0 a6 b0 d6 3c c5 a3 10 3c 95 71 f3 3d 52 6d 17 bf
       0.02620728 0.008828108 0.118868984 -0.59151185
000200 da d4 a1 bd b7 d5 88 3b 31 a3 6f bc 6b f9 c8 bd
       -0.07901926 0.0041758674 -0.01462631 -0.09813198
000210 b1 83 d2 bc 2f 96 04 39 3e b1 98 bd 9f 00 a9 3d
       -0.025697561 0.00012644449 -0.07455681 0.082520716
000220 bd ab 38 3d 29 36 95 3d 2d c5 4c bc 94 97 6e 3d
       0.045085657 0.07285721 -0.012498182 0.058250025
000230 e6 c5 f3 3c 58 32 b0 bd 06 02 1b bd 16 1d d4 bc
       0.029757451 -0.08603352 -0.037843727 -0.025892776
000240 c6 78 ae 3d 09 c0 17 3d f1 7b f0 bc fb 57 00 3d
       0.085191295 0.037048373 -0.029355975 0.031333905
000250 e3 2e 01 bd d9 5f ba 3c 1b 47 b1 bc 3e 80 e9 3c
       -0.031538855 0.022750782 -0.021640351 0.028503533
000260 e5 fe b1 3d 33 f0 af bc 66 24 2a bd c8 9a 04 39
       0.086911954 -0.02147684 -0.04153862 0.00012646161
000270 82 d1 53 3c d4 7d aa bd 6c 98 be bd 91 f9 9c 3d
       0.0129283685 -0.08324781 -0.09306416 0.076647885
000280 d5 5f 18 bd 36 a9 e0 3c 1d 33 cc bc e5 dd b0 bd
       -0.037200768 0.027424436 -0.024926716 -0.08636073
000290 62 4e a4 3d 9d d2 a6 bd 1c ae b6 bc d3 01 96 3d
       0.08022763 -0.0814564 -0.022299819 0.07324567
0002a0 e3 9c 2f bb d9 92 22 3c f9 e3 58 bd 5e da 90 3b
       -0.0026796393 0.0099227065 -0.052951787 0.0044205626
0002b0 10 42 ae bc c2 bb 70 3d 3b fb de 3c 0e 30 64 3d
       -0.021271735 0.05877281 0.027219405 0.05570989
0002c0 4b 2f be bd c7 09 99 bc f4 94 a6 bc e0 36 22 3c
       -0.09286364 -0.01868142 -0.020334698 0.0099007785
0002d0 e4 24 83 bd 4e 75 19 bd 92 fd 76 3c 84 e6 8e 3d
       -0.06403521 -0.037465386 0.015075104 0.06977561
0002e0 bb 21 29 3d 7f 53 11 bd 41 27 40 3c 04 f6 89 3c
       0.041291934 -0.03548002 0.011728109 0.016840942
0002f0 35 6f 84 3b c9 1b af 3c eb c5 25 bd 58 a9 9d 3c
       0.004041577 0.021375554 -0.040471952 0.019245788
000300 1b d7 ac bd 6a ac 1c bd 2c 21 6f bd c4 aa 38 bd
       -0.084394656 -0.038250364 -0.058381245 -0.04508473
000310 88 1e 1a bb 65 3b 93 bd 5b 4b 72 3c de 9e 77 bd
       -0.0023516733 -0.07189063 0.014788474 -0.060454242
000320 5e c0 5d bd 38 9e 9f 3c 5f 49 7f 3d 35 fe 88 bc
       -0.054138534 0.019484624 0.06232583 -0.016722778
000330 03 ee 27 bd af 34 2f 3d 4c e4 35 3d d2 4c 20 bd
       -0.04099847 0.042774852 0.044407174 -0.03913576
000340 f7 88 87 bd 13 ae 31 3d 28 5d 8f bd e0 ba 96 bd
       -0.06617921 0.0433789 -0.0700019 -0.07359862
000350 c5 81 b0 bd 6c a8 6d 3d 38 7f 12 bc f9 ad 84 bd
       -0.086185016 0.058021948 -0.008941464 -0.06478495
000360 69 4f 80 3d 8c ce 30 bd 26 8f 76 bb 14 de 45 bc
       0.06265146 -0.04316573 -0.0037621944 -0.012076873
000370 4a 3a e8 3c ad be a8 bd 2c 24 9c bc f9 7c 7a bc
       0.028348107 -0.082394935 -0.019060217 -0.015288585
000380 b5 51 b6 bd 28 aa 83 bd 8c 16 89 bc 57 a1 57 bd
       -0.08902303 -0.06428939 -0.016734384 -0.0526441
000390 41 cc 59 3c 60 1e 8a 3d dc 15 b4 bc 1f 86 1e bd
       0.013293327 0.06744075 -0.02198308 -0.038702127
0003a0 a7 43 57 bd 6d 7b 84 bc 6e 51 6b bd 2c 87 0f 3d
       -0.052554753 -0.016172135 -0.057450704 0.03504102
0003b0 95 ef 95 bd 42 75 ab bd 69 4b 2f 3d 6a a1 90 bd
       -0.07321087 -0.083719745 0.042796526 -0.07062037
0003c0 26 17 ac bc 95 d9 d2 3c 75 ab 86 bc ec e4 27 3c
       -0.021007132 0.025738517 -0.016439179 0.01024745
0003d0 0c 03 4e 3d 3f 5e d2 3c dd 32 a9 3c 0d 1e 55 3d
       0.050295874 0.025679706 0.020654136 0.05203061
0003e0 67 9b 56 bd 0f d8 e9 3c 60 7a 5c 3d b3 1f 80 bd
       -0.052394297 0.028545408 0.053827643 -0.06256046
0003f0 e4 de 1f bd f0 0f fa 3c 6d 61 1c bd 9f 8d 51 bd
       -0.039030924 0.030525178 -0.03817885 -0.05116045

network.2.bias f4 [256]
000000 f8 66 77 3d dd a2 37 bd 33 25 e5 3d d4 56 96 bd
       0.060400933 -0.044833053 0.11188736 -0.0734078
000010 f3 ce 53 3d f9 4a 87 3c 50 57 2f bd 07 8e 01 3e
       0.051711034 0.016515242 -0.042807877 0.12651835
000020 ad bb b5 bc 75 77 f9 3d 03 1e 15 bd d6 6e 45 bd
       -0.022184217 0.12180988 -0.036405575 -0.048201405
000030 e5 cb a8 3d bb eb a6 3c 63 45 fc bb 29 f2 5e 3d
       0.08242015 0.020376077 -0.007698701 0.05443016
000040 f2 f0 22 3d d1 8d 1e 3d 52 cd 9a bd 50 bf a5 bc
       0.039780565 0.038709465 -0.07558693 -0.020232826
000050 ab ac 13 3e 6b 10 b9 3d 8e 50 15 3e e1 c6 29 3e
       0.14421336 0.090363346 0.1458151 0.16579773
000060 ec f5 37 3b b8 e4 1e 3d bb 5b 81 bc a2 2e fd bd
       0.0028070165 0.038792342 -0.01579081 -0.1236241
000070 0f 6a 40 bd b2 eb 16 bd 1e 40 ee 3d a5 14 2d 3d
       -0.046976145 -0.03684587 0.11633323 0.042256016
000080 e2 e2 06 3e 7a 8e 70 3d 77 17 48 3d a0 24 37 bd
       0.13172486 0.058729626 0.048850503 -0.044712663
000090 4b bb c9 3d fb e3 60 3c 53 7b 59 3d 59 67 44 bd
       0.098501764 0.01372623 0.053096127 -0.047950123
0000a0 5c 1f 46 bc fb 6a 5f 3d 9b 39 bd 3d 3d 7a 29 3e
       -0.012092438 0.054545384 0.09239503 0.16550536
0000b0 18 a5 e1 bd 1c 91 f5 3d d5 21 1f bd ef 02 12 bd
       -0.11017817 0.11990568 -0.038850624 -0.03564733
0000c0 5e 8f de 3c b3 8f a0 3d e0 2e 55 bd e7 65 74 3d
       0.027167972 0.078399085 -0.052046657 0.059667494
0000d0 2b 18 a5 3b 03 94 62 bd ef d2 1d 3d 7d a6 c2 bd
       0.0050382814 -0.055316936 0.03853124 -0.09504411
0000e0 ea 1d 30 3d 0f 32 d5 3d 89 d7 11 3e 66 a2 14 bd
       0.04299728 0.104099385 0.14242376 -0.036287688
0000f0 7c a3 59 3d b4 a2 28 3d b9 f6 05 3e 9b 2e 61 bb
       0.053134426 0.04117079 0.13082398 -0.0034360054
000100 5a 8c b6 bd 62 dc cb bc fd 57 13 bd fd 81 e3 3d
       -0.08913489 -0.02488536 -0.035972584 0.11108778
000110 05 02 81 3d 9a 32 ab bc ce ce a6 3d e5 a6 ba 3b
       0.06299213 -0.020898152 0.081449136 0.005696165
000120 95 0b 05 3e 11 98 0e 3b 27 76 8f bc a9 94 cb 3d
       0.129927 0.002175812 -0.017512394 0.09940464
000130 fc fb b7 3d 19 43 eb 3c 62 ca 9c 3d da b8 4b bd
       0.08983609 0.028718518 0.07655789 -0.049736835
000140 3f ac 1f 3d 89 cd 83 3d df 52 e9 bb 26 f1 0f 3e
       0.038982626 0.06435687 -0.0071204747 0.14056835
000150 5e 98 25 3c bc 89 b9 3b 8b cc 0c 3d 1f 1e 8b bd
       0.010107128 0.005662171 0.034374755 -0.067928545
000160 60 d0 62 3d 3c b1 95 3d e3 4a b1 3d d5 dc c9 3d
       0.055374503 0.073091954 0.08656862 0.098565735
000170 99 bc 6e bd 47 c8 42 bd da a4 42 3c 3b 0e 93 3d
       -0.05828533 -0.04755428 0.011880124 0.071804486
000180 fb 8b 0c 3d e4 30 9b 3d 11 ab 8d 3d bd 88 19 3d
       0.034313183 0.075776845 0.06917394 0.03748392
000190 b3 75 ff 3c 0c 06 a5 3c b0 bb c5 bb bc dd d8 3d
       0.031184053 0.020144485 -0.006034337 0.105891675
0001a0 d0 e8 5d 3c 13 ec 91 bd f1 83 80 3c c4 de cd 3c
       0.013544276 -0.07125106 0.015687915 0.025130637
0001b0 aa da c4 3b 00 16 88 bd bf 83 02 3e ef 9c f2 3c
       0.006007512 -0.06644821 0.1274557 0.029615847
0001c0 d9 d9 43 3d 14 17 92 bd 45 61 c6 3c 93 d9 00 bc
       0.047815178 -0.07133308 0.024216304 -0.007864374
0001d0 44 5a 0d bd 7e ce 0a 3e ec ad 29 3d 7c cc 52 bc
       -0.034509912 0.13555333 0.04142563 -0.012866136
0001e0 c1 61 fe 3c 88 a2 4e bd eb 29 88 3c e3 00 38 bd
       0.031052472 -0.05044797 0.01662155 -0.04492272
0001f0 90 42 21 3e 9f 69 28 bc 06 eb 87 bd 5f c4 9d 3d
       0.15748048 -0.010279088 -0.06636624 0.077034704
000200 21 72 70 3d 2d 5b b1 3d 3d 44 64 3c b4 93 64 bc
       0.05870259 0.086599685 0.013932285 -0.013951231
000210 e9 70 cb 3d 8e ea ba 3c d8 62 44 bc 8e aa bb bd
       0.09933645 0.022816923 -0.011986457 -0.0916339
000220 94 2a 19 bd f7 06 05 3d 67 be 05 bd 16 c0 44 bc
       -0.03739412 0.032477345 -0.032652285 -0.0120086875
000230 9a 35 58 3d 61 f1 dc 3c 8c cc 8c 3d 8d b0 4e 3d
       0.052785493 0.026970567 0.06874952 0.05046134
000240 a1 fc de 3d d4 30 bb bb ef 80 73 bd 52 af 2d 3d
       0.10888029 -0.005712608 -0.059449133 0.042403527
000250 1b b9 0e 3e 86 dd 3e 3d a5 a2 7d 3d e6 17 a1 bd
       0.139378 0.04659798 0.061922688 -0.078658864
000260 f6 78 e4 bb 9f a5 89 3d df 97 9b bd 10 4c 6b bc
       -0.0069724275 0.06721043 -0.075973265 -0.014361396
000270 8b 86 bc 3d 25 a6 20 3e d9 82 73 3d f2 9f 1e 3c
       0.092053495 0.15688379 0.059450958 0.009681689
000280 76 62 c1 3d 93 05 1f bd 72 7f 80 bd ef b6 f5 3c
       0.09442608 -0.038823675 -0.06274308 0.029994456
000290 19 e4 0b 3d 68 db 8b 3c 1b 07 a5 bd 31 59 ba 3d
       0.034153078 0.017072394 -0.08057996 0.09099043
0002a0 f7 4a 8d bd d0 1a 66 bc 24 f5 dd 3d c2 fc 01 be
       -0.06899064 -0.014044479 0.108377725 -0.12694076
0002b0 bb ea 6d bd 39 9d 71 3d 47 04 53 3d 52 b6 bc 3d
       -0.058085185 0.05898783 0.05151775 0.09214462
0002c0 86 4e a1 bb 87 f3 4d bc 49 a6 3c bd 87 73 98 3d
       -0.004922691 -0.0125702685 -0.04605702 0.0744391
0002d0 6a 83 77 bc b0 25 92 3c 8d 98 f3 3b 85 2b a0 3b
       -0.015107015 0.017840236 0.007433957 0.0048880004
0002e0 9a 02 03 be bf 05 22 3d d9 7b b6 bd 13 87 dc 3d
       -0.12793961 0.03955626 -0.08910341 0.10767951
0002f0 d8 04 65 bc a4 a5 6c 3d 8a 26 3b bd 18 4a 60 3d
       -0.013978206 0.057775155 -0.04569105 0.05475816
000300 1c 9c 0e 3e a7 c7 9d 3d 91 c6 d3 3c 81 45 c9 bd
       0.13926739 0.07704096 0.02585152 -0.0982771
000310 9d 67 e1 3d 0b 26 8d bd 31 23 17 3c 0d 04 b1 3d
       0.11006091 -0.06892022 0.009224699 0.08643351
000320 f0 b2 83 3d 31 62 d5 bc e9 e1 19 3c d2 cc ed 3d
       0.06430614 -0.026047798 0.00939224 0.11611332
000330 5c 59 85 3d 9d 3e 4b bd 19 59 54 3d 12 f5 7c bc
       0.065111846 -0.04962026 0.051842783 -0.015439289
000340 d7 0e b6 3b 8a ba 88 3d 37 2f 46 bd 09 46 21 3d
       0.0055559683 0.066762045 -0.04838487 0.03937343
000350 d3 d5 8e bd 02 62 86 3d 71 87 04 3d 75 10 a0 3d
       -0.069743775 0.06561662 0.03235573 0.07815639
000360 c2 8a da bc dd 4f cb 3d b1 67 a2 bd 04 42 3c bd
       -0.026677493 0.09927342 -0.07929934 -0.045961395
000370 ac 76 a6 3c 9e 5c 4b bc 5f d9 46 3c 09 41 a5 3d
       0.020320259 -0.012412218 0.012136786 0.08069045
000380 00 c6 3f bd b5 91 8e 3d 06 44 49 3d 61 fc 8f bd
       -0.046819687 0.06961385 0.049137138 -0.07030559
000390 46 c0 9f 3d 56 3f 16 3d e7 41 72 3c 1e 5c 9f bd
       0.07800345 0.036681496 0.01478622 -0.07781242
0003a0 e8 55 d6 3d f5 ce e3 3b 41 e8 a6 bd a4 9c 90 bd
       0.10465604 0.0069521614 -0.08149768 -0.07061127
0003b0 b9 9b 4d 3d cf 34 38 bd 08 67 61 bd 8f d8 d1 3d
       0.050197337 -0.044972237 -0.0550299 0.102463834
0003c0 28 3a 7a bc 28 ef 8e 3d 3a f7 8c 3d ff 65 e4 bc
       -0.015272655 0.06979209 0.06883092 -0.027880667
0003d0 89 5a 6e 3d 10 5c 27 bd 82 43 ad 3d fd fa 43 bd
       0.05819181 -0.040859282 0.08460142 -0.047846783
0003e0 4e 44 93 3d 57 2d fe bc c3 cc b5 3d d5 53 d8 3d
       0.071907625 -0.03102748 0.08876946 0.10562865
0003f0 ab 19 8a 3d f1 77 ad 3d 30 d7 ce 3b 6a 3d 08 bd
       0.06743177 0.08470143 0.0063122734 -0.033261694

network.4.weight f4 [1, 256]
000000 93 35 83 be 44 b4 30 bc dd 20 4d 3e b2 cf 0e bc
       -0.2562681 -0.010785166 0.20032068 -0.008716511
000010 e6 5a 1c 3e 88 12 3c 3e 4c 99 32 be d0 a0 41 3e
       0.1526905 0.18366444 -0.1744129 0.18909001
000020 84 d2 89 3c 0d 29 1c 3e 7f a6 8c be eb ba a0 be
       0.016824014 0.15250035 -0.27470776 -0.31392607
000030 2e 54 5f 3e 4a b3 2c 3e 5f 66 60 be b6 10 35 3e
       0.21809456 0.16865268 -0.21914051 0.17682156
000040 0a 33 3e 3e dd cc 86 be d4 50 68 3c 4c 68 58 be
       0.18574157 -0.26328173 0.014179427 -0.21133536
000050 14 ad 57 3e dc 09 05 bc 4a de 5c 3e 9b 40 41 3e
       0.21062118 -0.008120026 0.21569172 0.18872301
000060 76 e0 cc bd 75 e8 71 be ea 56 fa 3b a2 a4 80 bc
       -0.1000375 -0.23623832 0.0076397555 -0.015703503
000070 98 ea 94 be fe 16 69 3c a3 17 53 3e 7a 60 69 be
       -0.2908523 0.014226673 0.20614485 -0.22790709
000080 50 18 6e 3e be d3 aa be 9b 21 71 3e 67 af 4c 3e
       0.23251462 -0.3336467 0.23547976 0.19988786
000090 9f 3a 45 3e d0 6e 8f be 3a a4 7c be e5 7d 22 3e
       0.19260643 -0.2801423 -0.24672022 0.15868337
0000a0 ed cf bc 3c 1c 7f 4e 3e 75 5d 89 be 05 2c 86 3e
       0.023048365 0.20165676 -0.26829115 0.2620546
0000b0 a6 d9 94 bc bd ed 4e 3e 64 60 69 bc 46 23 5e bd
       -0.01817019 0.20207877 -0.014244173 -0.054232858
0000c0 54 c7 93 be 0a f9 1e be b4 b9 d4 3c 3d 72 91 be
       -0.28863013 -0.15524688 0.025967456 -0.2840747
0000d0 66 3f 46 bc e5 6d 1c 3d 6f 4f a7 3d 05 da 1f 3c
       -0.012100076 0.03819074 0.08169448 0.00975657
0000e0 b0 fb 70 3e 83 77 69 3e 5f ed 5e 3e e2 44 64 be
       0.23533511 0.22799496 0.21770237 -0.22291902
0000f0 4d d6 71 be 9f 40 8d be 14 93 61 3e ba 36 cb bc
       -0.23616906 -0.27588364 0.22028762 -0.02480637
000100 42 df 84 3c 35 de 75 be 75 1d 80 be 52 a4 a1 be
       0.016219739 -0.24010547 -0.25022474 -0.3157068
000110 b7 23 6a be 88 00 9d be f4 87 6a 3e 98 0f d8 3d
       -0.22865187 -0.30664468 0.22903425 0.10549849
000120 da 72 5d 3e 20 d7 13 bb 41 61 88 3c cd 58 30 be
       0.21625844 -0.0022558644 0.016647937 -0.17221375
000130 c2 a8 66 be 20 ca c2 bc 39 71 61 3e b5 8a 52 bd
       -0.22525313 -0.023778021 0.22015847 -0.051401813
000140 60 c8 52 3e 92 d6 64 3e 36 aa 93 be d3 78 6a 3e
       0.2058425 0.22347477 -0.28840798 0.22897653
000150 b4 98 dc 3c 15 c3 85 be b6 be da be 33 7a 41 3d
       0.026928283 -0.26125398 -0.42723626 0.04723568
000160 25 36 8c be d1 e4 7c be be 14 84 be 57 20 67 3e
       -0.2738506 -0.24696662 -0.25797075 0.2257093
000170 c8 1c 90 be ef da 37 bc 3e 50 8f be 4e 01 47 3e
       -0.28146958 -0.011221631 -0.27990907 0.19434091
000180 51 23 67 be c3 3f 8e be ac 37 72 be e2 53 41 3e
       -0.22572066 -0.2778302 -0.2365405 0.18879655
000190 4a df 97 bb e5 bf d5 3b 7b 81 8d 3c dd d3 79 3e
       -0.0046347724 0.0065231198 0.017273655 0.24397226
0001a0 65 78 61 be fd 93 a7 3c e5 5b 8f be 42 fe 45 3d
       -0.22018583 0.020456308 -0.27999797 0.048338182
0001b0 7f 21 20 3e 54 ca 83 3c 2a 1d 72 3e 38 79 92 be
       0.15637778 0.016087689 0.23643938 -0.28608108
0001c0 ad 9f e9 bc fb 68 2d bd d1 d4 6e be 2f 07 85 bc
       -0.028518522 -0.042336445 -0.2332337 -0.016238777
0001d0 b4 68 51 be 20 6c 5e 3e 1c e4 4c 3e ac 2a 07 3c
       -0.20450097 0.21720934 0.20008892 0.00824992
0001e0 0e fc 62 be 79 28 23 3c 69 79 c0 3c 91 ca 57 3d
       -0.22166464 0.00995838 0.023495393 0.052683417
0001f0 b4 75 53 3e 31 17 a2 3c 8a 3f dc bc 74 ce 81 be
       0.20650369 0.01978645 -0.026885767 -0.25352824
000200 2a 3d 97 be 61 c8 7d be d8 e3 5c 3b fb 07 87 be
       -0.29538852 -0.2478347 0.0033705141 -0.26373276
000210 09 6c 6e 3e 2e 79 80 3e 0d 71 8c be 1d ba b0 bb
       0.232834 0.25092453 -0.2743 -0.00539328
000220 25 fa 00 bc 89 75 a8 bc 69 f4 9a bb 33 1d 9a be
       -0.007872139 -0.020563858 -0.004728843 -0.30100402
000230 9e 4d 80 be 6c b4 36 3e d8 9e 02 3b 68 6a 88 be
       -0.25059217 0.17842263 0.0019931104 -0.26643682
000240 16 c0 63 3e 44 fc 98 be af b9 16 be 8d 30 88 be
       0.22241244 -0.29879963 -0.1471927 -0.2659954
000250 2c 86 3c 3e a6 e7 28 3e 22 80 64 be 52 ed 69 3e
       0.18410558 0.16494617 -0.22314504 0.22844437
000260 0b d4 7a ba ad 24 7b be 36 57 88 3b 53 ab 02 3c
       -0.000956834 -0.2452571 0.004160787 0.007975417
000270 9e be 2c 3e b1 ce 89 3e 91 c8 72 be e4 a7 06 3e
       0.1686959 0.26915506 -0.23709323 0.13149983
000280 15 fd 0e bf e2 9f 6c 3b 19 ca 86 3c 92 9f 62 bc
       -0.5585492 0.003610604 0.01645379 -0.01383199
000290 42 d3 4b 3d 21 8c 74 bc 0a 1b 56 3c ed 93 51 3e
       0.049762018 -0.014925987 0.01306797 0.20466585
0002a0 00 a1 6e 3c c6 e2 98 be b4 2c 69 3e 18 ed 88 39
       0.014564753 -0.29860514 0.22770959 0.0002611659
0002b0 da b4 c0 bb 2d 71 89 be 54 e5 8f be 09 93 83 be
       -0.005880934 -0.2684416 -0.2810465 -0.25698116
0002c0 01 cc 52 be 55 d0 96 be 89 42 23 bc 59 2f 6a be
       -0.20585634 -0.2945582 -0.009964594 -0.22869624
0002d0 6f 89 8a 3d ef b6 5d 3e 5a 3e 6b be e6 7c 47 3e
       0.06764495 0.21651815 -0.22973004 0.19481239
0002e0 f4 63 08 3d 1b b9 5f be 70 4b 46 3b 75 9e 7d 3e
       0.033298448 -0.21847956 0.0030257367 0.24767478
0002f0 6d e7 44 bc 7a a8 6f 3e 4b 05 28 3b 86 d9 89 3e
       -0.012018067 0.23404112 0.002563792 0.2692377
000300 65 88 3f 3e 0b 58 83 be 19 35 90 be 58 07 a1 b9
       0.18704374 -0.2565311 -0.2816551 -0.00030713785
000310 25 12 5f 3e 09 7c 4e bc 96 c3 39 3e 59 b0 8b be
       0.21784265 -0.0126028145 0.18141016 -0.2728298
000320 d8 a9 1f 3e f1 b8 9f 3c 3d 90 62 be b9 c7 1a 3e
       0.15592134 0.019497367 -0.22125335 0.1511525
000330 aa d8 6f 3e b8 b3 7c 3c 23 43 7f be 61 bd 93 be
       0.23422495 0.015423708 -0.24927954 -0.28855422
000340 26 d0 8e be 67 9b 8b be ea 04 89 be 30 9d 86 be
       -0.2789318 -0.27267 -0.26761562 -0.262918
000350 2b f2 fa bb ba bf 93 be f1 09 7b be 59 b1 6f 3e
       -0.007658263 -0.28857213 -0.24515511 0.23407497
000360 21 04 50 be a8 15 28 be e5 3d 94 be 19 26 6f be
       -0.20314075 -0.16414511 -0.28953472 -0.23354377
000370 51 6d 08 3e 03 78 a4 be 09 11 10 3e 11 0a 50 be
       0.13322951 -0.32122812 0.14068998 -0.2031634
000380 85 d2 b4 bb 1c 8a 6e 3e c3 b9 81 be 80 14 41 3d
       -0.00551826 0.23294872 -0.25337037 0.04713869
000390 cd 7d 5d 3e e8 57 03 3e 68 e1 7b be 45 73 7c 3a
       0.2163002 0.12826502 -0.24597704 0.00096302136
0003a0 2a 29 39 3e 50 38 37 3e b5 c7 da 3c 43 0d a1 bc
       0.18082109 0.17892575 0.026706556 -0.019659644
0003b0 0e 14 66 3e bc 47 a5 3a 7e 51 24 3d 64 4a 50 be
       0.22468588 0.001260988 0.04011678 -0.20340878
0003c0 dd 4f 3c bc 1b b1 79 be 80 14 aa be d7 01 51 be
       -0.01149365 -0.24383967 -0.33218765 -0.20410858
0003d0 b1 6b 62 3e 52 4d 82 be cd 92 74 3e fe 0e 94 be
       0.22111394 -0.25449616 0.23884125 -0.28917688
0003e0 22 5f 85 be 33 f3 65 be 2d 33 35 3e 5c 39 42 3e
       -0.26049143 -0.22456054 0.17695303 0.18967193
0003f0 81 6c 64 be 6c ee 2b 3e 01 35 89 be bd 1d 86 be
       -0.22307016 0.1679017 -0.2679825 -0.26194564
