models/critic6000.pth (torch, 144783 bytes, 5 tensors)

network.0.weight f4 [128, 18]
-0.009097989 -0.11330961 -0.17579235 -0.012222556 0.34241298 0.042556975 0.1059839 -0.036117714
0.1870043 0.30247018 0.16559419 -0.19683707 -0.2136563 0.023523223 -0.015740026 -0.06850545
0.29306957 0.11213993 -0.13920087 0.20166239 0.0015599829 0.20062385 0.19679925 0.023459002
-0.109227456 -0.26439342 0.18718836 0.042428553 0.08953139 -0.21248804 -0.061898254 -0.37827545
-0.109080546 0.12339506 -0.4258469 0.19385462 0.11815136 0.037045106 0.23153135 -0.1312177
0.11209372 -0.11056596 -0.06009995 0.3339577 -0.1577008 0.10152524 0.12581012 0.058810484
0.004063704 0.17120312 -0.13266857 -0.12556036 0.07134761 0.03837545 0.10280248 -0.0662333
-0.117346555 -0.35322794 -0.07934138 0.20489463 0.014710921 -0.09268022 0.24000435 0.07233535
0.03399797 -0.065085985 -0.40166837 -0.04495438 0.0331487 -0.15464261 0.11202054 -0.38773838
0.024937598 -0.1910212 0.11828708 -0.26300412 -0.14631595 0.21962938 -0.26281834 -0.17147931
0.23499441 0.052135866 -0.34061396 0.2890066 -0.43107682 -0.11988417 0.33993074 0.07108615
0.2193436 -0.26662362 0.060251147 -0.15785886 -0.011710921 -0.17814171 0.08339771 0.2240896
-0.12763895 -0.13261959 0.22554925 0.0654198 -0.3608274 0.05005157 -0.44695395 -0.1736305
0.041270647 -0.23390588 0.086224936 0.12917016 0.04247579 0.026701435 0.088310465 -0.18233037
-0.08995361 0.15084392 0.07879647 -0.20467047 0.16025132 0.03269136 -0.06528863 -0.2544582
-0.22642466 -0.3165487 -0.09766453 0.053726025 0.21749306 0.10588024 0.101289615 -0.063822865
0.07683777 -0.2600712 -0.1940444 -0.12159842 0.075080276 -0.2377718 -0.2883311 -0.15120332
0.20720516 -0.16734737 -0.113523014 0.018006517 -0.13641423 -0.15587737 0.3238052 0.11940042
-0.036722723 0.0406095 -0.10147286 0.23904154 0.20325653 0.057664365 -0.01625183 -0.18189849
0.23373638 0.015570065 0.055408303 -0.22912066 0.18814115 -0.43653026 0.21257046 0.114881285
-0.022031996 0.15322855 -0.15931201 -0.12319625 0.15596926 -0.13723539 -0.24311891 0.15019354
-0.1801804 0.16494353 -0.091640905 -0.22284164 0.30735838 -0.084965914 -0.08783223 -0.17009209
-0.10932716 0.22786278 -0.104376934 -0.10930869 -0.062001307 0.21837781 0.09462472 0.22263855
-0.10481238 -0.21840575 0.042438332 -0.074379824 0.052367844 0.11716553 -0.061523117 0.16946985
-0.077173755 -0.3641841 -0.41724107 0.030108219 0.23076126 0.028857864 -0.19768286 -0.009439131
0.13715762 0.060625758 -0.046706505 0.27205825 -0.43409318 -0.2334362 0.14482667 0.18925078
-0.30508524 0.09649517 -0.32264864 -0.34598094 0.3027581 0.2580268 -0.09175998 -0.111897185
-0.14653823 -0.0062533105 0.041086618 -0.03619118 0.10323766 0.16006131 -0.13886599 -0.045607634
-0.06996375 0.19160955 -0.03223338 0.27799025 -0.25553855 0.22318016 0.24545489 -0.13377967
0.11423644 -0.11914879 -0.09099104 -0.09119336 -0.10599459 0.17993137 -0.19924228 0.16400504
0.1516638 0.13756569 0.020744288 -0.28100392 0.062543556 0.13197394 0.21790539 -0.22199385
0.24022096 0.035662573 -0.14077874 0.1860161 -0.005134273 -0.14186753 -0.083275765 0.06735983
00000000: bb0f 15bc de0e e8bd e902 34be 1e41 48bc
00000010: c150 af3e 3950 2e3d 160e d93d 2bf0 13bd
00000020: 0e7e 3f3e 5fdd 9a3e 8691 293e a88f 49be
00000030: b8c8 5abe c6b3 c03c 3af1 80bc 964c 8cbd
00000040: 370d 963e 9fa9 e53d ac8a 0ebe 9680 4e3e
00000050: 5778 cc3a 5770 4d3e be85 493e 182d c03c
00000060: a5b2 dfbd 935e 87be 4eae 3f3e 90c9 2d3d
00000070: 3c5c b73d 7796 59be 0689 7dbd 52ad c1be
00000080: 9f65 dfbd 8db6 fc3d 9b08 dabe d381 463e
00000090: 57f9 f13d 9cbc 173d 8e16 6d3e ef5d 06be
000000a0: 6491 e53d 6870 e2bd 5d2b 76bd 81fc aa3e
000000b0: 527c 21be 77ec cf3d 5ed4 003e 43e3 703d
000000c0: d228 853b df4f 2f3e 45da 07be e592 00be
000000d0: b21e 923d 932f 1d3d 1b8a d23d 53a5 87bd
000000e0: 6453 f0bd 4bda b4be bc7d a2bd e6cf 513e
000000f0: 1306 713c 21cf bdbd b3c3 753e 8e24 943d
00000100: 7541 0b3d cd4b 85bd 7aa7 cdbe 1522 38bd
00000110: eec6 073d a25a 1ebe 066b e53d a585 c6be
00000120: ef49 cc3c 109b 43be 7f40 f23d 7aa8 86be
00000130: d9d3 15be 86e6 603e 2090 86be 4698 2fbe
00000140: 60a2 703e 6b8c 553d f464 aebe acf8 933e
00000150: 1ab6 dcbe d585 f5bd 670b ae3e 9e95 913d
00000160: 9c9b 603e e482 88be e8c9 763d c1a5 21be
00000170: 2adf 3fbc c86a 36be 6bcc aa3d be77 653e
00000180: c9b3 02be 6ecd 07be 62f6 663e d1fa 853d
00000190: 5ebe b8be e002 4d3d 26d7 e4be 32cc 31be
000001a0: 690b 293d 0685 6fbe b396 b03d 2f45 043e
000001b0: 18fb 2d3d f8bc da3c 1edc b43d d0b4 3abe
000001c0: 9939 b8bd d476 1a3e 0b60 a13d 2395 51be
000001d0: ec18 243e 60e7 053d 0cb6 85bd 5848 82be
000001e0: dedb 67be ac12 a2be 5704 c8bd d20f 5c3d
000001f0: 80b6 5e3e bdd7 d83d ee70 cf3d 90b5 82bd
00000200: 1f5d 9d3d 0d28 85be 93b3 46be 9808 f9bd
00000210: b0c3 993d 737a 73be 22a0 93be 0bd5 1abe
00000220: 972d 543e 1c5d 2bbe c17e e8bd 6782 933c
00000230: 2cb0 0bbe 519e 1fbe ccc9 a53e 3588 f43d
00000240: 916a 16bd 2656 263d 01d1 cfbd 4ec7 743e
00000250: 7b22 503e 7831 6c3d 8f22 85bc 9943 3abe
00000260: 9758 6f3e 9619 7f3c d1f3 623d 9b9e 6abe
00000270: 13a8 403e e580 dfbe 12ac 593e e146 eb3d
00000280: 727c b4bc f2e7 1c3e b022 23be 514e fcbd
00000290: 68b6 1f3e 6f87 0cbe 2af4 78be 56cc 193e
000002a0: 3681 38be f5e6 283e 3aae bbbd 9930 64be
000002b0: 145e 9d3e 9c02 aebd 62e1 b3bd 9f2c 2ebe
000002c0: ebe6 dfbd dc54 693e 93c3 d5bd 3cdd dfbd
000002d0: 15f5 7dbd 6f9e 5f3e 9bca c13d 5cfb 633e
000002e0: e0a7 d6bd c2a5 5fbe d1d3 2d3d 7354 98bd
000002f0: aa7f 563d 7bf4 ef3d aaff 7bbd 8189 2d3e
00000300: 460d 9ebd 5776 babe 9fa0 d5be 83a5 f63c
00000310: ae4c 6c3e 5467 ec3c 606d 4abe 96a6 1abc
00000320: 0c73 0c3e b752 783d 524f 3fbd 384b 8b3e
00000330: 7641 debe e609 6fbe 714d 143e f5ca 413e
00000340: 2234 9cbe 429f c53d 3432 a5be 6a24 b1be
00000350: 1c03 9b3e 171c 843e a8ec bbbd 5a2a e5bd
00000360: 1e0e 16be 92e8 ccbb 714a 283d 343d 14bd
00000370: 446e d33d 1de7 233e e332 0ebe 12cf 3abd
00000380: 2849 8fbd 4b35 443e 2607 04bd bd54 8e3e
00000390: f3d5 82be 5789 643e 8758 7b3e 8afd 08be
000003a0: cbf4 e93d 4804 f4bd 8359 babd 96c3 babd
000003b0: b113 d9bd ee3f 383e 2b06 4cbe f0f0 273e
000003c0: c14d 1b3e 05de 0c3e edef a93c bfdf 8fbe
000003d0: d616 803d 2d24 073e 9722 5f3e 5b52 63be
000003e0: 7cfc 753e eb12 123d 4d28 10be 017b 3e3e
000003f0: 673d a8bb b945 11be 7c8c aabd f3f3 893d

network.0.bias f4 [128]
-0.043246567 -0.030938545 -0.11806786 0.19246365 -0.016549023 0.26891303 0.07235288 0.08788726
0.19626656 -0.13984518 0.028275488 0.05770819 0.031047989 0.076187715 -0.15533839 0.13453145
0.13002408 -0.12769999 -0.17132339 -0.14851935 -0.17134757 -0.004310789 0.010814476 0.17704692
-0.07413093 -0.09239087 0.016562695 -0.15361345 -0.20387791 -0.11651809 0.08123998 -0.24735461
0.19266576 -0.0708687 0.14697093 0.01972325 0.049906656 0.111843936 0.14870566 -0.18902194
-0.11790686 -0.135146 0.16541447 -0.16114132 0.089930795 0.22808494 0.062137276 0.038639095
-0.21547964 -0.10430272 0.111268744 0.15219909 -0.049278155 -0.00036626373 0.026896449 0.011237768
-0.22035563 -0.039162178 0.06783455 0.012745961 0.15370269 -0.046643104 -0.004202859 -0.12317281
-0.0932997 0.026089523 -0.17685908 0.012479376 0.13775797 0.031866986 0.12663497 0.14362353
-0.035467796 0.015864754 0.10999716 -0.0047534197 0.20680182 -0.047892265 -0.093238935 -0.055591326
0.20437181 0.09519174 -0.10813151 0.18298362 -0.21228085 -0.0698827 -0.14814232 -0.20157297
0.12513985 -0.20698225 0.2515539 -0.15102117 -0.056843806 0.029261347 -0.11586436 0.0020548198
-0.06851685 -0.22049472 0.021669226 -0.11357653 -0.031713426 -0.15394332 -0.10373774 -0.09791875
0.09661218 -0.07258836 -0.1548751 -0.18778932 -0.0131416395 0.16489218 0.045343164 0.116573654
-0.27499482 0.14509328 0.18113568 0.032277785 0.18118021 -0.09681998 -0.08454725 -0.02811653
-0.13366924 -0.13262774 0.24394915 0.20837848 -0.09731346 -0.024159018 0.007087954 -0.17990686
00000000: 5023 31bd d572 fdbc 90cd f1bd 3115 453e
00000010: d191 87bc f8ae 893e bf2d 943d 3cfe b33d
00000020: 1afa 483e 9333 0fbe ffa1 e73c 6c5f 6c3d
00000030: 5a58 fe3c 4e08 9c3d 0711 1fbe 9dc2 093e
00000040: 0825 053e c9c3 02be 666f 2fbe 7515 18be
00000050: bd75 2fbe 8541 8dbb 332f 313c ca4b 353e
00000060: f5d1 97bd 6d37 bdbd 7dae 873c d84c 1dbe
00000070: 5fc5 50be 09a1 eebd 2661 a63d 874a 7dbe
00000080: 2c4a 453e 9c23 91bd 8c7f 163e a792 a13c
00000090: ec6a 4c3d 6f0e e53d 4c46 183e f88e 41be
000000a0: 2779 f1bd b763 0abe 6962 293e 3b02 25be
000000b0: a32d b83d 198f 693e a883 7e3d 0744 1e3d
000000c0: b2a6 5cbe aa9c d5bd dee0 e33d 14da 1b3e
000000d0: e4d7 49bd 1607 c0b9 f155 dc3c 9e1e 383c
000000e0: e8a4 61be 8568 20bd d7ec 8a3d 6fd4 503c
000000f0: 3d64 1d3e d70c 3fbd 23b8 89bb 0742 fcbd
00000100: ea13 bfbd b2b9 d53c 8c1a 35be 4c76 4c3c
00000110: 6d10 0d3e f586 023d 99ac 013e 0c12 133e
00000120: ae46 11bd cdf6 813c 3146 e13d 93c2 9bbb
00000130: dbc3 533e ae2a 44bd 0ef4 bebd bbb3 63bd
00000140: d846 513e e3f3 c23d 0e74 ddbd 0f60 3b3e
00000150: 2760 59be a91e 8fbd 9fb2 17be 2569 4ebe
00000160: a924 003e 28f3 53be accb 803e 4ba5 1abe
00000170: 0dd5 68bd 7eb5 ef3c 4b4a edbd 28aa 063b
00000180: 9052 8cbd 5ec9 61be a983 b13c d09a e8bd
00000190: f0e5 01bd 51a3 1dbe 7474 d4bd a089 c8bd
000001a0: 9bdc c53d 35a9 94bd 9497 1ebe d84b 40be
000001b0: 0850 57bc 7fd9 283e c1b9 393d 2bbe ee3d
000001c0: 1fcc 8cbe 5593 143e a27b 393e b635 043d
000001d0: 4e87 393e 8e49 c6bd 1c27 adbd a354 e6bc
000001e0: 97e0 08be 91cf 07be cecd 793e 2b61 553e
000001f0: 484c c7bd 22e9 c5bc 1142 e83b 8139 38be

network.2.weight f4 [256, 128]
0.21927054 0.10482072 -0.14775741 0.16015248 0.21209334 0.040554136 0.0338572 0.11517232
0.08845689 -0.18697044 0.085302725 0.24245624 -0.00964784 0.11717274 0.06985274 0.071574755
0.4293405 0.03251421 -0.08332277 -0.06940218 -0.030388342 0.08785833 -0.29968685 -0.17626739
0.338722 0.08395187 0.02239048 0.21211459 -0.15549779 -0.1303721 0.039080475 0.059435703
0.08017439 0.04106854 0.016413704 -0.026735945 0.1536514 0.08532584 0.06074624 0.080529414
-0.28837243 -0.00401354 -0.0074536684 0.05192107 0.22172002 0.025464758 0.17111981 -0.056774247
-0.49301082 0.16943827 -0.020267284 -0.034076743 -0.025909955 -0.013279886 0.18895562 -0.17606014
0.08459707 0.23726554 0.17329141 0.35659024 0.4245066 -0.05529509 -0.25842503 -0.11769029
0.24846151 0.0013871884 0.08577206 0.13287742 0.15950882 0.5039867 -0.20007405 -0.012290606
0.04382696 -0.032302216 -0.008721202 -0.033159744 0.10942956 0.17986992 0.03634054 -0.38134065
0.09718919 0.03304662 0.20984687 0.12379277 -0.020232586 -0.33041382 0.14587088 -0.37454107
0.13669725 -0.20108648 0.3116839 0.06101241 -0.0433672 0.13905142 -0.3206829 0.2259354
0.030993814 0.08823989 0.22439258 0.06292065 0.055766042 0.21620671 0.06514058 0.22731668
-0.12184981 0.20685686 -0.10558614 -0.04238446 0.033543356 -0.047668464 -0.13394532 0.058489203
-0.09215769 0.02055621 -0.053773142 -0.24953663 0.08246858 -0.28649166 0.19891098 0.07860729
0.16254394 -0.060098592 -0.040811587 0.13234693 0.06840219 0.0015795556 0.15593873 -0.49899352
-0.07901926 0.0041758674 -0.01462631 -0.09813198 -0.025697561 0.00012644449 -0.07455681 0.082520716
0.045085657 0.07285721 -0.012498182 0.058250025 0.029757451 -0.08603352 -0.037843727 -0.025892776
0.085191295 0.037048373 -0.029355975 0.031333905 -0.031538855 0.022750782 -0.021640351 0.028503533
0.086911954 -0.02147684 -0.04153862 0.00012646161 0.0129283685 -0.08324781 -0.09306416 0.076647885
-0.037200768 0.027424436 -0.024926716 -0.08636073 0.08022763 -0.0814564 -0.022299819 0.07324567
-0.0026796393 0.0099227065 -0.052951787 0.0044205626 -0.021271735 0.05877281 0.027219405 0.05570989
-0.09286364 -0.01868142 -0.020334698 0.0099007785 -0.06403521 -0.037465386 0.015075104 0.06977561
0.041291934 -0.03548002 0.011728109 0.016840942 0.004041577 0.021375554 -0.040471952 0.019245788
-0.084394656 -0.038250364 -0.058381245 -0.04508473 -0.0023516733 -0.07189063 0.014788474 -0.060454242
-0.054138534 0.019484624 0.06232583 -0.016722778 -0.04099847 0.042774852 0.044407174 -0.03913576
-0.06617921 0.0433789 -0.0700019 -0.07359862 -0.086185016 0.058021948 -0.008941464 -0.06478495
0.06265146 -0.04316573 -0.0037621944 -0.012076873 0.028348107 -0.082394935 -0.019060217 -0.015288585
-0.08902303 -0.06428939 -0.016734384 -0.0526441 0.013293327 0.06744075 -0.02198308 -0.038702127
-0.052554753 -0.016172135 -0.057450704 0.03504102 -0.07321087 -0.083719745 0.042796526 -0.07062037
-0.021007132 0.025738517 -0.016439179 0.01024745 0.050295874 0.025679706 0.020654136 0.05203061
-0.052394297 0.028545408 0.053827643 -0.06256046 -0.039030924 0.030525178 -0.03817885 -0.05116045
00000000: 7588 603e 3fac d63d b84d 17be 03ff 233e
00000010: ff2e 593e 181c 263d d9ad 0a3d 77df eb3d
00000020: e328 b53d 2e75 3fbe 32b3 ae3d 7346 783e
00000030: f911 1ebc 43f8 ef3d f40e 8f3d c995 923d
00000040: 85d2 db3e 9f2d 053d 21a5 aabd bb22 8ebd
00000050: f9f0 f8bc 11ef b33d 8e70 99be 707f 34be
00000060: f86c ad3e f5ee ab3d 3d6c b73c 9134 593e
00000070: d03a 1fbe 4480 05be d912 203d da72 733d
00000080: 7832 a43d 7c37 283d 0876 863c 5705 dbbc
00000090: cb56 1d3e 50bf ae3d 0dd1 783d 9bec a43d
000000a0: 8da5 93be 0484 83bb e73d f4bb 30ab 543d
000000b0: 930a 633e 789b d03c 083a 2f3e 1d8c 68bd
000000c0: ea6b fcbe 3a81 2d3e 9307 a6bc 0e94 0bbd
000000d0: 1d41 d4bc e193 59bc 957d 413e 1c49 34be
000000e0: 3b41 ad3d bdf5 723e 4e73 313e ff92 b63e
000000f0: ee58 d93e 1b7d 62bd 4950 84be 9b07 f1bd
00000100: b26c 7e3e 52d2 b53a 43a9 af3d 0511 083e
00000110: 4856 233e 4605 013f 36e0 4cbe 8a5e 49bc
00000120: e683 333d 544f 04bd 5fe3 0ebc 83d2 07bd
00000130: 9b1c e03d d22f 383e d1d9 143d 153f c3be
00000140: 200b c73d e55b 073d 19e2 563e 1087 fd3d
00000150: cfbe a5bc 002c a9be 2d5f 153e d9c3 bfbe
00000160: 5dfa 0b3e 9de9 4dbe 0895 9f3e 26e8 793d
00000170: cea1 31bd 7f63 0e3e 8d30 a4be 9c5b 673e
00000180: bde6 fd3c 1eb7 b43d 2bc7 653e 8bdc 803d
00000190: ef6a 643d 4b65 5d3e 6d68 853d b4c5 683e
000001a0: 658c f9bd 49d2 533e 8c3d d8bd 549b 2dbd
000001b0: c264 093d 0240 43bd f628 09be 6092 6f3d
000001c0: 2cbd bcbd 7f65 a83c 3a41 5cbd 8886 7fbe
000001d0: 49e5 a83d 09af 92be 52af 4b3e dcfc a03d
000001e0: eb71 263e f129 76bd 0d2a 27bd f485 073e
000001f0: 7316 8c3d 1709 cf3a 67ae 1f3e 147c ffbe
00000200: dad4 a1bd b7d5 883b 31a3 6fbc 6bf9 c8bd
00000210: b183 d2bc 2f96 0439 3eb1 98bd 9f00 a93d
00000220: bdab 383d 2936 953d 2dc5 4cbc 9497 6e3d
00000230: e6c5 f33c 5832 b0bd 0602 1bbd 161d d4bc
00000240: c678 ae3d 09c0 173d f17b f0bc fb57 003d
00000250: e32e 01bd d95f ba3c 1b47 b1bc 3e80 e93c
00000260: e5fe b13d 33f0 afbc 6624 2abd c89a 0439
00000270: 82d1 533c d47d aabd 6c98 bebd 91f9 9c3d
00000280: d55f 18bd 36a9 e03c 1d33 ccbc e5dd b0bd
00000290: 624e a43d 9dd2 a6bd 1cae b6bc d301 963d
000002a0: e39c 2fbb d992 223c f9e3 58bd 5eda 903b
000002b0: 1042 aebc c2bb 703d 3bfb de3c 0e30 643d
000002c0: 4b2f bebd c709 99bc f494 a6bc e036 223c
000002d0: e424 83bd 4e75 19bd 92fd 763c 84e6 8e3d
000002e0: bb21 293d 7f53 11bd 4127 403c 04f6 893c
000002f0: 356f 843b c91b af3c ebc5 25bd 58a9 9d3c
00000300: 1bd7 acbd 6aac 1cbd 2c21 6fbd c4aa 38bd
00000310: 881e 1abb 653b 93bd 5b4b 723c de9e 77bd
00000320: 5ec0 5dbd 389e 9f3c 5f49 7f3d 35fe 88bc
00000330: 03ee 27bd af34 2f3d 4ce4 353d d24c 20bd
00000340: f788 87bd 13ae 313d 285d 8fbd e0ba 96bd
00000350: c581 b0bd 6ca8 6d3d 387f 12bc f9ad 84bd
00000360: 694f 803d 8cce 30bd 268f 76bb 14de 45bc
00000370: 4a3a e83c adbe a8bd 2c24 9cbc f97c 7abc
00000380: b551 b6bd 28aa 83bd 8c16 89bc 57a1 57bd
00000390: 41cc 593c 601e 8a3d dc15 b4bc 1f86 1ebd
000003a0: a743 57bd 6d7b 84bc 6e51 6bbd 2c87 0f3d
000003b0: 95ef 95bd 4275 abbd 694b 2f3d 6aa1 90bd
000003c0: 2617 acbc 95d9 d23c 75ab 86bc ece4 273c
000003d0: 0c03 4e3d 3f5e d23c dd32 a93c 0d1e 553d
000003e0: 679b 56bd 0fd8 e93c 607a 5c3d b31f 80bd
000003f0: e4de 1fbd f00f fa3c 6d61 1cbd 9f8d 51bd

network.2.bias f4 [256]
0.06742386 -0.044833053 0.08497706 -0.0734078 0.022493979 -0.023730041 -0.022177948 0.080446735
-0.022184217 0.084364586 -0.025858052 -0.033913925 0.04716021 -0.013193936 -0.0020286457 0.018364275
0.0033429994 0.021140805 -0.07558693 -0.007385898 0.11228714 0.14219423 0.1084653 0.12475195
0.028029276 0.04091779 -0.0025455381 -0.062416233 -0.048263818 -0.013386093 0.0772049 0.06387813
0.100658394 0.054112174 0.031387515 -0.04768983 0.06508574 0.004156075 0.05061785 -0.0988833
0.0038946879 0.023203151 0.11611844 0.12037563 -0.11017817 0.0782262 -0.038850624 -0.03564733
0.029875508 0.09727009 -0.023712493 0.063764445 0.0050382814 -0.055316936 0.054098822 -0.046814527
0.005449666 0.06170331 0.1057183 -0.030541286 0.06019409 0.055903435 0.10270253 0.039887685
-0.083244905 -0.016591566 -0.027469827 0.122520216 0.08883618 -0.037560057 0.039473325 -0.00020292659
0.092747144 0.002175812 -0.017512394 0.119588114 0.1309672 0.028718518 0.040894188 -0.049736835
-0.0048323018 0.023475938 0.018249752 0.10492523 0.040427476 0.018791135 0.08266612 -0.037134107
0.04741551 0.08880349 0.09951754 0.0699716 -0.054221697 -0.04755428 -0.0009986641 0.044794634
0.05882115 0.080672406 0.085831225 0.0029860723 0.044799954 0.062584266 -0.006034337 0.06704042
0.028177105 -0.0451781 0.018865965 -0.0010543386 -0.0026921416 -0.06644821 0.08373106 0.038300335
0.05954698 -0.07133308 0.027908362 0.009563896 -0.017248517 0.09828405 0.011428069 -0.0050922288
0.03173642 -0.03110681 0.067437634 -0.04492272 0.116336584 0.012438636 -0.04022795 0.08811027
0.08482022 0.10107972 0.031072725 -0.027085667 0.07613515 -0.006998272 -0.0067906943 -0.0916339
-0.020006422 0.06626191 0.02872115 -0.013625316 0.07408025 -0.013420744 0.11236597 0.059367247
0.07149549 -0.0010888572 -0.033430908 0.06490239 0.10488089 0.011092623 0.09018124 -0.05840629
-0.0069724275 0.08205132 -0.075973265 -0.014361396 0.06979239 0.11802288 0.07784771 -0.007586976
0.097412586 -0.025499318 -0.06274308 0.029994456 0.026841668 0.017072394 -0.08057996 0.043921333
-0.06899064 -0.048327208 0.076159954 -0.06836939 -0.033229254 0.0656514 0.033764806 0.12186643
-0.011421506 -0.027881306 -0.015383593 0.0744114 -0.08361607 -0.015927196 0.013070327 -0.037159562
-0.09794982 0.045234874 -0.07482604 0.075422354 -0.013978206 0.01226619 -0.031459972 0.022017203
0.100093365 0.07151289 0.036414906 -0.0982771 0.08107558 -0.06892022 -0.021019444 0.081611075
0.026960319 -0.026047798 0.013462123 0.0817404 0.030719256 -0.04962026 0.062439356 -0.01850873
0.022610823 0.07943718 -0.044410717 0.038098793 -0.069743775 0.07468672 0.03687197 0.04325816
0.015240645 0.104171626 -0.054697126 -0.034808904 -0.034653228 -0.0039643976 -0.029459855 0.10878433
-0.029141648 0.031994835 0.051321715 -0.06482929 0.029408561 0.016535066 0.020184623 -0.06489256
0.06978169 0.0019201568 -0.08149768 -0.050808016 0.015367143 -0.025956465 -0.013846787 0.119192064
-0.015272655 0.09961846 0.060400646 -0.010251996 0.019583387 -0.038800545 0.042786803 -0.04316364
0.0699684 -0.0148416115 0.05663755 0.072766304 0.082329325 0.047643974 0.019597437 -0.016901191
00000000: 8515 8a3d dda2 37bd 7408 ae3d d456 96bd
00000010: 4b45 b83c 8165 c2bc 87ae b5bc 42c1 a43d
00000020: adbb b5bc 57c7 ac3d 44d4 d3bc 54e9 0abd
00000030: 102b 413d 612b 58bc 07f3 04bb ad70 963c
00000040: 3916 5b3b 7b2f ad3c 52cd 9abd 6705 f2bb
00000050: cdf6 e53d 5d9b 113e 0e23 de3d f37d ff3d
00000060: a79d e53c 6a99 273d 0bd3 26bb 2aa8 7fbd
00000070: 48b0 45bd 5851 5bbc 9a1d 9e3d 89d2 823d
00000080: fd25 ce3d baa4 5d3d 3290 003d 6956 43bd
00000090: ac4b 853d af2f 883b aa54 4f3d 5483 cabd
000000a0: 053e 7f3b 8914 be3c 81cf ed3d 8087 f63d
000000b0: 18a5 e1bd 0f35 a03d d521 1fbd ef02 12bd
000000c0: 7bbd f43c 8a35 c73d b440 c2bc ef96 823d
000000d0: 2b18 a53b 0394 62bd ba96 5d3d 97c0 3fbd
000000e0: 1d93 b23b 9cbc 7c3d d682 d83d b831 fabc
000000f0: 148e 763d 00fb 643d b455 d23d 4561 233d
00000100: 4e7c aabd 09eb 87bc 6708 e1bc e1eb fa3d
00000110: beef b53d 93d8 19bd c8ae 213d b1c8 54b9
00000120: 37f2 bd3d 1198 0e3b 2776 8fbc 9dea f43d
00000130: 441c 063e 1943 eb3c aa80 273d dab8 4bbd
00000140: 4958 9ebb 9c50 c03c 8180 953c 0ae3 d63d
00000150: 4897 253d deef 993c db4c a93d ef19 18bd
00000160: c436 423d 9bde b53d dacf cb3d 454d 8f3d
00000170: 9217 5ebd 47c8 42bd 9be5 82ba 947a 373d
00000180: 72ee 703d 9337 a53d 48c8 af3d fbb1 433b
00000190: 2880 373d 2e2c 803d b0bb c5bb 7d4c 893d
000001a0: acd3 e63c ac0c 39bd cc8c 9a3c bc31 8aba
000001b0: a46e 30bb 0016 88bd 317b ab3d d0e0 1c3d
000001c0: 89e7 733d 1417 92bd 14a0 e43c e3b1 1c3c
000001d0: c34c 8dbc 2649 c93d cc3c 3b3c b6dc a6bb
000001e0: 0cfe 013d b5d3 febc be1c 8a3d e300 38bd
000001f0: e041 ee3d 6ccb 4b3c 10c6 24bd 2873 b43d
00000200: 39b6 ad3d e202 cf3d 3a8c fe3c c3e2 ddbc
00000210: bfec 9b3d c351 e5bb 7984 debb 8eaa bbbd
00000220: 82e4 a3bc 53b4 873d 9e48 eb3c b83c 5fbc
00000230: 63b7 973d aee2 5bbc 2120 e63d 122b 733d
00000240: 3a6c 923d fcb7 8eba d9ee 08bd 8beb 843d
00000250: cbcb d63d d5bd 353c f1b0 b83d 6f3b 6fbd
00000260: f678 e4bb 860a a83d df97 9bbd 104c 6bbc
00000270: 50ef 8e3d fbb5 f13d 9f6e 9f3d 2b9c f8bb
00000280: 4080 c73d f2e3 d0bc 727f 80bd efb6 f53c
00000290: 0fe3 db3c 68db 8b3c 1b07 a5bd dbe6 333d
000002a0: f74a 8dbd c0f2 45bd c0f9 9b3d 4005 8cbd
000002b0: 661b 08bd 3e74 863d f74c 0a3d 1b95 f93d
000002c0: 4521 3bbc 5667 e4bc 770b 7cbc 0165 983d
000002d0: e73e abbd c079 82bc ed24 563c a034 18bd
000002e0: ea99 c8bd 3448 393d 653e 99bd 0977 9a3d
000002f0: d804 65bc 21f8 483c 2cdc 00bd 6c5d b43c
00000300: c0fd cc3d 5a75 923d cc27 153d 8145 c9bd
00000310: f40a a63d 0b26 8dbd f830 acbc b523 a73d
00000320: e3db dc3c 3162 d5bc 3d90 5c3c 8367 a73d
00000330: f3a6 fb3c 9d3e 4bbd 69c0 7f3d 9f9f 97bc
00000340: 553a b93c f6af a23d 03e8 35bd 7b0d 1c3d
00000350: d3d5 8ebd 5af5 983d 1007 173d 782f 313d
00000360: e6b3 793c ef57 d53d 180a 60bd c893 0ebd
00000370: 8bf0 0dbd c7e7 81bb cb55 f1bc 52ca de3d
00000380: 77ba eebc 040d 033d b836 523d 38c5 84bd
00000390: 39ea f03c 8c74 873c 395a a53c 64e6 84bd
000003a0: b4e9 8e3d c5ad fb3a 41e8 a6bd 111c 50bd
000003b0: 78c6 7b3c a7a2 d4bc a2dd 62bc f81a f43d
000003c0: 283a 7abc c304 cc3d ab66 773d fdf7 27bc
000003d0: 576d a03c 52ed 1ebd 3741 2f3d 5bcc 30bd
000003e0: 984b 8f3d 3b2a 73bc c7fc 673d 8006 953d
000003f0: 479c a83d 5426 433d ce8a a03c 5e74 8abc

network.4.weight f4 [1, 256]
-0.26128054 -0.010785166 0.24970597 -0.008716511 0.21684688 0.23820254 -0.20220555 0.24297114
0.016824014 0.21334012 -0.28367874 -0.31623504 0.2666771 0.23500589 -0.22456335 0.24203381
0.23971923 -0.23091845 0.014179427 -0.22044796 0.2603653 -0.07915656 0.25755763 0.22647527
-0.04175353 -0.23983093 -0.0056044236 0.044036563 -0.2665509 -0.009233116 0.25072512 -0.24223682
0.2825427 -0.3107406 0.2659844 0.279486 0.23485814 -0.27731493 -0.2484168 0.028829983
0.039035466 0.24920467 -0.28197435 0.29412836 -0.01817019 0.24001585 -0.014244173 -0.054232858
-0.29621232 -0.23617376 -0.0023668134 -0.275347 -0.012100076 0.03819074 0.10700874 0.06409088
0.2962045 0.27605203 0.26133502 -0.23530328 -0.24836968 -0.28020495 0.26845026 -0.0045822444
0.009650863 -0.2541398 -0.2541998 -0.30617246 -0.23940946 -0.28312647 0.27931434 0.16538547
0.26539534 -0.0022558644 0.016647937 -0.24658795 -0.23023292 -0.023778021 0.27034047 -0.051401813
0.2562923 0.2757364 -0.28414994 0.2708484 -0.0033911064 -0.24547873 -0.41796026 0.07346411
-0.2685052 -0.23669343 -0.24960534 0.27390686 -0.26671225 -0.011221631 -0.2631024 0.24801892
-0.24369553 -0.25025517 -0.26702455 0.2479389 -0.018250667 -0.035916053 0.017273655 0.29048604
-0.22498207 0.0002321613 -0.2868841 0.031993415 0.13129981 0.016087689 0.28635722 -0.28460643
0.0345317 -0.042336445 -0.24958959 -0.033666965 -0.21554713 0.26193443 0.2548517 -0.00018112079
-0.037687637 0.029271478 0.08505772 0.052683417 0.24753 -0.0029313199 -0.001251896 -0.25642097
-0.28798753 -0.2694871 -0.013769936 -0.26998293 0.28141057 0.30087706 -0.2822392 -0.00539328
-0.025259808 -0.071122654 0.040948328 -0.29667187 -0.24362643 0.23319536 -0.084266976 -0.26118302
0.27707708 -0.28064784 -0.21065207 -0.2791027 0.22569749 0.21530524 -0.2393061 0.047303088
-0.000956834 -0.25563112 0.004160787 0.007975417 0.22953515 0.30523166 -0.24065882 0.20517363
-0.44333297 0.045604926 0.01645379 -0.01383199 0.040376183 -0.014925987 0.01306797 0.25281334
0.014564753 -0.28684434 0.27144495 0.0030797194 0.018974587 -0.27987015 -0.24755359 -0.2787775
-0.22649005 -0.29413357 -0.04063797 -0.22416355 0.051535137 0.26959682 -0.2187338 0.24745841
-0.00484557 -0.23578323 -0.011251125 0.28563607 -0.012018067 0.27912453 0.01679493 0.31717652
0.23850642 -0.30543068 -0.27795088 -0.00030713785 0.2617613 -0.0126028145 0.247653 -0.270159
0.21572891 0.019497367 -0.23356684 0.21350959 0.27770537 0.015423708 -0.26573232 -0.28557897
-0.2816677 -0.27364802 -0.2725082 -0.24234192 -0.007658263 -0.3069692 -0.2663982 0.2931989
-0.045337297 -0.1973477 -0.29540834 -0.2518003 0.017042186 -0.3200405 0.20296647 -0.22976078
0.010497493 0.28025863 -0.26343524 0.052614994 0.26306564 0.20013332 -0.24392934 -0.008583353
0.22779393 0.25630268 0.026706556 -0.039462775 0.28489974 -0.006801693 -0.054656 -0.22105561
-0.01149365 -0.26763925 -0.29997903 -0.22904386 0.26933914 -0.2603367 0.29105288 -0.29615137
-0.2673782 -0.24618393 0.22634757 0.24234715 -0.22417946 0.24077119 -0.27378833 -0.26992285
00000000: 90c6 85be 44b4 30bc ecb2 7f3e b2cf 0ebc
00000010: 1c0d 5e3e 5eeb 733e f90e 4fbe 6dcd 783e
00000020: 84d2 893c d575 5a3e 573e 91be 8fe9 a1be
00000030: e789 883e 62a5 703e eff3 65be b6d7 773e
00000040: f578 753e e375 6cbe d450 683c 1cbd 61be
00000050: 9a4e 853e d61c a2bd 98de 833e 22e9 673e
00000060: c005 2bbd 3d96 75be 50a5 b7bb af5f 343d
00000070: 5c79 88be 7f46 17bc 0b5f 803e ee0c 78be
00000080: 70a9 903e 6419 9fbe 1b2f 883e ca18 8f3e
00000090: a77e 703e 39fc 8dbe f960 7ebe db2c ec3c
000000a0: a7e3 1f3d 822f 7f3e f15e 90be fe97 963e
000000b0: a6d9 94bc b7c6 753e 6460 69bc 4623 5ebd
000000c0: 24a9 97be 89d7 71be 8a1c 1bbb 48fa 8cbe
000000d0: 663f 46bc e56d 1c3d 6627 db3d 1442 833d
000000e0: 1ea8 973e b156 8d3e b4cd 853e 58f3 70be
000000f0: 9f54 7ebe 0677 8fbe 5072 893e a726 96bb
00000100: a71e 1e3c 9d1e 82be 7a26 82be a3c2 9cbe
00000110: c127 75be f4f5 90be 4a02 8f3e cf5a 293e
00000120: e6e1 873e 20d7 13bb 4161 883c 8d81 7cbe
00000130: 2ec2 6bbe 20ca c2bc 116a 8a3e b58a 52bd
00000140: bf38 833e 522d 8d3e 1a7c 91be a4ac 8a3e
00000150: 533d 5ebb c75e 7bbe e3fe d5be 5a74 963d
00000160: 8379 89be c35f 72be 8b98 7fbe 853d 8c3e
00000170: 828e 88be efda 37bc 5cb5 86be acf8 7d3e
00000180: 528b 79be 7221 80be 71b7 88be b2e3 7d3e
00000190: 6c82 95bc b61c 13bd 7b81 8d3c 96ba 943e
000001a0: b361 66be 5370 7339 79e2 92be 870b 033d
000001b0: 7573 063e 54ca 833c 6a9d 923e efb7 91be
000001c0: 1d71 0d3d fb68 2dbd 6a94 7fbe 5fe6 09bd
000001d0: 63b8 5cbe 451c 863e ec7b 823e 3eeb 3db9
000001e0: 5a5e 1abd bdca ef3c be32 ae3d 91ca 573d
000001f0: 8178 7d3e 631b 40bb a916 a4ba 9c49 83be
00000200: 1a73 93be 37fa 89be 4c9b 61bc 343b 8abe
00000210: 0c15 903e 8f0c 9a3e a881 90be 1dba b0bb
00000220: a8ed cebc c1a8 91bd 6fb9 273d 60e5 97be
00000230: 3579 79be c4ca 6e3e 2a94 acbd c8b9 85be
00000240: 0cdd 8d3e 13b1 8fbe 2db5 57be 8de6 8ebe
00000250: 3e1d 673e fa78 5c3e a90c 75be e2c0 413d
00000260: 0bd4 7aba 15e2 82be 3657 883b 53ab 023c
00000270: 430b 6b3e 5347 9c3e 446f 76be 0919 523e
00000280: 8afc e2be 3bcc 3a3d 19ca 863c 929f 62bc
00000290: 7f61 253d 218c 74bc 0a1b 563c c070 813e
000002a0: 00a1 6e3c 43dd 92be d5fa 8a3e 1ed5 493b
000002b0: 9870 9b3c 244b 8fbe b07e 7dbe edbb 8ebe
000002c0: 02ed 67be ad98 96be 0074 26bd 218b 65be
000002d0: 8216 533d 9808 8a3e c1fb 5fbe bd65 7d3e
000002e0: 96c7 9ebb 2971 71be a356 38bc e43e 923e
000002f0: 6de7 44bc 69e9 8e3e 8595 893c f664 a23e
00000300: 073b 743e 6961 9cbe 944f 8ebe 5807 a1b9
00000310: 9405 863e 097c 4ebc bf98 7d3e 4852 8abe
00000320: 0ae8 5c3e f1b8 9f3c 252c 6fbe 42a2 5a3e
00000330: 662f 8e3e b8b3 7c3c 110e 88be 6837 92be
00000340: c036 90be 981b 8cbe 3286 8bbe 7b28 78be
00000350: 2bf2 fabb 112b 9dbe 5865 88be 2b1e 963e
00000360: 9ab3 39bd 8415 4abe c33f 97be f8eb 80be
00000370: 0e9c 8b3c 59dc a3be 71d6 4f3e 6946 6bbe
00000380: adfd 2b3c 0f7e 8f3e fce0 86be d282 573d
00000390: 8ab0 863e c0ef 4c3e 9dc8 79be 31a1 0cbc
000003a0: d042 693e 1b3a 833e b5c7 da3c b8a3 21bd
000003b0: 61de 913e bce0 debb f8de 5fbd 675c 62be
000003c0: dd4f 3cbc 0308 89be da96 99be 798a 6abe
000003d0: d2e6 893e da4a 85be e204 953e 27a1 97be
000003e0: cce5 88be a417 7cbe a8c7 673e da29 783e
000003f0: 4d8f 65be b98c 763e fc2d 8cbe 5433 8abe
