models/critic.pth (torch, 144783 bytes, 5 tensors)

network.0.weight f4 [128, 18]
00000000: 74bc 12bc fe3b 07be 4f3e 41be efa5 593d
00000010: b262 ac3e 4a52 1dbb 0e28 883d b680 c0bd
00000020: e349 953e 57da ab3e 05d1 403e 6bcb 87be
00000030: 0332 80be 32f3 babc 0311 64bd 2f67 9cbd
00000040: 8688 823e 4be5 263e f4cc 16be 20da 573e
00000050: 50c1 393c 8213 673e 7da6 2b3e 261a 08bd
00000060: 4ee1 0dbe b012 61be 8528 1f3e 8871 0fbc
00000070: 4c2d ae3d fa4d c9be 6822 b0bc 6cfc dcbe
00000080: 8dea a3bd fd44 1b3e 50da eabe 0d28 803e
00000090: 0dbf f73d 9383 633d 8c31 743e 1770 f6bd
000000a0: 4ed3 fc3d dc18 1dbe 539c 29bd bace b23e
000000b0: 6d51 6bbe 3a6b dc3d ecb2 a43d b06c fdba
000000c0: 1345 303d b791 f33d 3c24 1dbd b8a2 4bbe
000000d0: a763 ed3d 7f1a eb3c 942e b33d 6a95 bcbd
000000e0: f6a9 06be 3a55 86be f41f e7bd 3fee 3b3e
000000f0: 6b07 39bc 9a87 e7bd 3afd 8b3e 972f ee3d
00000100: befe 3cbb 9a9e 46bd 50c5 d7be b1b4 053c
00000110: d5ef 9e3d b2c5 3abe 7091 0a3b d246 0dbf
00000120: b7e8 bbbb 0e3f 3dbe 449b fe3d c886 33be
00000130: f265 8dbe 6454 913e 3996 8ebe 1c12 ddbd
00000140: bda1 6b3e 669a 2a3b 0d3b bfbe 2252 673e
00000150: 2b7b e9be 8f16 5bbe 94ff 063f 1ced d1ba
00000160: 979b 363e 8122 c0be 94c1 5f3d c8bf 1dbe
00000170: f67f eb3a ace8 6ebe 4c76 043e 1aee 6b3e
00000180: 715d 02be c12b 0abe aebd 8c3e 57f4 fc3d
00000190: b8e9 9bbe 3610 9f3d eb02 0dbf 79a9 92bd
000001a0: b6ef ba3d b863 aabe fc74 3bbc daff 1d3e
000001b0: 46b6 d93b 2184 97bd 67d1 74bc e5b8 81be
000001c0: be39 44be 16e0 ec3d 576e 623d a3cd 82be
000001d0: 3b78 813d e729 57bd ca4a 9bbd 9b97 86be
000001e0: 0ea3 69be 7051 86be ce7f d5bd afcd 903d
000001f0: a6fd 453e e782 d13d b6fa b53d ee9e e1bd
00000200: a1fb 333d cd91 86be 2c28 6cbe ae0a 01be
00000210: 5d29 b43d a2f4 a0be 25fc 85be 6c9f c5bd
00000220: 9cbe 663e 3c71 03be 6bb3 fcbd 3903 babc
00000230: 7308 e7bd 3db6 7abe 2c8f 943e f4df 963d
00000240: ca04 d8bd 1703 e6bc 217c 2bbe 2a76 683e
00000250: 7f57 f13d e18b 423d 6570 36bd 8839 46be
00000260: 7d1a 163e 9acb 923b e8b3 e3bc 3fa7 a2be
00000270: 82fe 073e a4a2 f9be 1552 323e 3a47 c53d
00000280: 062d 1e3c 71fd 4b3e c9d7 22be 939e f6bd
00000290: c5fe 223e 9f7b e8bd e86d 34be 3562 2d3e
000002a0: d76e a1be 6fb9 3f3e c400 16bd 3e1d 87be
000002b0: 6f74 c83e 795f d7bd 3706 45be d841 84be
000002c0: f0bb 7dbe 13ae e53d b0ef 6dbe d8fb 49be
000002d0: 19e2 b8bd 39f4 493e 7b03 933d 40ca 5a3e
000002e0: fd9b 0bbe 7dee 4bbe 8787 fdbc b38a b1bd
000002f0: 70ce d43d c440 b83d 59e6 3bbe 7af3 df3d
00000300: 7be8 36bd c6f4 82be e7a8 9fbe 5524 613d
00000310: bb21 693e 3b23 c93d 8f67 36be a1de f93b
00000320: fa24 1f3e 5b34 0c3d ad4d d1bd 13e9 bb3e
00000330: 6b3a cfbe b529 39be b00c fa3d b5bc 2a3d
00000340: 4238 b1be 4f33 4d3d 68db c8be 5659 e3be
00000350: f5ee ca3e 3e9a 5f3e 4be0 abbc 6bca c7bd
00000360: 367a dabd 0892 273c 28e2 6a3d f816 59bd
00000370: fc70 223d c717 653e 9b57 13be b9d8 a1bd
00000380: 619a afbb 7f26 bc3d 260b 06be affc 8a3e
00000390: f3d5 82be 1f2a 833d e5e8 aa3e 86f8 18be
000003a0: bef2 ff3d c112 07be 182e 9dbd ac13 ccbd
000003b0: 1c5c eabd 2089 753e 8a13 8abe df7c c53d
000003c0: 34f8 4c3e 1442 3c3e a028 07be 50be 9bbe
000003d0: 09bf 043c 102b 8c3d 40b1 6d3e ff07 59be
000003e0: 5ac6 8a3e 3d3d a73d b32e 0ebd 2385 3d3e
000003f0: 673d a8bb b945 11be 7c8c aabd f3f3 893d
-0.008956064 -0.13206479 -0.18871425 0.053136762 0.3366905 -0.0024005347 0.06648265 -0.0939955
0.29157934 0.33565018 0.18829735 -0.26522383 -0.25038156 -0.022821043 -0.055680286 -0.07636868
0.25494784 0.16298406 -0.14726621 0.21079302 0.011337593 0.22566035 0.16762729 -0.033228062
-0.13855478 -0.21979785 0.155428 -0.008755095 0.085047334 -0.39317304 -0.021500781 -0.43161333
-0.080037214 0.15163036 -0.45869684 0.25030556 0.12096987 0.0555454 0.23847026 -0.12033098
0.12344991 -0.15341514 -0.041408848 0.34923345 -0.2298028 0.10762639 0.08041939 -0.001933476
0.043034624 0.11893027 -0.038364634 -0.19886291 0.11591273 0.028699158 0.087491184 -0.09208186
-0.13150772 -0.26236898 -0.112853914 0.18352602 -0.0112932725 -0.11305161 0.27341634 0.11630171
-0.0028838362 -0.048491098 -0.42142725 0.008160756 0.07760588 -0.18239477 0.0021143816 -0.5518619
-0.005734529 -0.18481085 0.12431958 -0.17531884 -0.2761684 0.28384697 -0.27848986 -0.1079447
0.23010917 0.002603197 -0.3734974 0.22589925 -0.45601782 -0.21395324 0.5273373 -0.0016016099
0.1783279 -0.37526324 0.05462797 -0.1540519 0.0017967212 -0.23330945 0.12935752 0.23040047
-0.12730958 -0.13493253 0.27488464 0.123512916 -0.3045175 0.07766764 -0.5508258 -0.071612306
0.091277525 -0.33279204 -0.0114414655 0.15429631 0.006644043 -0.073982485 -0.0149425035 -0.25336376
-0.19162652 0.115661785 0.05528101 -0.25547513 0.0632176 -0.052530196 -0.07582624 -0.2628754
-0.22816107 -0.26234007 -0.104247674 0.07070481 0.1933504 0.10230046 0.0888571 -0.110166416
0.043941144 -0.26283112 -0.230622 -0.1260173 0.08796952 -0.3143664 -0.26168934 -0.09649548
0.22533649 -0.12836164 -0.12338909 -0.022706615 -0.112809084 -0.24483581 0.2901548 0.073669344
-0.105477884 -0.028077645 -0.1674657 0.22701326 0.11784267 0.04749668 -0.04454078 -0.19357884
0.14658542 0.0044798376 -0.027795747 -0.31768224 0.13280681 -0.48756897 0.17414124 0.09632726
0.009654289 0.19920899 -0.15902628 -0.120419644 0.159175 -0.11351704 -0.17620051 0.16931994
-0.31529877 0.18723081 -0.036621824 -0.26389498 0.39151332 -0.10516257 -0.19240652 -0.25831485
-0.24778724 0.11214843 -0.23235965 -0.19724977 -0.090275 0.1972207 0.07178398 0.21366215
-0.13633724 -0.19915195 -0.030948414 -0.08669033 0.10390937 0.08996728 -0.1834959 0.10935111
-0.044655304 -0.25577372 -0.3118355 0.05496629 0.22766773 0.09821173 -0.17812942 0.0076254164
0.15541449 0.034229618 -0.102198936 0.3670126 -0.40474257 -0.18082316 0.12209451 0.04168387
-0.34613234 0.05009776 -0.39229894 -0.44404095 0.39635435 0.21836182 -0.020980975 -0.09755405
-0.10667841 0.010227688 0.057344586 -0.05300042 0.03965853 0.22372352 -0.14388888 -0.07902665
-0.0053589796 0.0918703 -0.1309019 0.27145907 -0.25553855 0.06404518 0.3338081 -0.14938554
0.12497471 -0.13190748 -0.07674807 -0.099646896 -0.1144335 0.2397809 -0.26968032 0.09642958
0.20016557 0.18384582 -0.13199091 -0.30418634 0.008102187 0.06844151 0.23212147 -0.21194457
0.27104455 0.08165977 -0.034712505 0.18507819 -0.005134273 -0.14186753 -0.083275765 0.06735983

network.0.bias f4 [128]
00000000: e728 65bd 8205 9fbc 4c64 fbbd baa6 2c3e
00000010: a151 413b 465e 8a3e f399 11bd 6039 563d
00000020: 2c56 f63d 983e 06be 73ee 99bc 3641 b53d
00000030: 0e88 0c3d 0bf9 803d 0711 1fbe afc4 30ba
00000040: 6c42 b73d c9c3 02be 4175 50be 3e49 75be
00000050: 2903 4ebe 3480 c1bc 0e88 37bb 9347 333e
00000060: 09f0 a2bd a8fb f0bd c32b 43bd 280f 21be
00000070: 1021 89be 15bc f0bd 4804 85bd 874a 7dbe
00000080: 4cb9 323e 1d3f b7bd 1d4a 713d 05c1 53bd
00000090: 3024 323d 5300 b53d ca2f b13d bcf2 53be
000000a0: 2ab9 f0bd 9aff 70be 1f49 e23d cec8 99be
000000b0: 199a c33d 6597 6a3e 54bd 5e3d a8c9 05bb
000000c0: 473c 64be c3ff 17be 8faf bd3d 4ae7 603d
000000d0: 617e 9cbd 87cb 7dbd 6759 153c 67cf 9abc
000000e0: ddbf 8abe 6ff6 05bd 2922 483d d3b4 8a3c
000000f0: 2a9c ff3d d70c 3fbd b6ec 11bd 4ddc 77bd
00000100: e5e7 08be 454f 7a3b 8c1a 35be ed2d ebbb
00000110: 62ca eb3d 39af 493d d401 f43d c159 9a3d
00000120: 79e1 96bd 46e4 4abd e251 3b3d b3e6 7ebc
00000130: 3bbc 0e3e 50e8 66bd 98b7 e1bd 6ea4 9dbd
00000140: d1d7 603e 2571 4c3d 04d8 03be 2545 463e
00000150: 2760 59be 20b1 c5bd 91a0 3bbe 73c9 53be
00000160: 9e73 f33d dc3d 67be bdf7 803e 945f 39be
00000170: 8435 b8bd fddd 813c 2248 ffbd 03b3 9dbb
00000180: 94f8 99bd 5ec9 61be d154 543c 27a3 f0bd
00000190: f0e5 01bd 036d 23be 00e2 20bd 72d4 d8bd
000001a0: 7edb ac3d dec3 b9bd c276 1abe 03a8 59be
000001b0: dc5e 22bd 796d 783d 2b9b 093d 4658 813d
000001c0: 624f a2be d28c 103e ad43 153e a116 023d
000001d0: e6b9 db3d ac09 debd 4840 02be ea03 8bbd
000001e0: 72e5 18be ead0 29be 0e1a 653e b0ea 5a3e
000001f0: b1b7 31be 9407 b6bd 4086 163c a07e 61be
-0.05594721 -0.019411806 -0.122749895 0.16860476 0.0029498118 0.2702505 -0.035547208 0.05230081
0.12028155 -0.13109815 -0.01879046 0.088503286 0.03430944 0.06297501 -0.15533839 -0.00067431753
0.08948216 -0.12769999 -0.20357229 -0.23953721 -0.20118393 -0.023620702 -0.002800468 0.17507772
-0.07955939 -0.117667496 -0.047649156 -0.15728438 -0.26783037 -0.11754624 -0.06494957 -0.24735461
0.17453498 -0.08947585 0.05890857 -0.05169775 0.043491542 0.088379525 0.08651693 -0.20698065
-0.11754067 -0.23535004 0.11049103 -0.30036014 0.09550876 0.22909315 0.054379776 -0.0020414386
-0.22288619 -0.14843659 0.09262001 0.054908074 -0.07641292 -0.061961677 0.009115553 -0.018897725
-0.27099505 -0.03270572 0.048860703 0.016931927 0.12480958 -0.046643104 -0.035626136 -0.06051283
-0.1336971 0.003819422 -0.17685908 -0.0071771056 0.11513211 0.04923937 0.11914411 0.075366504
-0.07367224 -0.049534105 0.045732386 -0.015557933 0.13938992 -0.056373894 -0.11021346 -0.07697378
0.21957327 0.04991259 -0.12875372 0.19362314 -0.21228085 -0.096529245 -0.1832297 -0.20682316
0.118872866 -0.22582191 0.2518901 -0.18102866 -0.08994582 0.015852923 -0.1246493 -0.0048125996
-0.07518116 -0.22049472 0.012959675 -0.11749869 -0.031713426 -0.15959553 -0.03927803 -0.10587396
0.08440302 -0.09070562 -0.15084365 -0.21255498 -0.039641246 0.060651276 0.033595245 0.06315665
-0.3170119 0.14116219 0.14576598 0.03175986 0.10728817 -0.108416885 -0.12719834 -0.06787856
-0.14931276 -0.165836 0.2237322 0.21378589 -0.17355229 -0.08888164 0.009187281 -0.2202096

network.2.weight f4 [256, 128]
00000000: 8ad8 863e 9302 ca3d 99aa 0cbe 7900 273e
00000010: 122a b73e a938 b83d 8910 16bd b301 c53d
00000020: 2fdb 1e3c 82f2 91be 3770 743d 8c90 643e
00000030: e39b 8a3c 6cd0 d03d f40e 8f3d c552 c73d
00000040: cc61 fb3e 9f2d 053d 9e75 e9bc 3f80 d2bd
00000050: 7352 74bd 9790 c23d ae56 97be bbfc 5cbe
00000060: 1194 c93e 2619 783d 2a2a 183d 257f a63e
00000070: ecb1 8fbe 157e 14be aed7 cfbb da72 733d
00000080: a25e b23d 0d6e cb3c b8eb 203d f842 d3bc
00000090: 82d0 0a3e 1214 8c3d ea2b 433d f790 cb3d
000000a0: 4e7b 68be 3cfc f5bb 40de 8a3b a5aa b83d
000000b0: 583b 863e b22a a1bc 937f fb3d 1b11 5dbd
000000c0: 427e ffbe 6244 563e bcce b5bc 19eb 90bd
000000d0: 16f0 213d f6de 61bc 6e5a 473e 1b03 51be
000000e0: 1387 dd3d 5fc4 843e 57f0 103e 0a8a bd3e
000000f0: 44b7 093f 1b7d 62bd 4373 a1be 0cff 10be
00000100: 4a61 623e 6c3e d03c 43a9 af3d e272 af3e
00000110: 920b 043e 76ec 0f3f 719d 31be 9010 0e3d
00000120: 73fd 6c3d b805 97bd c99a efbc 56a3 5abd
00000130: 03d3 af3d d12b 493e 2468 b93a ed90 e2be
00000140: fbd8 0f3e 53e9 d13c 90ac 5e3e ec79 b03d
00000150: cfbe a5bc ab86 e5be 24fc 0b3e 9d26 c6be
00000160: 2868 f43d a1f5 37be f858 b93e a3b5 d83c
00000170: 7055 8dbd 8cfd 823d 6e8d d1be 3162 a43e
00000180: 2c69 e43c 1eb7 b43d 0da0 9f3e f170 f43d
00000190: ef6a 643d 628b 433e 3465 b33d 4979 873e
000001a0: 12e4 89be 0f43 583e dba4 f9bd 1794 2ebd
000001b0: da7b 9c3d fd14 c9bc 74ea 9fbd b4e8 063d
000001c0: 777c b9bd 434b 553d f196 9fbd 2baa a2be
000001d0: b657 023d 8356 f1be 1ca1 5f3e 4a42 163e
000001e0: d5d2 5e3e bab3 d7bb ce4c 44bd b696 1d3e
000001f0: a6b0 d63c 0183 0c3c aae7 003e 303a 19bf
00000200: dad4 a1bd b7d5 883b 31a3 6fbc 6bf9 c8bd
00000210: b183 d2bc 2f96 0439 3eb1 98bd 9f00 a93d
00000220: bdab 383d 2936 953d 2dc5 4cbc 9497 6e3d
00000230: e6c5 f33c 5832 b0bd 0602 1bbd 161d d4bc
00000240: c678 ae3d 09c0 173d f17b f0bc fb57 003d
00000250: e32e 01bd d95f ba3c 1b47 b1bc 3e80 e93c
00000260: e5fe b13d 33f0 afbc 6624 2abd c89a 0439
00000270: 82d1 533c d47d aabd 6c98 bebd 91f9 9c3d
00000280: d55f 18bd 36a9 e03c 1d33 ccbc e5dd b0bd
00000290: 624e a43d 9dd2 a6bd 1cae b6bc d301 963d
000002a0: e39c 2fbb d992 223c f9e3 58bd 5eda 903b
000002b0: 1042 aebc c2bb 703d 3bfb de3c 0e30 643d
000002c0: 4b2f bebd c709 99bc f494 a6bc e036 223c
000002d0: e424 83bd 4e75 19bd 92fd 763c 84e6 8e3d
000002e0: bb21 293d 7f53 11bd 4127 403c 04f6 893c
000002f0: 356f 843b c91b af3c ebc5 25bd 58a9 9d3c
00000300: 1bd7 acbd 6aac 1cbd 2c21 6fbd c4aa 38bd
00000310: 881e 1abb 653b 93bd 5b4b 723c de9e 77bd
00000320: 5ec0 5dbd 389e 9f3c 5f49 7f3d 35fe 88bc
00000330: 03ee 27bd af34 2f3d 4ce4 353d d24c 20bd
00000340: f788 87bd 13ae 313d 285d 8fbd e0ba 96bd
00000350: c581 b0bd 6ca8 6d3d 387f 12bc f9ad 84bd
00000360: 694f 803d 8cce 30bd 268f 76bb 14de 45bc
00000370: 4a3a e83c adbe a8bd 2c24 9cbc f97c 7abc
00000380: b551 b6bd 28aa 83bd 8c16 89bc 57a1 57bd
00000390: 41cc 593c 601e 8a3d dc15 b4bc 1f86 1ebd
000003a0: a743 57bd 6d7b 84bc 6e51 6bbd 2c87 0f3d
000003b0: 95ef 95bd 4275 abbd 694b 2f3d 6aa1 90bd
000003c0: 2617 acbc 95d9 d23c 75ab 86bc ece4 273c
000003d0: 0c03 4e3d 3f5e d23c dd32 a93c 0d1e 553d
000003e0: 679b 56bd 0fd8 e93c 607a 5c3d b31f 80bd
000003f0: e4de 1fbd f00f fa3c 6d61 1cbd 9f8d 51bd
0.2633708 0.09863772 -0.13736953 0.16308774 0.35774285 0.08995182 -0.036636863 0.09619465
0.009695812 -0.2850533 0.05967733 0.22320765 0.016920036 0.10196003 0.06985274 0.09732584
0.4909805 0.03251421 -0.028498467 -0.10278367 -0.059648942 0.095002346 -0.2955832 -0.21580784
0.39370778 0.06057086 0.037149586 0.3251888 -0.2806543 -0.14501221 -0.0063428497 0.059435703
0.08709456 0.02483275 0.0392873 -0.02578877 0.13556102 0.068397656 0.0476493 0.09939759
-0.22703287 -0.0075068753 0.00423792 0.09016923 0.2621715 -0.019673679 0.12280192 -0.05397139
-0.49901015 0.20924523 -0.022193305 -0.07076091 0.039535604 -0.013786068 0.1946809 -0.20411341
0.10816779 0.2593107 0.14154182 0.37019378 0.53795266 -0.05529509 -0.3153325 -0.14159793
0.22107425 0.02542039 0.08577206 0.34267336 0.12895039 0.56220186 -0.17345215 0.034683764
0.057858896 -0.07374138 -0.029248612 -0.053378426 0.08585169 0.19645621 0.0014145416 -0.44251195
0.14047615 0.025623953 0.21745515 0.08617005 -0.020232586 -0.44829306 0.13670403 -0.38701335
0.11933929 -0.17964794 0.3620069 0.026453799 -0.069010615 0.063960165 -0.40928215 0.32106164
0.027882181 0.08823989 0.31176797 0.11935604 0.055766042 0.19096139 0.08759537 0.2645972
-0.26931816 0.21119331 -0.12189647 -0.0426217 0.0764081 -0.02454614 -0.0780839 0.032936767
-0.09056943 0.05207373 -0.07792462 -0.31770453 0.03182193 -0.47136316 0.21838802 0.14673725
0.21760114 -0.0065827044 -0.04792481 0.15389523 0.02620728 0.008576156 0.12588373 -0.5985441
-0.07901926 0.0041758674 -0.01462631 -0.09813198 -0.025697561 0.00012644449 -0.07455681 0.082520716
0.045085657 0.07285721 -0.012498182 0.058250025 0.029757451 -0.08603352 -0.037843727 -0.025892776
0.085191295 0.037048373 -0.029355975 0.031333905 -0.031538855 0.022750782 -0.021640351 0.028503533
0.086911954 -0.02147684 -0.04153862 0.00012646161 0.0129283685 -0.08324781 -0.09306416 0.076647885
-0.037200768 0.027424436 -0.024926716 -0.08636073 0.08022763 -0.0814564 -0.022299819 0.07324567
-0.0026796393 0.0099227065 -0.052951787 0.0044205626 -0.021271735 0.05877281 0.027219405 0.05570989
-0.09286364 -0.01868142 -0.020334698 0.0099007785 -0.06403521 -0.037465386 0.015075104 0.06977561
0.041291934 -0.03548002 0.011728109 0.016840942 0.004041577 0.021375554 -0.040471952 0.019245788
-0.084394656 -0.038250364 -0.058381245 -0.04508473 -0.0023516733 -0.07189063 0.014788474 -0.060454242
-0.054138534 0.019484624 0.06232583 -0.016722778 -0.04099847 0.042774852 0.044407174 -0.03913576
-0.06617921 0.0433789 -0.0700019 -0.07359862 -0.086185016 0.058021948 -0.008941464 -0.06478495
0.06265146 -0.04316573 -0.0037621944 -0.012076873 0.028348107 -0.082394935 -0.019060217 -0.015288585
-0.08902303 -0.06428939 -0.016734384 -0.0526441 0.013293327 0.06744075 -0.02198308 -0.038702127
-0.052554753 -0.016172135 -0.057450704 0.03504102 -0.07321087 -0.083719745 0.042796526 -0.07062037
-0.021007132 0.025738517 -0.016439179 0.01024745 0.050295874 0.025679706 0.020654136 0.05203061
-0.052394297 0.028545408 0.053827643 -0.06256046 -0.039030924 0.030525178 -0.03817885 -0.05116045

network.2.bias f4 [256]
00000000: 1366 843d dda2 37bd 8b57 ba3d d456 96bd
00000010: 666f 043d 3250 8cbb 5cd1 26bd 6f81 d83d
00000020: adbb b5bc d2a8 cf3d a5a5 1abd 55c9 5ebd
00000030: b598 7b3d 7e22 a4b9 0a89 ff3a 9c73 0a3d
00000040: 7460 9b3c 5e57 023d 52cd 9abd 85ab f3bc
00000050: b86a fc3d a69f 0f3e 6778 ff3d dee2 163e
00000060: ecf5 373b e0a8 dd3c bb5b 81bc a22e fdbd
00000070: 0f4e 2abd b2eb 16bd 9662 c33d 1dd0 423d
00000080: ffb1 e03d 3001 5f3d 2332 e43c cc7c 70bd
00000090: a8f9 9d3d c5e5 8f3b 178e 5e3d 0363 52bd
000000a0: 5c1f 46bc 8742 123d 7d33 c83d 94c1 133e
000000b0: 18a5 e1bd e0ce ca3d d521 1fbd ef02 12bd
000000c0: 5467 fd3c 3b37 bb3d e02e 55bd 0ad3 983d
000000d0: 2b18 a53b 0394 62bd 81a5 e83c 5a6d bbbd
000000e0: 2c39 b13c 97f1 ae3d f30e f93d d069 fbbc
000000f0: a617 513d 147d 483d a5e2 dd3d 9b2e 61bb
00000100: 5a8c b6bd 8dce 9fbc 38b3 1abd 11c8 ea3d
00000110: 419c 8d3d 4e2a eabc f62c 783d bcd9 4fbc
00000120: ee32 df3d 1198 0e3b 2776 8fbc 11ee e03d
00000130: d434 c03d 1943 eb3c b94b 643d dab8 4bbd
00000140: cf24 943c 0e3b 323d a60d 613b dbd0 f43d
00000150: 5e98 253c d4e0 aab8 4fa1 653d dc7c 9ebd
00000160: fb38 2f3d 2496 9f3d 571f b33d 229a 9e3d
00000170: bf69 69bd 47c8 42bd 8c9f d33b 4834 503d
00000180: 463d 093d 28d1 b13d 8a26 713d c24d 883c
00000190: b375 ff3c 0c06 a53c b0bb c5bb 5081 ad3d
000001a0: ae89 b03c 13ec 91bd 4151 4b3c cbde fc3c
000001b0: dee9 4ebc 0016 88bd 3fef d93d 80d5 0b3d
000001c0: 6d36 303d 1417 92bd fa97 8d3c 93d9 00bc
000001d0: 4a63 d2bc f4a9 ea3d c3dd 9b3c 7ccc 52bc
000001e0: 88bc 2a3d 88a2 4ebd 710e 553c e300 38bd
000001f0: 9a01 0c3e 9f69 28bc f55f 93bd 9e55 ae3d
00000200: b6e0 7e3d 7ab7 ab3d 3d44 643c 8445 8cbc
00000210: 9e2f a03d fb26 d93a fb2c 5cbb 8eaa bbbd
00000220: 942a 19bd 3d13 1f3d 67be 05bd cc52 8fbc
00000230: a2a4 4a3d 7041 083c c501 ba3d 85e6 1e3d
00000240: 45f1 9f3d 5374 00bb 0d20 55bd 3c46 393d
00000250: b1c9 f23d fd89 d43c f7dd 813d 97ca 9fbd
00000260: f678 e4bb 69b2 8a3d df97 9bbd 104c 6bbc
00000270: 93e3 903d 0102 0b3e d279 823d c39c 30bc
00000280: 3d72 c33d 07cb 0dbd 727f 80bd efb6 f53c
00000290: 2ce8 e03c 68db 8b3c 1b07 a5bd f192 8f3d
000002a0: f74a 8dbd bc53 0cbd 2ff6 b13d c2fc 01be
000002b0: bbea 6dbd de7b 4c3d cedf 2a3d 83e0 c43d
000002c0: fe69 99bc 9c55 8cbc 49a6 3cbd c66a 943d
000002d0: 110b 17bd 7436 4ebb 9a93 1a3b 32a8 82bc
000002e0: 9a02 03be 2349 193d d97b b6bd fe62 b03d
000002f0: d804 65bc 4398 173d 8a26 3bbd 0ba9 093d
00000300: 6fd6 f73d f2ba 9d3d 96c4 d93c 8145 c9bd
00000310: 4279 b63d 0b26 8dbd b32f 4abc e786 a63d
00000320: 3ea9 333d 3162 d5bc e57e 873c 8f01 c63d
00000330: d62e 353d 9d3e 4bbd 7323 593d 5130 afbc
00000340: 38a1 253c 2151 8c3d 3b24 4bbd 3e1b 393d
00000350: d3d5 8ebd 4124 7f3d a9fb d03c f098 6a3d
00000360: c28a dabc a3db f23d 856a 94bd a419 4dbd
00000370: f237 a83c f9d8 9abc 2470 e1bb f2fa 9e3d
00000380: 00c6 3fbd dc01 473d 47b2 423d 61fc 8fbd
00000390: f6b4 693d d5d4 b43c a30b 2d3c 359f 74bd
000003a0: 6b26 ae3d bce2 28bc 41e8 a6bd a49c 90bd
000003b0: 178d f03c cf34 38bd 61db 50bd ecad df3d
000003c0: 283a 7abc 345a 973d 4365 973d 1955 13bd
000003d0: 0e52 183d 6343 2cbd 8a29 823d 9b62 58bd
000003e0: cddf 963d 910d 93bc e84c 8b3d bdb6 ad3d
000003f0: bc46 953d c414 833d c145 353c 79dc cbbc
0.064647816 -0.044833053 0.09098729 -0.0734078 0.0323328 -0.004282021 -0.040727004 0.105715625
-0.022184217 0.10139622 -0.037755627 -0.054391224 0.06142493 -0.00031306216 0.0019495797 0.03380166
0.01896689 0.0318216 -0.07558693 -0.029744873 0.123250425 0.14025745 0.12474137 0.1473498
0.0028070165 0.027058065 -0.01579081 -0.1236241 -0.04157835 -0.03684587 0.09540288 0.047561754
0.1097145 0.054444492 0.027855938 -0.058712766 0.07713634 0.0043914043 0.054334726 -0.051363956
-0.012092438 0.035707977 0.097754456 0.14429313 -0.11017817 0.099027395 -0.038850624 -0.03564733
0.03093306 0.09141394 -0.052046657 0.074621275 0.0050382814 -0.055316936 0.02839923 -0.091517165
0.021633707 0.08542173 0.121610545 -0.030690104 0.051047944 0.04894741 0.10834245 -0.0034360054
-0.08913489 -0.01950767 -0.037768573 0.11463941 0.06914569 -0.028584626 0.060589753 -0.012686189
0.10898386 0.002175812 -0.017512394 0.109829076 0.09385076 0.028718518 0.055736277 -0.049736835
0.018083958 0.04351335 0.003434041 0.119538985 0.010107128 -8.148109e-05 0.05606204 -0.07738659
0.04277895 0.07792309 0.08746212 0.07744242 -0.056985613 -0.04755428 0.0064582285 0.05083111
0.0335057 0.086824715 0.058874644 0.01663864 0.031184053 0.020144485 -0.006034337 0.0847193
0.021550026 -0.07125106 0.012409509 0.030867955 -0.0126290005 -0.06644821 0.10641336 0.034139156
0.043020654 -0.07133308 0.017284382 -0.007864374 -0.02568211 0.11458197 0.019026643 -0.012866136
0.041683704 -0.05044797 0.013003931 -0.04492272 0.13672486 -0.010279088 -0.07196037 0.08512424
0.06222602 0.08384605 0.013932285 -0.017122991 0.07821582 0.0016567403 -0.0033596146 -0.0916339
-0.03739412 0.038836706 -0.032652285 -0.017495535 0.049473412 0.008316383 0.09082369 0.03879406
0.078096904 -0.0019600585 -0.05203252 0.045232996 0.11854876 0.025944704 0.063411646 -0.07802313
-0.0069724275 0.0677231 -0.075973265 -0.014361396 0.07074656 0.13574983 0.06370892 -0.010779562
0.095432736 -0.03461745 -0.06274308 0.029994456 0.027454458 0.017072394 -0.08057996 0.07010449
-0.06899064 -0.034259543 0.08689534 -0.12694076 -0.058085185 0.049922816 0.041717343 0.09613135
-0.018727299 -0.017130665 -0.04605702 0.07246928 -0.036875788 -0.0031465562 0.0023586513 -0.015949342
-0.12793961 0.037423264 -0.08910341 0.08612631 -0.013978206 0.037010442 -0.04569105 0.033608478
0.12101447 0.077016726 0.026582997 -0.0982771 0.08909847 -0.06892022 -0.012340474 0.08131199
0.043862574 -0.026047798 0.01654 0.09668266 0.04423412 -0.04962026 0.053012323 -0.021385344
0.010109238 0.068514116 -0.0495951 0.045191996 -0.069743775 0.062290434 0.025510626 0.05727476
-0.026677493 0.11858299 -0.072468795 -0.05007328 0.02053449 -0.018902289 -0.0068798233 0.07762708
-0.046819687 0.048585758 0.0475333 -0.07030559 0.057057343 0.022074142 0.010561856 -0.059722144
0.085034214 -0.010307964 -0.08149768 -0.07061127 0.029364152 -0.044972237 -0.050990466 0.10921845
-0.015272655 0.07390252 0.07392361 -0.035969827 0.03718763 -0.042056452 0.06355579 -0.052828413
0.07366905 -0.017950805 0.06801778 0.0848212 0.07288882 0.06400445 0.011063994 -0.024885403

network.4.weight f4 [1, 256]
00000000: 6754 82be 44b4 30bc da62 473e b2cf 0ebc
00000010: e0e0 183e 1bed 353e 1790 2bbe dc42 3b3e
00000020: 84d2 893c b9bf 153e feeb 89be aef3 9abe
00000030: 28a0 593e cd7c 283e 0f1c 5cbe 5f3d 2f3e
00000040: 930b 393e 5ea0 83be d450 683c c40a 55be
00000050: 21d2 513e 2f64 32bd fcdd 543e b28d 393e
00000060: 76e0 ccbd 00b7 66be ea56 fa3b a2a4 80bc
00000070: 4ce1 92be fe16 693c b4b2 4b3e 1cb3 67be
00000080: 3d63 663e 228c a8be 22a9 6f3e 5393 523e
00000090: 5610 3e3e 17d3 8cbe 9e87 73be 9af2 323e
000000a0: edcf bc3c 5b07 483e 15d5 88be e9ff 813e
000000b0: a6d9 94bc 9ca4 463e 6460 69bc 4623 5ebd
000000c0: 6058 91be c407 23be b4b9 d43c 9ac1 93be
000000d0: 663f 46bc e56d 1c3d 5cf7 ae3d ebe4 963c
000000e0: 8738 6c3e 80b3 633e 5725 583e 2cfb 63be
000000f0: fdd6 6dbe bd0f 89be 3046 5c3e ba36 cbbc
00000100: 42df 843c c615 76be 972a 72be f37e 9dbe
00000110: 66db 67be 13ac 9cbe 83bd 643e 0bec cd3d
00000120: 40e4 563e 20d7 13bb 4161 883c a825 42be
00000130: ba20 59be 20ca c2bc 132a 5b3e b58a 52bd
00000140: 61de 4b3e efc1 5e3e 5c3d 90be a300 633e
00000150: b498 dc3c 864c 80be a17b debe de0c 483d
00000160: 822b 87be b6b9 77be 36ee 81be d9c7 603e
00000170: 3510 8dbe efda 37bc 3015 90be 97c3 403e
00000180: 68b0 62be 0678 8bbe eb50 6abe a32c 3d3e
00000190: 4adf 97bb e5bf d53b 7b81 8d3c 6b9e 733e
000001a0: 4e65 5cbe fd93 a73c 16fb 8bbe 2f99 563d
000001b0: 6010 243e 54ca 833c 7fc7 6b3e 6f44 92be
000001c0: ec7f fdbc fb68 2dbd 0da5 66be 2f07 85bc
000001d0: f9e3 4dbe 29c9 563e 0cbc 483e ac2a 073c
000001e0: 40a9 73be 7928 233c eb91 ee3c 91ca 573d
000001f0: 5775 4b3e 3117 a23c f86b aebc 4a48 80be
00000200: 40b2 96be 28ca 76be d8e3 5c3b a6f7 84be
00000210: 3b41 673e 4c38 7a3e 1224 8cbe 1dba b0bb
00000220: 25fa 00bc e587 f2bc 69f4 9abb e41d 95be
00000230: 8c6a 75be dd1f 323e f631 37bc 198c 86be
00000240: 1cdd 5b3e 31fb 95be 338d 1abe e443 86be
00000250: 712c 353e ac8b 223e 653d 64be f993 6a3e
00000260: 0bd4 7aba 2d56 77be 3657 883b 53ab 023c
00000270: 07b6 273e e008 863e f8f2 6cbe bb9a 033e
00000280: 4999 0ebf ff8b 203c 19ca 863c 929f 62bc
00000290: ffd8 6e3d 218c 74bc 0a1b 563c dced 4a3e
000002a0: 00a1 6e3c e7a1 97be 37e2 623e 18ed 8839
000002b0: dab4 c0bb e660 85be 4f3b 8abe a265 81be
000002c0: bcfe 49be 96dd 94be 8942 23bc d560 60be
000002d0: 340b 983d 63c7 573e 4c5a 5dbe 244a 413e
000002e0: f463 083d 956f 5dbe 704b 463b cceb 753e
000002f0: 6de7 44bc ed17 683e 4b05 283b 88bf 863e
00000300: 95b8 373e 8b4c 86be 7e7b 8dbe 5807 a1b9
00000310: 7d47 593e 097c 4ebc 2b6b 343e ea70 84be
00000320: cfdf 193e f1b8 9f3c 8673 65be 641f 163e
00000330: 092c 6a3e b8b3 7c3c ea4f 80be b3d5 8ebe
00000340: 4c64 8ebe 25d9 87be 1817 86be a976 84be
00000350: 2bf2 fabb 410a 92be 37d1 71be 5a8c 693e
00000360: 2104 50be bac1 39be 9742 92be cc3f 6bbe
00000370: 3f0b 003e 1035 a0be c5be 0b3e 88cb 4fbe
00000380: 85d2 b4bb 8b51 683e 7f8d 7ebe 8014 413d
00000390: d779 563e f9b1 013e deeb 6dbe 25bd 6cbc
000003a0: 8d41 323e 44e6 333e b5c7 da3c 430d a1bc
000003b0: 7149 603e bc47 a53a 8ff0 253d a806 4fbe
000003c0: dd4f 3cbc 1b6a 7cbe c376 b0be da31 4fbe
000003d0: ccbd 5c3e 3af0 7dbe 7549 6f3e 93a2 8ebe
000003e0: 6d0c 85be a49e 68be eb33 303e 8bb1 3b3e
000003f0: a353 5ebe 1641 263e 74a3 87be 22d5 85be
-0.2545502 -0.010785166 0.19471303 -0.008716511 0.14929533 0.1776623 -0.16754185 0.18287224
0.016824014 0.14623918 -0.2693786 -0.30264038 0.21252501 0.16453858 -0.21495079 0.17113255
0.18070821 -0.25708288 0.014179427 -0.20804888 0.20490314 -0.043552574 0.20787805 0.18120459
-0.1000375 -0.22530746 0.0076397555 -0.015703503 -0.28687513 0.014226673 0.19892389 -0.22626919
0.22498794 -0.32919413 0.23404363 0.20564012 0.18560919 -0.275048 -0.23782203 0.17475358
0.023048365 0.19534056 -0.2672507 0.25390556 -0.01817019 0.19398731 -0.014244173 -0.054232858
-0.28387737 -0.15920931 0.025967456 -0.28858644 -0.012100076 0.03819074 0.08543274 0.018419703
0.23068438 0.22236443 0.21107994 -0.22263783 -0.23226543 -0.2676982 0.2151115 -0.02480637
0.016219739 -0.24031743 -0.23649059 -0.30760917 -0.22642288 -0.30600032 0.22337918 0.10054787
0.20985508 -0.0022558644 0.016647937 -0.18959677 -0.2120389 -0.023778021 0.21402769 -0.051401813
0.1990905 0.21753667 -0.28171813 0.22168212 0.026928283 -0.25058383 -0.43453696 0.048840396
-0.2640038 -0.24191937 -0.25377053 0.21951236 -0.27551427 -0.011221631 -0.28141165 0.18824612
-0.22137606 -0.27240008 -0.2288243 0.18474059 -0.0046347724 0.0065231198 0.017273655 0.237909
-0.2152302 0.020456308 -0.2734 0.05239218 0.16021872 0.016087689 0.2302532 -0.28567836
-0.030944787 -0.042336445 -0.225239 -0.016238777 -0.20106496 0.20975174 0.19602984 0.00824992
-0.23795033 0.00995838 0.029122313 0.052683417 0.1986898 0.01978645 -0.021291718 -0.25055152
-0.2943287 -0.24100554 0.0033705141 -0.2597019 0.22583477 0.24435538 -0.2737127 -0.00539328
-0.007872139 -0.029605815 -0.004728843 -0.29124367 -0.23966426 0.17394967 -0.011181345 -0.2627876
0.21471065 -0.29293206 -0.15092926 -0.2622367 0.17692734 0.15873593 -0.22289045 0.2290801
-0.000956834 -0.24153967 0.004160787 0.007975417 0.16378032 0.26178646 -0.2313956 0.12851994
-0.55702645 0.009799003 0.01645379 -0.01383199 0.058312412 -0.014925987 0.01306797 0.19817299
0.014564753 -0.2961571 0.22156607 0.0002611659 -0.005880934 -0.2605049 -0.26998374 -0.25272852
-0.1972608 -0.29075307 -0.009964594 -0.21911938 0.07424012 0.21072154 -0.21616477 0.18875939
0.033298448 -0.21624596 0.0030257367 0.2401573 -0.012018067 0.22665377 0.002563792 0.26318002
0.17941506 -0.26230273 -0.2763328 -0.00030713785 0.21218677 -0.0126028145 0.17619006 -0.25867397
0.15026782 0.019497367 -0.2240735 0.14660412 0.2286836 0.015423708 -0.2506097 -0.27897415
-0.27810895 -0.26532856 -0.26189494 -0.2587178 -0.007658263 -0.28523448 -0.23614965 0.22807446
-0.20314075 -0.18140307 -0.2856643 -0.22973555 0.1250429 -0.31290483 0.13646992 -0.20292485
-0.00551826 0.22687356 -0.24858664 0.04713869 0.20944916 0.12665547 -0.23234507 -0.014449392
0.17407818 0.17568308 0.026706556 -0.019659644 0.21903016 0.001260988 0.040512618 -0.20217383
-0.01149365 -0.24649851 -0.34465608 -0.2023386 0.21556777 -0.2479867 0.23367865 -0.2785841
-0.25986043 -0.22716767 0.17207305 0.18329446 -0.21711592 0.16235766 -0.26491892 -0.2613917
