models/critic1.pth (torch, 138127 bytes, 5 tensors)

network.0.weight f4 [128, 5]
-0.3048643 0.24772602 0.14134263 0.10149073 -0.46149632 -0.85656726 0.26879898 -0.45910603
0.38152078 0.24343072 -0.001569677 -0.5060524 -0.08248101 -0.081267565 -0.21067284 -0.47631902
-0.4976519 -0.19424532 0.31781402 0.36150303 0.086411536 -0.40601176 0.21505336 -0.57900065
-0.49819362 -0.14248893 -0.49757645 -0.1252869 0.4309578 0.08161664 -0.18812722 -0.34325576
-0.0919701 0.01682074 0.24012254 0.06720273 -0.118212275 -0.12517497 -0.40077868 -0.16799867
-0.40691465 -0.3135734 -0.20326623 0.37161204 -0.052619066 -0.071706556 -0.2724668 0.50677764
-0.32619438 -0.24519889 0.0041549294 -0.15029559 -0.59062004 -0.45587862 -0.36391997 -0.029094871
-0.32464355 0.27545246 -0.28410318 -0.1642179 -0.06895714 -0.22112484 0.19216904 0.27599633
-0.31242767 -0.3469837 -0.060610913 0.08942661 -0.53888494 -0.047766916 -0.0060693827 -0.033626992
0.27789128 0.19993286 -0.35655233 0.13458587 0.51255524 0.47474906 0.05195135 -0.25082305
0.06137075 -0.0042898864 -0.42431626 -0.29485267 -0.7564201 0.19819623 -0.016687257 -0.51567656
-0.40676552 0.23469898 0.09298328 0.17177644 0.037952185 -0.009992534 0.3298098 0.27196932
0.2971674 0.285141 0.17493036 0.11018133 -0.10141455 0.37871444 0.46546134 -0.07393994
0.3923038 -0.11095311 0.049261846 -0.24539934 0.25442904 0.18846536 -0.20035575 0.037233923
-0.560491 0.25579503 0.2696152 -0.49969232 0.24420437 -0.09636502 -0.40480447 -0.08302364
-0.1498254 0.31829652 0.087429 0.07058566 0.017638393 0.019807568 -0.01605728 -0.5779393
-0.6379936 -0.06690404 -0.36446002 -0.28514197 0.36540645 -0.36198646 0.010451394 -0.01930775
0.044893213 -0.017375289 0.17909487 -0.19696143 0.40322194 0.42672288 0.41385108 0.073377065
0.3543581 -0.3394711 0.1869383 -0.37357667 -0.63202614 -0.7540701 -0.07119309 0.32359836
0.45957154 0.2955667 0.14234291 0.013339528 0.09585438 -0.2536193 -0.5571149 0.187309
-0.25229773 0.39282104 -0.07531116 -0.37868398 -0.3240566 -0.03833587 -0.12956424 0.25893584
-0.4848777 -0.3362128 -0.40910992 0.032657847 0.05780522 -0.5380478 0.11795784 0.014828712
-0.46139017 -0.11055729 -0.3469331 0.019699974 0.009853345 0.17320688 -0.32935447 -0.39217383
-0.20982498 -0.35755372 -0.12464256 -0.08318476 -0.45798755 -0.092549846 -0.07575749 -0.38536194
0.35098806 -0.04892108 -0.13944088 -0.05497087 -0.31835994 -0.026353994 0.1675072 -0.25590247
0.14747119 -0.44141516 -0.2559108 -0.32599014 -0.2943014 -0.10961707 -0.41743734 0.14569762
0.030671682 0.19326203 -0.16925141 0.46949607 0.5053133 0.21239316 0.31300643 -0.21175662
-0.32750106 -0.3936769 0.19484137 0.17773913 0.12388067 -0.00070995564 -0.50346804 -0.4422187
-0.55662054 0.060091864 -0.19182786 -0.10926765 -0.40227306 -0.09800087 -0.35381848 -0.3645835
0.00014108233 0.16709247 -0.34158158 0.036493685 -0.15347368 -0.47979057 -0.6286461 -0.14753419
-0.0047937254 0.17986998 0.23524454 -0.31584713 0.32620877 -0.060111526 -0.025412546 -0.023744125
-0.23078844 0.08902749 -0.0022002577 0.015865138 0.037007574 0.09827184 -0.105036885 -0.18552873
00000000: 2c17 9cbe e4ab 7d3e 1fbc 103e 5fda cf3d
00000010: 3f49 ecbe fe47 5bbf 05a0 893e f20f ebbe
00000020: b156 c33e e745 793e 9fbd cdba a68c 01bf
00000030: ceeb a8bd 9c6f a6bd 9fba 57be 16e0 f3be
00000040: 3bcc febe 3fe8 46be 85b8 a23e ed16 b93e
00000050: 88f8 b03d c6e0 cfbe f336 5c3e 6339 14bf
00000060: 3c13 ffbe 9ee8 11be 57c2 febe 364b 00be
00000070: 80a6 dc3e a026 a73d 6ca4 40be 38bf afbe
00000080: d25a bcbd a6cb 893c afe2 753e 96a1 893d
00000090: 4719 f2bd de2d 00be dd32 cdbe d807 2cbe
000000a0: 1e57 d0be b18c a0be 0625 50be ef43 be3e
000000b0: 1787 57bd e3da 92bd c580 8bbe 2ebc 013f
000000c0: f302 a7be 6b15 7bbe 1326 883b 16e7 19be
000000d0: e032 17bf ec68 e9be b853 babe 5e58 eebc
000000e0: ae37 a6be 1b08 8d3e f975 91be bd28 28be
000000f0: 6739 8dbd 8d6e 62be f6c7 443e 644f 8d3e
00000100: 85f6 9fbe d9a7 b1be 2643 78bd 4c25 b73d
00000110: 5df4 09bf 3ea7 43bd ace1 c6bb 75bc 09bd
00000120: c447 8e3e 33bb 4c3e 078e b6be e1d0 093e
00000130: d236 033f 4f12 f33e f0ca 543d e16b 80be
00000140: e55f 7b3d 2d92 8cbb fb3f d9be eef6 96be
00000150: bfa4 41bf f4f3 4a3e b7b3 88bc 6103 04bf
00000160: 9243 d0be ee54 703e 056e be3d 2ae6 2f3e
00000170: c073 1b3d bab7 23bc d5dc a83e 903f 8b3e
00000180: 5326 983e 00fe 913e f220 333e c0a6 e13d
00000190: 6eb2 cfbd dce6 c13e f350 ee3e d36d 97bd
000001a0: 0bdc c83e 623b e3bd cac6 493d f749 7bbe
000001b0: 8644 823e 10fd 403e 0f2a 4dbe 9982 183d
000001c0: 577c 0fbf 91f7 823e 010b 8a3e acd7 ffbe
000001d0: b610 7a3e 065b c5bd 8842 cfbe 4c08 aabd
000001e0: d46b 19be c3f7 a23e fa0d b33d 378f 903d
000001f0: 647e 903c 7b43 a23c 8f8a 83bc d4f3 13bf
00000200: 8c53 23bf fc04 89bd 819a babe 21fe 91be
00000210: 8e16 bb3e 4a56 b9be 533c 2b3c 492b 9ebc
00000220: f2e1 373d 9f56 8ebc a564 373e 42b0 49be
00000230: 1b73 ce3e 6c7b da3e 4ae4 d33e b746 963d
00000240: 6d6e b53e 28cf adbe c16c 3f3e 7145 bfbe
00000250: 77cc 21bf bd0a 41bf afcd 91bd afae a53e
00000260: f64c eb3e 8554 973e 57c2 113e 098e 5a3c
00000270: 4d4f c43d 64da 81be 159f 0ebf eecd 3f3e
00000280: 2b2d 81be d71f c93e bd3c 9abd dee2 c1be
00000290: bfea a5be 1306 1dbd 7dac 04be 3d93 843e
000002a0: e441 f8be 1624 acbe db76 d1be 3cc4 053d
000002b0: 2bc5 6c3d 80bd 09bf e193 f13d 20f4 723c
000002c0: 553b ecbe dc6b e2bd 37a1 b1be d761 a13c
000002d0: ed6f 213c 255d 313e 26a1 a8be 02cb c8be
000002e0: 5cdc 56be 4811 b7be 9944 ffbd c55c aabd
000002f0: 587d eabe c68a bdbd be26 9bbd 294e c5be
00000300: b5b4 b33e 7861 48bd 97c9 0ebe 2329 61bd
00000310: 1300 a3be 55e4 d7bc 0287 2b3e a605 83be
00000320: b002 173e 2b01 e2be be06 83be 2ee8 a6be
00000330: acae 96be ea7e e0bd 59ba d5be c231 153e
00000340: 2e43 fb3c 7be6 453e 3e50 2dbe ca61 f03e
00000350: 365c 013f 987d 593e 6142 a03e bad6 58be
00000360: 38ae a7be 0590 c9be 7f84 473e 3f01 363e
00000370: 26b5 fd3d 511c 3aba 48e3 00bf 7d6a e2be
00000380: af7e 0ebf e322 763d 866e 44be b8c7 dfbd
00000390: bcf6 cdbe aeb4 c8bd b227 b5be b0aa babe
000003a0: 80ef 1339 4a1a 2b3e c8e3 aebe 677a 153d
000003b0: 3428 1dbe 1ca7 f5be f3ee 20bf 3413 17be
000003c0: af14 9dbb d62f 383e f2e3 703e b7b6 a1be
000003d0: d604 a73e 8137 76bd f92d d0bc 0a83 c2bc
000003e0: ce53 6cbe 0b54 b63d 3332 10bb 9bf7 813c
000003f0: 4195 173d bf42 c93d 941d d7bd 3efb 3dbe

network.0.bias f4 [128]
-0.3229217 -0.520181 0.020632183 -0.06828124 -0.20606904 0.113559216 -0.41229972 -0.3678054
-0.40905955 0.797481 -0.050433688 -0.3763504 -0.21269031 -0.06831411 0.6129901 0.47989762
0.14052881 -0.27247405 0.6866006 0.7701829 0.80690587 0.7234643 -0.026659036 -0.15876688
0.4681193 -0.2808415 -0.17013858 -0.5326715 0.565601 0.31712624 0.41492105 -0.20486298
-0.24936199 -0.2263479 -0.21030107 -0.4276793 -0.4842933 0.14785108 -0.43481562 -0.27424702
-0.39219314 -0.20462383 0.25785828 0.22340669 -0.37922528 -0.2342348 0.3328106 -0.31703898
0.38189885 -0.08591129 -0.14973593 0.7509093 -0.37360254 -0.08521426 -0.37346485 0.1257374
0.3789105 -0.06069582 -0.056546926 -0.3098146 -0.3477569 0.2314422 -0.379123 0.59151864
-0.27411574 0.47358832 0.095405385 -0.09044696 -0.51090324 0.4035103 -0.35874692 0.04171409
-0.46985474 -0.32727167 0.056550346 -0.38763645 -0.33226085 -0.5200208 -0.50400937 0.38001892
-0.19978906 -0.13934614 -0.26180425 0.5833618 -0.19936886 -0.002375124 0.15280284 -0.17749244
0.3896858 -0.062484637 -0.0187979 0.19178724 0.74351454 -0.11626553 0.015603894 0.09321934
0.43804544 -0.0046752584 -0.39880484 -0.2117535 0.18954961 0.6706308 -0.3487149 0.27219623
0.53811324 0.09059878 0.08024998 -0.039729312 0.11889767 0.031645957 -0.40059495 0.31189844
-0.27980545 0.07397973 -0.191817 0.5580942 -0.30315462 -0.47143233 0.27022824 -0.33791667
-0.17476602 -0.0017571128 -0.19815338 -0.3579493 -0.1952209 -0.22286204 0.17211644 -0.012610983
00000000: fe55 a5be 952a 05bf d304 a93c 09d7 8bbd
00000010: c303 53be bc91 e83d f318 d3be fd50 bcbe
00000020: 4170 d1be b727 4c3f 8e93 4ebd 00b1 c0be
00000030: 7dcb 59be 45e8 8bbd ebec 1c3f 24b5 f53e
00000040: c9e6 0f3e b881 8bbe 0fc5 2f3f b52a 453f
00000050: 6291 4e3f f534 393f 0d64 dabc c993 22be
00000060: 55ad ef3e 75ca 8fbe cf38 2ebe 295d 08bf
00000070: 3acb 103f 5f5e a23e 8870 d43e 9ac7 51be
00000080: c058 7fbe bec7 67be 2a59 57be c8f8 dabe
00000090: 4bf5 f7be 4666 173e 27a0 debe 1b6a 8cbe
000000a0: 8acd c8be e988 51be 0006 843e b9c4 643e
000000b0: d129 c2be 3fdb 6fbe 2766 aa3e ef52 a2be
000000c0: 3f88 c33e 42f2 afbd 6054 19be 983b 403f
000000d0: d548 bfbe d084 aebd c936 bfbe 4ec1 003e
000000e0: 8f00 c23e 2e9c 78bd c09d 67bd 05a0 9ebe
000000f0: 310d b2be 2fff 6c3e 691c c2be c46d 173f
00000100: e658 8cbe 2b7a f23e e663 c33d 413c b9bd
00000110: 8eca 02bf e798 ce3e adad b7be 65dc 2a3d
00000120: cd90 f0be 2790 a7be 56a1 673d 4978 c6be
00000130: 181e aabe 1520 05bf c206 01bf d791 c23e
00000140: 8195 4cbe c1b0 0ebe 350b 86be 3357 153f
00000150: 5a27 4cbe f8a7 1bbb 5978 1c3e 94c0 35be
00000160: e684 c73e e4ef 7fbd 0efe 99bc e063 443e
00000170: f856 3e3f 9f1c eebd 7aa7 7f3c c8e9 be3d
00000180: 7e47 e03e e932 99bb 2630 ccbe e9d5 58be
00000190: 4b19 423e 76ae 2b3f c28a b2be 4e5d 8b3e
000001a0: cac1 093f da8b b93d 1a5a a43d 34bb 22bd
000001b0: 9f80 f33d 319f 013d c81a cdbe 27b1 9f3e
000001c0: a942 8fbe af82 973d ad6b 44be 43df 0e3f
000001d0: 1537 9bbe 945f f1be 5b5b 8a3e 6a03 adbe
000001e0: ddf5 32be ec4e e6ba b8e8 4abe 2145 b7be
000001f0: fde7 47be f235 64be 4b3f 303e 4c9e 4ebc

network.2.weight f4 [256, 128]
0.0033184262 -0.04070104 -0.08146707 -0.098524936 -0.0037211697 -0.021039318 -0.080755435 -0.06764399
0.075828955 0.006653127 -0.044812277 0.0074200686 -0.00861038 0.015554694 0.028688788 -0.07464446
-0.019523015 0.023077192 -0.09690238 -0.051056057 -0.057818484 0.0056354627 -0.02521366 -0.067585334
0.049152754 -0.041758128 -0.013957656 -0.013815798 -0.0781058 0.012166974 0.016571144 0.04824275
-0.07303967 -0.082790576 0.009855587 0.052875202 0.07914232 -0.048907354 -0.06444263 -0.07038682
-0.02291813 0.021010837 0.016234716 -0.016436659 0.02871769 -0.046449114 0.0045669544 -0.056478143
0.019432802 -0.0837568 -0.049367446 -0.023623552 -0.0654184 -0.04387076 0.023160027 -0.04834988
-0.0642248 -0.04941854 0.02319162 -0.07399065 -0.06748736 0.0037707007 0.04763578 -0.0052163065
-0.042570047 -0.06485254 -0.021611003 -0.022296062 -0.07266346 -0.09778785 -0.10870393 -0.06144202
-0.04617678 0.054583784 0.002969906 -0.044187482 0.04044398 0.0071144197 -0.007314754 -0.013478043
-0.08651581 -0.029808015 -0.009727691 -0.09795066 -0.09933438 0.06354668 -0.0068410654 -0.026181422
-0.10761472 0.05252048 -0.077075355 0.0025607687 -0.03915196 0.02844984 0.057575237 -0.0614429
0.07238098 -0.0518722 0.051546924 -0.02844056 0.062275 0.03608195 -0.066878736 -0.016257476
0.0060803085 -0.014201507 -0.05835284 0.03693184 0.05937691 0.058222193 -0.10015117 0.0019888491
-0.059877522 0.08008069 -0.065726124 -0.07431388 0.07247687 -0.07245674 0.015962793 0.01620817
0.05732261 0.045796964 -0.033999976 -0.015390964 -0.0861723 0.034602866 0.058039613 -0.026837183
-0.045236476 -0.07272798 0.04727648 0.030205697 -0.0128138745 0.052870914 -0.080372155 0.021108385
-0.005285868 0.020664673 0.018318221 -0.0850061 -0.06264209 0.03699187 -0.01783778 0.08041245
-0.060245242 -0.012324803 0.023838373 -0.011048722 -0.055137824 -0.0057553416 -0.04342159 -0.0014736856
0.01134022 -0.08128719 0.0007268119 0.026475543 -0.018699165 0.0843571 0.013043448 0.035866555
-0.03846634 -0.06971964 0.03940552 0.049084716 -0.07986154 -0.047475126 -0.08772371 -0.0849827
0.028810773 0.0332053 -0.06128395 -0.057768177 -0.020047918 -0.06479615 0.025504649 -0.071386784
-0.033409532 -0.06855601 -0.057417452 0.02876317 0.023231069 0.064031884 -0.0068332683 0.08450197
0.06063433 0.045232482 -0.035568442 -0.08410927 0.063596316 0.08037801 -0.04441397 -0.024855945
-0.032746803 -0.045779992 0.04777462 -0.024601642 -0.05870097 0.0033795976 -0.03422535 -0.014716425
0.041098256 0.03767534 -0.003823446 0.02635888 0.028035609 0.016072636 -0.0010389725 0.025910048
-0.010252157 0.01241269 0.015068141 -0.08524186 -0.046383407 0.022494774 -0.044415697 0.023103459
-0.082303524 -0.03676203 0.012591887 0.014989664 -0.006259418 0.028491048 -0.059167843 -0.050820902
-0.0815895 0.08740754 0.017917637 0.0131775495 -0.04790439 -0.05712956 -0.01117137 -0.038504623
0.005392742 -0.07039527 0.03679601 -0.028284622 -0.07170522 -0.003034299 0.010312775 -0.021163544
0.018396435 -0.037286904 0.06891467 -0.017578017 0.035847686 -0.0740948 -0.009954274 -0.03452653
-0.015550743 -0.016781736 -0.04947393 -0.021873634 0.043024663 -0.04430209 -0.032732643 -0.081998385
00000000: f479 593b 22b6 26bd 35d8 a6bd 71c7 c9bd
00000010: dede 73bb a65a acbc 1b63 a5bd ef88 8abd
00000020: 364c 9b3d 7902 da3b 148d 37bd 0c24 f33b
00000030: 8d12 0dbc 1ed9 7e3c c004 eb3c 32df 98bd
00000040: bbee 9fbc 610c bd3c c174 c6bd 2820 51bd
00000050: 13d3 6cbd b0a9 b83b e18c cebc 2e6a 8abd
00000060: 6654 493d 920a 2bbd a7ae 64bc a85b 62bc
00000070: eff5 9fbd fd57 473c 35c0 873c 319a 453d
00000080: d395 95bd 1b8e a9bd 5479 213c ab93 583d
00000090: 5e15 a23d 1453 48bd 7ffa 83bd f726 90bd
000000a0: cdbe bbbc eb1e ac3c abfe 843c 2ca6 86bc
000000b0: 5c41 eb3c 6d41 3ebd 64a6 953b a055 67bd
000000c0: 8a31 9f3c af88 abbd 8535 4abd 2e86 c1bc
000000d0: 15fa 85bd d3b1 33bd 19ba bd3c 860a 46bd
000000e0: 4b88 83bd 186b 4abd 5afc bd3c 6988 97bd
000000f0: d036 8abd dc1d 773b bc1d 433d 8ded aabb
00000100: ee5d 2ebd 69d1 84bd 8f09 b1bc 3ba6 b6bc
00000110: 95d0 94bd ff44 c8bd 2ba0 debd a1aa 7bbd
00000120: dd23 3dbd 3f93 5f3d c1a2 423b effd 34bd
00000130: 96a8 253d 1420 e93b 9bb0 efbb 02d3 5cbc
00000140: 332f b1bd f02f f4bc e560 1fbc 5b9a c8bd
00000150: d36f cbbd c324 823d 042b e0bb 6c7a d6bc
00000160: 1b65 dcbd b71f 573d afd9 9dbd 92d2 273b
00000170: ce5d 20bd a40f e93c 03d4 6b3d 8dab 7bbd
00000180: 7b3c 943d f277 54bd de22 533d 2dfc e8bc
00000190: 1214 7f3d abca 133d b8f7 88bd 662e 85bc
000001a0: 533d c73b 70ad 68bc 6303 6fbd d745 173d
000001b0: 3435 733d 657a 6e3d 0e1c cdbd 5a57 023b
000001c0: 2242 75bd 5801 a43d 6b9b 86bd e031 98bd
000001d0: c16e 943d 3364 94bd 67c4 823c ffc6 843c
000001e0: 1dcb 6a3d 9995 3b3d 8f43 0bbd 622a 7cbc
000001f0: 1a7b b0bd bcbb 0d3d f2ba 6d3d a7d9 dbbc
00000200: e249 39bd 68f2 94bd fba4 413d f071 f73c
00000210: 49f1 51bc 2c8f 583d 289a a4bd 7eeb ac3c
00000220: 1335 adbb f648 a93c 1810 963c ae17 aebd
00000230: 7f4a 80bd c984 173d 8920 92bc 48af a43d
00000240: b7c3 76bd f8ed 49bc b148 c33c b305 35bc
00000250: 33d8 61bd 4e97 bcbb d6da 31bd af28 c1ba
00000260: 55cc 393c e679 a6bd 8587 3e3a 3de3 d83c
00000270: fe2e 99bc 6ac3 ac3d 30b4 553c cfe8 123d
00000280: e28e 1dbd 2cc9 8ebd af67 213d 0e0d 493d
00000290: 728e a3bd 4775 42bd 7da8 b3bd 690b aebd
000002a0: 9204 ec3c 4802 083d e104 7bbd 539e 6cbd
000002b0: 883b a4bc d8b3 84bd 20ef d03c 3c33 92bd
000002c0: 6fd8 08bd 1867 8cbd 902e 6bbd bda0 eb3c
000002d0: 154f be3c 2623 833d 9ce9 dfbb 5e0f ad3d
000002e0: b45b 783d b245 393d 37b0 11bd 7b41 acbd
000002f0: c93e 823d 3a9d a43d 6ceb 35bd b29e cbbc
00000300: 8321 06bd cd83 3bbd 52af 433d 6289 c9bc
00000310: 6e70 70bd 3d7c 5d3b e12f 0cbd 291d 71bc
00000320: a556 283d 7551 1a3d c892 7abb 94ee d73c
00000330: efaa e53c c3aa 833c 222e 88ba 4f41 d43c
00000340: aaf8 27bc 985e 4b3c 5de0 763c 4993 aebd
00000350: 87fc 3dbd f646 b83c 3ced 35bd 7743 bd3c
00000360: c08e a8bd c893 16bd 344e 4e3c 3597 753c
00000370: ce1b cdbb 0f66 e93c fb59 72bd 9429 50bd
00000380: 6518 a7bd b902 b33d 02c8 923c a6e6 573c
00000390: 6537 44bd af00 6abd 1f08 37bc 06b7 1dbd
000003a0: 99b5 b03b 652b 90bd 6ab7 163d 27b5 e7bc
000003b0: 30da 92bd 17db 46bb eaf6 283c 2b5f adbc
000003c0: 1fb4 963c 27ba 18bd 2223 8d3d c6ff 8fbc
000003d0: 06d5 123d 04bf 97bd 4017 23bc b16b 0dbd
000003e0: 8bc8 7ebc da79 89bc 2da5 4abd 5630 b3bc
000003f0: a13a 303d 1c76 35bd aa12 06bd c5ee a7bd

network.2.bias f4 [256]
0.05908459 0.0372921 -0.08681094 -0.06792441 0.046055004 -0.039303787 -0.06524251 0.68684113
-0.051011276 0.7430592 -0.077659555 -0.013452237 -0.10586363 -0.013236307 -0.08303073 0.6493044
-0.11246806 -0.02753922 -0.0456682 0.72988075 0.11386727 0.016377542 -0.05776981 0.2672508
0.040827 0.014492008 0.02605297 0.7309064 -0.04116772 0.3914335 0.23301291 -0.08412691
0.7289853 0.013760293 0.25568917 -0.045711532 -0.046868883 0.31209716 0.20754084 0.029401377
0.78210294 0.056893844 -0.08943013 -0.10050855 -0.0031204326 -0.018903868 0.75956714 0.6637754
0.043334894 -0.09667565 0.6157109 0.050497614 0.057233136 0.060657658 0.05587371 0.028722102
0.21866907 -0.019340804 -0.004998003 0.7298034 0.051766872 0.017022947 0.21607785 0.02027808
-0.04291564 0.64287406 -0.013613954 -0.08318568 -0.08123718 -0.020023989 0.0876338 -0.058736455
0.20589316 0.75399554 0.53130466 -0.10249519 -0.0066401064 -0.029995002 0.02824705 0.024446277
-0.14136808 0.030521216 -0.020310096 0.020489994 0.26118132 0.6216768 -0.04860622 -0.014701614
0.06308984 0.18485929 0.6345948 0.036357127 0.08153434 0.051786624 0.6544861 0.7621726
0.017359441 -0.01114566 -0.065786205 0.29619482 0.098822765 0.73777145 -0.044922795 -0.06972348
0.7968809 0.58703256 0.53829813 -0.10036103 0.43215474 0.06438711 0.13867457 0.007497869
0.021870552 -0.011150119 0.024914036 0.0038633558 0.0074052378 0.027760372 0.0638132 -0.05540796
-0.09112635 0.07831 0.46897516 -0.055925697 0.00019576888 0.62329066 -0.030363208 -0.0054982565
0.24311748 0.03400703 0.022891471 -0.04854148 0.03806605 -0.048254054 -0.08019126 0.0813316
0.040379286 -0.088561654 0.6792938 0.6325551 -0.1060401 0.6079465 -0.048926227 0.0062032007
-0.03995769 0.23042437 -0.039995264 -0.07056692 -0.0750788 0.31928983 -0.034899246 0.01232771
0.07387535 0.24842347 0.15552078 0.67219687 0.6498479 0.07915634 0.21015178 -0.079518676
-0.07126011 0.66670287 -0.04316708 0.79560745 0.019050702 -0.063992985 0.043367155 0.18755558
-0.047374077 0.7626455 -0.013339969 0.19416198 0.0017872367 0.7087278 -0.021781133 0.0031836359
0.4533751 0.037572324 0.04809093 0.6854263 -0.04165902 -0.05539839 0.69894385 -0.046344105
0.67502594 0.43975008 -0.026466504 -0.0068809367 0.61041677 -0.0854937 -0.07535325 0.6047826
0.023133984 -0.036880046 -0.088016406 0.10742548 -0.034984514 0.041739725 0.08430776 0.006649353
0.17999525 0.6987316 0.4202979 -0.062641636 0.011590668 0.62134534 0.06326379 0.07762599
-0.0749655 0.65232456 -0.10724141 -0.07458313 0.7565261 0.030646209 0.007146704 -0.06944455
-0.0074002277 -0.010623561 -0.028217517 0.05916785 -0.022054166 -0.07803376 0.6651514 -0.056610666
0.047392346 0.0072796564 0.045620702 0.5091877 0.007098768 0.32582778 0.762462 0.7431331
-0.07598673 -0.07847581 -0.09634849 0.5925772 -0.018837156 0.8172635 0.68833846 -0.038955264
-0.06721939 0.7158774 -0.03912496 -0.01404083 0.031437032 -0.09917602 0.02753253 -0.00014799168
-0.09483491 -0.06577148 -0.09119192 0.026436403 0.035678852 0.66836107 0.7038097 0.11026707
00000000: af02 723d 9abf 183d efc9 b1bd f41b 8bbd
00000010: 2ca4 3c3d 02fd 20bd dd9d 85bd d2d4 2f3f
00000020: 33f1 50bd 2139 3e3f f90b 9fbd c566 5cbc
00000030: 08cf d8bd 18dd 58bc 040c aabd d038 263f
00000040: a755 e6bd ee99 e1bc 940e 3bbd 77d9 3a3f
00000050: 3e33 e93d 322a 863c 09a0 6cbd 19d5 883e
00000060: 363a 273d e36f 6d3c 0a6d d53c af1c 3b3f
00000070: 7c9f 28bd f969 c83e f09a 6e3e bb4a acbd
00000080: c89e 3a3f da72 613c b1e9 823e 043c 3bbd
00000090: 96f9 3fbd 33cb 9f3e 9685 543e 28db f03c
000000a0: e637 483f 8509 693d 2527 b7bd 6dd7 cdbd
000000b0: 2c80 4cbb 49dc 9abc fe72 423f 2fed 293f
000000c0: ee7f 313d e2fd c5bd 3b9f 1d3f 96d6 4e3d
000000d0: 4b6d 6a3d 2a74 783d d5db 643d 9d4a eb3c
000000e0: c9ea 5f3e 9b70 9ebc 4ac6 a3bb 65d4 3a3f
000000f0: 8009 543d b573 8b3c 8343 5d3e 371e a63c
00000100: 4fc8 2fbd 6593 243f 100d 5fbc 415d aabd
00000110: ae5f a6bd 5909 a4bc 5a79 b33d a395 70bd
00000120: a8d5 523e da05 413f 9503 083f 00e9 d1bd
00000130: 4095 d9bb 14b8 f5bc 5b66 e73c 8f43 c83c
00000140: cbc2 10be a107 fa3c 5c61 a6bc a2da a73c
00000150: 8fb9 853e 3626 1f3f 5117 47bd 0adf 70bc
00000160: 3f35 813d c14b 3d3e ce74 223f 36eb 143d
00000170: 7afb a63d 361e 543d 678c 273f be1d 433f
00000180: 6335 8e3c 499c 36bc ebba 86bd d9a6 973e
00000190: 9763 ca3d 97de 3c3f f700 38bd 2fcb 8ebd
000001a0: 6300 4c3f c447 163f e8cd 093f 158a cdbd
000001b0: 6343 dd3e 64dd 833d b500 0e3e afb0 f53b
000001c0: df29 b33c fdae 36bc 8518 cc3c 5b30 7d3b
000001d0: a3a7 f23b b869 e33c 7fb0 823d 75f3 62bd
000001e0: 74a0 babd fe60 a03d 831d f03e 5812 65bd
000001f0: 4f47 4d39 fa8f 1f3f 43bc f8bc b82a b4bb
00000200: caf3 783e f54a 0b3d e586 bb3c 6ed3 46bd
00000210: 25eb 1b3d 0ba6 45bd 513b a4bd 2f91 a63d
00000220: c064 253d d05f b5bd 33e6 2d3f 22ef 213f
00000230: 8d2b d9bd 62a2 1b3f de66 48bd 3844 cb3b
00000240: adaa 23bd 5ef4 6b3e 13d2 23bd 6485 90bd
00000250: eac2 99bd f579 a33e 83f2 0ebd 2afa 493c
00000260: f64b 973d b962 7e3e d740 1f3e 1815 2c3f
00000270: 6f5c 263f b81c a23d 0732 573e b0da a2bd
00000280: d2f0 91bd 0aad 2a3f f7cf 30bd eeac 4b3f
00000290: 3810 9c3c c10e 83bd c2a1 313d 920e 403e
000002a0: 520b 42bd bc3c 433f e38f 5abc 66d2 463e
000002b0: b641 ea3a 2f6f 353f 596e b2bc 8ca4 503b
000002c0: c820 e83e 70e5 193d fffa 443d 1978 2f3f
000002d0: a6a2 2abd 6ce9 62bd fced 323f 51d3 3dbd
000002e0: 80ce 2c3f ec26 e13e 48d0 d8bc 7b79 e1bb
000002f0: 4644 1c3f 5217 afbd ce52 9abd 08d3 1a3f
00000300: 7b83 bd3c 880f 17bd f241 b4bd e401 dc3d
00000310: ec4b 0fbd 46f7 2a3d 8ca9 ac3d d1e2 d93b
00000320: ad50 383e 13e0 323f 4931 d73e 424a 80bd
00000330: c9e6 3d3c 7d10 1f3f 7290 813d 60fa 9e3d
00000340: 8387 99bd befe 263f 62a1 dbbd 0abf 98bd
00000350: b2ab 413f c20d fb3c e62e ea3b f238 8ebd
00000360: 9c7d f2bb 720e 2ebc 6c28 e7bc fd59 723d
00000370: f0aa b4bc 2ad0 9fbd 5d47 2a3f 96e0 67bd
00000380: 7a1e 423d 2f8a ee3b c6dc 3a3d 205a 023f
00000390: c89c e83b e6d2 a63e b630 433f f93d 3e3f
000003a0: ee9e 9bbd edb7 a0bd 5b52 c5bd 24b3 173f
000003b0: 6150 9abc 2e38 513f f336 303f 8e8f 1fbd
000003c0: 52aa 89bd be43 373f 7e41 20bd 820b 66bc
000003d0: 1ec4 003d cc1c cbbd e68b e13c 372e 1bb9
000003e0: ce38 c2bd 33b3 86bd d4c2 babd 2891 d83c
000003f0: fd23 123d b619 2b3f df2c 343f b4d3 e13d

network.4.weight f4 [1, 256]
-0.0007275938 -0.025073156 -0.0064241826 -0.017104775 -0.023857282 -0.030345185 -0.0052956715 0.25138304
-0.025787527 0.2865161 0.032591134 0.033718143 0.0033802819 -0.0044063637 0.05658178 0.32610628
0.01205785 -0.016150605 0.018835662 0.3061552 0.009066732 0.0010645872 0.03032507 0.0013395068
-0.0073366025 -0.034466576 0.0012297241 0.31279778 -0.0120217 -0.01874933 -0.02258321 -0.032406427
0.2736329 -0.029790595 0.022506816 -0.04195466 -0.01970761 0.020731753 -0.03466615 0.033602446
0.31244346 0.00469557 0.008854105 -0.003425725 0.023195405 -0.017232735 0.3113862 0.2813869
0.015978001 -0.026249493 0.21434663 -0.011863708 -0.0033070594 -0.021043457 0.019264363 -0.024677265
0.010116488 -0.022804262 0.001925578 0.30528942 0.007190911 0.007910802 0.018971259 -0.036957476
-0.022974819 0.26102287 0.0015372406 -0.012728154 0.0011701286 0.0020996034 -0.010048553 0.043655332
-0.024780147 0.30462047 0.19454694 -0.005649513 -0.03716132 0.027467836 0.002991378 -0.01075726
0.03705485 0.019449832 -0.0119558275 -0.0009486149 0.019112743 0.20751046 -0.02077351 0.02882132
-0.019938426 0.011030672 0.27773774 -0.03350298 0.046397984 -0.026412321 0.329173 0.3252249
-0.00027472374 -0.056462646 -0.006618957 -0.017058793 0.0012100037 0.28596365 0.014240674 0.042947836
0.34628478 0.19487208 0.21706173 0.03731743 -0.0045681093 0.0036863429 -0.022969844 0.02629746
0.004147812 0.02012293 -0.036865693 0.016044527 0.020883707 0.028239742 0.0140260905 -0.010807876
-0.0015253166 0.02792388 0.1475262 -0.024545193 0.02252012 0.29544786 0.015678655 0.032448955
0.0068410537 -0.03410738 0.01785563 -0.02053246 -0.022048889 -0.01347427 -0.053002737 0.00736019
0.00015453098 0.008271062 0.30600828 0.24476738 0.010602232 0.23959582 -0.020553077 0.008925615
-0.0029342338 0.0062307976 -0.0364915 -0.0019889786 -0.0201315 0.023239069 0.011596054 0.01135701
-0.058082446 0.0220388 0.019585026 0.30877423 0.19113582 -0.028665481 -0.023848003 -0.037939064
0.03468062 0.2922916 -0.011183279 0.31939605 -0.0054051853 -0.016675444 -0.008528613 -0.0106378365
-0.0021128997 0.29748067 0.023873713 -0.017735397 -0.011280038 0.26156157 -0.0323672 0.009913281
0.09797234 0.013704921 -0.0023126253 0.2562671 0.0007964217 0.0042683524 0.31046456 -0.043371364
0.26397026 0.10863704 0.062191322 -0.05164043 0.27908537 0.0018788881 0.04138709 0.23247579
0.062499054 0.0151262665 -0.036263425 -0.026335005 -0.029526625 -0.006353901 0.021258144 -0.010181778
0.013824013 0.23169513 0.28868425 -0.02291701 0.03271519 0.18862519 0.010383505 -0.005809191
0.0070868763 0.2580677 -0.017345909 0.03817366 0.30071178 0.0002787545 -0.04442943 -0.019574195
0.031594314 0.018115865 0.036916707 -0.03174518 0.00481801 -0.038628824 0.24670912 -0.035567544
-0.018181864 0.06053427 -0.0059153936 0.1923484 -0.01687812 -0.02218023 0.3081029 0.27113587
0.03659427 0.04479474 -0.027951658 0.22021423 -0.06847472 0.33773044 0.3358263 0.0047397306
-0.0221706 0.28508162 0.004637408 0.029390285 0.009205569 -0.026773265 0.022922188 0.01889827
-0.025528055 0.02139307 -0.0019805757 -0.03335439 -0.03495385 0.23495093 0.2668555 0.022612277
00000000: febb 3eba 3866 cdbc f381 d2bb 501f 8cbc
00000010: 5970 c3bc 7796 f8bc 5087 adbb 47b5 803e
00000020: 5d40 d3bc 3db2 923e 487e 053d 091c 0a3d
00000030: b887 5d3b 4263 90bb 4cc2 673d 67f7 a63e
00000040: 4a8e 453c 464e 84bc 3f4d 9a3c 60c0 9c3e
00000050: a18c 143c 9e89 8b3a 486c f83c 6492 af3a
00000060: e267 f0bb d32c 0dbd b22e a13a 0827 a03e
00000070: aaf6 44bc 3298 99bc 6d00 b9bc 9abc 04bd
00000080: 9d19 8c3e 680b f4bc 3760 b83c a6d8 2bbd
00000090: db71 a1bc a3d5 a93c 18fe 0dbd b8a2 093d
000000a0: 97f8 9f3e 4cdd 993b cf10 113c 2182 60bb
000000b0: 4a04 be3c aa2b 8dbc 036e 9f3e f211 903e
000000c0: 4ce4 823c 2d09 d7bc af7d 5b3e ff5f 42bc
000000d0: 40bb 58bb 5463 acbc 4cd0 9d3c fa27 cabc
000000e0: a0bf 253c 01d0 babc ad63 fc3a e54e 9c3e
000000f0: bca1 eb3b 4f9c 013c 9d69 9b3c b960 17bd
00000100: b035 bcbc caa4 853e 3c7d c93a bf89 50bc
00000110: 005f 993a 8099 093b b0a2 24bc efcf 323d
00000120: bcff cabc 37f7 9b3e 5037 473e 8d1f b9bb
00000130: 7836 18bd 3a04 e13c ff0a 443b 383f 30bc
00000140: d4c6 173d 4155 9f3c 60e2 43bc 78ac 78ba
00000150: 5492 9c3c 9f7d 543e 352d aabc b01a ec3c
00000160: e955 a3bc feb9 343c a433 8e3e 6c3a 09bd
00000170: d00b 3e3d a75e d8bc 5d89 a83e e183 a63e
00000180: cc08 90b9 6045 67bd d6e3 d8bb e2be 8bbc
00000190: fd98 9e3a d469 923e b751 693c 12ea 2f3d
000001a0: 3d4c b13e 8c8c 473e 6e45 5e3e 29da 183d
000001b0: 14b0 95bb 9296 713b 412b bcbc c56d d73c
000001c0: 5eea 873b d8d8 a43c 7b00 17bd d06f 833c
000001d0: 4f14 ab3c 0857 e73c b0cd 653c 8413 31bc
000001e0: 22ed c7ba 9fc0 e43c 1c11 173e 0013 c9bc
000001f0: 1d7c b83c f144 973e 8670 803c 32e9 043d
00000200: eb2a e03b 2eb4 0bbd f845 923c b133 a8bc
00000210: df9f b4bc 2fc3 5cbc 6619 59bd c02d f13b
00000220: 9809 2239 5983 073c 1ead 9c3e 4da4 7a3e
00000230: fcb4 2d3c 9b58 753e ed5e a8bc be3c 123c
00000240: 464c 40bb b82b cc3b 1c78 15bd 8659 02bb
00000250: d1ea a4bc dc5f be3c 60fd 3d3c c112 3a3c
00000260: dce7 6dbd b78a b43c c770 a03c a817 9e3e
00000270: 1cb9 433e dfd3 eabc e35c c3bc fe65 1bbd
00000280: 440d 0e3d 3fa7 953e 123a 37bc e187 a33e
00000290: fb1d b1bb f19a 88bc 98bb 0bbc 524a 2ebc
000002a0: 9378 0abb 634f 983e ce92 c33c d349 91bc
000002b0: e9cf 38bc 66eb 853e 7893 04bd 506b 223c
000002c0: b9a5 c83d 9b8a 603c 6a8f 17bb 7135 833e
000002d0: f5c6 503a 89dd 8b3b 36f5 9e3e 2ca6 31bd
000002e0: 1c27 873e 197d de3d 54bc 7e3d ea84 53bd
000002f0: 47e4 8e3e 0645 f63a 8285 293d 220e 6e3e
00000300: 02ff 7f3d 29d4 773c f588 14bd 82bc d7bc
00000310: d2e1 f1bc 6234 d0bb 8f25 ae3c 79d1 26bc
00000320: 1d7e 623c 7d41 6d3e 6cce 933e 74bc bbbc
00000330: 5d00 063d f626 413e 941f 2a3c 075b bebb
00000340: 0739 e83b 7321 843e 0219 8ebc fc5b 1c3d
00000350: e5f6 993e cc25 9239 a2fb 35bd 105a a0bc
00000360: 0a69 013d b967 943c f935 173d 3c07 02bd
00000370: 66e0 9d3b 4239 1ebd 51a1 7c3e 46af 11bd
00000380: 22f2 94bc c8f2 773d ebd5 c1bb fbf6 443e
00000390: fc43 8abc 50b3 b5bc aabf 9d3e 52d2 8a3e
000003a0: e0e3 153d b07a 373d e0fa e4bc d77f 613e
000003b0: 793c 8cbd 01eb ac3e 6df1 ab3e be4f 9b3b
000003c0: 1e9f b5bc 38f6 913e 66f5 973b e5c3 f03c
000003d0: f4d2 163c 9b53 dbbc 50c7 bb3c 8bd0 9a3c
000003e0: 3620 d1bc 8540 af3c 8ccc 01bb 9d9e 08bd
000003f0: c52b 0fbd fa96 703e 49a1 883e 623d b93c
