models/critic4000.pth (torch, 144783 bytes, 5 tensors)

network.0.weight f4 [128, 18]
000000 6b 20 dd bc d9 93 eb bd 85 8e 37 be 3b 42 70 bc
       -0.026992997 -0.11502809 -0.1792546 -0.014664228
000010 d6 74 a6 3e aa 08 62 3d e8 0f c0 3d f8 64 f9 bc
       0.32511014 0.055184044 0.09378034 -0.030443653
000020 47 da 39 3e de 84 99 3e 91 52 2a 3e ad a1 1f be
       0.18149672 0.29984182 0.16633059 -0.15589018
000030 54 93 3e be 95 80 be ba 26 3f 11 bc df d7 f4 bc
       -0.18610889 -0.001453417 -0.008865153 -0.029888092
000040 95 c4 92 3e d6 d4 9c 3d 61 0a 02 be 7c 44 5c 3e
       0.28665605 0.07657783 -0.12699272 0.215105
000050 0a d8 70 3c bc e7 4a 3e 85 26 4a 3e ef 64 1a 3d
       0.014699945 0.19814962 0.19741257 0.037693914
000060 a4 d3 dd bd a0 88 8e be e6 ed 4c 3e 74 2b 2a 3d
       -0.10831383 -0.27838612 0.20012626 0.041545346
000070 9f 0e bb 3d 13 30 7d be 48 50 9e bd ee 7d a7 be
       0.09133648 -0.2472537 -0.07730156 -0.32713264
000080 7c 6a b0 bd 4c bc c6 3d bc a3 ca be d5 90 4a 3e
       -0.0861406 0.097038835 -0.39578044 0.19781812
000090 da 6e e8 3d 09 9d c6 3c f6 90 61 3e 74 1f 27 be
       0.11349268 0.024244802 0.22027954 -0.16320592
0000a0 5d 95 f2 3d 76 0a e0 bd 1d 44 8d bd 39 8d a8 3e
       0.11844895 -0.10939495 -0.06897757 0.32920244
0000b0 5a b3 18 be 93 5b d2 3d a2 ab ff 3d 1c c7 35 3d
       -0.14912167 0.10271373 0.12483908 0.04437934
0000c0 92 26 25 ba b7 0b 36 3e a1 0e d3 bd 16 c2 1c be
       -0.0006299998 0.17777906 -0.103055246 -0.15308413
0000d0 88 48 9f 3d 87 e9 b0 3c 77 5e ce 3d c5 1a 8d bd
       0.07777506 0.02159573 0.100766115 -0.068898715
0000e0 b3 25 f9 bd d6 49 b5 be e4 e7 cb bd 68 a7 57 3e
       -0.12165394 -0.35407895 -0.09956339 0.21059954
0000f0 0e 7d 07 3c 9f da c7 bd b1 43 7c 3e f9 c6 8e 3d
       0.008269561 -0.097584955 0.24635197 0.06971545
000100 a8 36 01 3d 60 e7 b5 bd 15 26 de be d7 23 7b bd
       0.031546265 -0.08882022 -0.4338843 -0.061313476
000110 29 a4 83 3c 42 fc ef bd 2e a3 d6 3d 4c 65 b7 be
       0.016069489 -0.11718036 0.10480343 -0.3581947
000120 6b e2 46 3d 3f 2d 37 be d1 e0 04 3e 06 a7 9f be
       0.048555773 -0.17888354 0.12976386 -0.31182116
000130 ca 56 0d be 20 1e 6d 3e 54 48 80 be 36 39 1b be
       -0.13802639 0.23156023 -0.25055182 -0.15158543
000140 d3 fc 6e 3e 10 dc 26 3d 6a bc a3 be 01 f1 85 3e
       0.23338632 0.04073721 -0.31979686 0.26160434
000150 07 bf df be 93 94 14 be 98 07 a2 3e 28 d7 c1 3d
       -0.4370043 -0.14509802 0.3164642 0.09464866
000160 4b 7a 75 3e f1 1d 7e be f1 ed 67 3d 12 2f 24 be
       0.23972432 -0.24816109 0.056623403 -0.16033581
000170 89 92 80 bc 3b 40 59 be 35 10 86 3d 92 cb 77 3e
       -0.015694873 -0.21215908 0.0654606 0.2419875
000180 3b a5 01 be e3 bc 0b be e9 e1 63 3e a4 b9 81 3d
       -0.12660687 -0.13646273 0.22254147 0.06334236
000190 49 c0 b4 be 30 94 10 3d 99 3a e5 be cb ba 42 be
       -0.35302952 0.035297573 -0.4477127 -0.19016568
0001a0 0f 9a 0e 3d da 57 40 be 07 4a a8 3d eb 90 f8 3d
       0.03481489 -0.18783513 0.082172446 0.12137016
0001b0 47 ea 72 3d 6a 6b 44 3d 5d 01 e3 3d 6a ad 34 be
       0.059305456 0.047954 0.110842444 -0.17644277
0001c0 23 fe 97 bd 80 1c 22 3e 61 22 ba 3d 65 4d 59 be
       -0.074215196 0.15831184 0.090885885 -0.2122093
0001d0 7e 1c 3f 3e d8 03 07 3d bf 99 66 bd f4 b6 6f be
       0.18663213 0.03296265 -0.056298967 -0.23409635
0001e0 63 3f 69 be e9 15 9c be 1d 0b ab bd 04 4d 02 3d
       -0.22778086 -0.30485466 -0.08351729 0.03181173
0001f0 84 38 67 3e f9 36 e8 3d 12 c3 c2 3d f0 26 64 bd
       0.22580153 0.1133861 0.09509863 -0.055701196
000200 5e ad aa 3d fb b8 73 be e2 2a 40 be 51 11 f3 bd
       0.083338484 -0.23801033 -0.18766358 -0.11868537
000210 03 fc b3 3d b3 f7 7a be 9d d8 8d be f0 6a 1f be
       0.08788302 -0.24508552 -0.27704325 -0.15568137
000220 c1 b3 53 3e b7 58 39 be 9f 46 e4 bd 70 7e 02 3c
       0.2067404 -0.18100248 -0.111462824 0.007964715
000230 4f 6c d9 bd 1c c2 dd bd 49 bd a0 3e 9f 81 11 3e
       -0.10616361 -0.10828039 0.31394413 0.14209603
000240 0a bb 38 bd 0f 74 27 3d 78 5c d1 bd 36 87 6b 3e
       -0.04510025 0.040882166 -0.10222715 0.23000798
000250 e2 a8 51 3e 7e 6b 67 3d 1b 8b 29 bc 55 d0 50 be
       0.2047458 0.056498997 -0.010348107 -0.20391972
000260 11 64 78 3e 93 73 9f bb 75 85 45 3d 6c fb 80 be
       0.24256922 -0.0048660724 0.048222978 -0.2519182
000270 74 f1 35 3e 1d c7 c4 be ca 60 5e 3e 2c eb ee 3d
       0.17767888 -0.3843316 0.2171661 0.11665949
000280 f2 48 e1 bc 53 52 2b 3e 96 66 2b be 78 57 01 be
       -0.027500603 0.16730623 -0.16738352 -0.12631023
000290 5b 9d 1c 3e b8 42 09 be 20 15 72 be 69 ed 11 3e
       0.15294401 -0.13404357 -0.23640871 0.14250721
0002a0 ed 7a 2c be 65 c9 2b 3e fa 6f ea bd 99 30 64 be
       -0.16843767 0.16776045 -0.11447139 -0.22284164
0002b0 7f 1d a0 3e 5b 48 96 bd 06 40 59 bd 9f 2c 2e be
       0.31272504 -0.073380195 -0.053039573 -0.17009209
0002c0 eb e6 df bd d3 24 5a 3e 93 c3 d5 bd 3c dd df bd
       -0.10932716 0.2130311 -0.104376934 -0.10930869
0002d0 00 9b 86 bd e0 15 6a 3e 6a 14 d6 3d 44 a0 5f 3e
       -0.06572533 0.22859907 0.104531124 0.2183848
0002e0 9d 4c c0 bd 1f 43 56 be fe 8f 4f 3d eb 71 b9 bd
       -0.09389613 -0.20924042 0.05067443 -0.09054931
0002f0 1d 18 55 3d db a0 c3 3d 43 44 4c bd e7 f7 1e 3e
       0.05202495 0.09552165 -0.049869787 0.15524255
000300 fd fe c1 bd de 31 b9 be 10 29 db be 6c 6c c2 3c
       -0.09472463 -0.36170858 -0.42804766 0.02373334
000310 f9 1c 71 3e 0c e4 26 3d 75 39 41 be b4 2f 48 bc
       0.23546208 0.040744826 -0.18869574 -0.012218405
000320 32 0a 09 3e d4 62 a0 3c 74 d1 73 bd 0f 90 8f 3e
       0.13382795 0.019578375 -0.059525922 0.28039595
000330 02 a4 cb be f1 ea 6a be b1 9a 05 3e 68 59 5e 3e
       -0.39773566 -0.22941186 0.13047291 0.21713793
000340 f8 7e 91 be 51 19 86 3d fb 29 b4 be 99 d7 bd be
       -0.28417182 0.065477975 -0.3518828 -0.3707855
000350 df cd 98 3e aa a0 81 3e e5 4d dc bd b7 b5 f2 bd
       0.29844567 0.2531789 -0.10757045 -0.118510656
000360 c7 e6 e1 bd e5 6f d4 3c 0c 63 96 3d 2a 57 7d bc
       -0.110303454 0.025932262 0.073431104 -0.015462676
000370 d3 7e f2 3d 1a 26 35 3e 14 4a e4 bd 36 b0 61 bd
       0.11840596 0.17690316 -0.11146942 -0.05509969
000380 6e 1c 2f bd 35 44 4b 3e 4a 8e 83 bb 92 c5 88 3e
       -0.042751722 0.19850238 -0.004014765 0.26713234
000390 f3 d5 82 be 59 99 5d 3e ca 1d 81 3e e6 19 ee bd
       -0.25553855 0.21640529 0.2521804 -0.116260335
0003a0 cd 2b 01 3e 79 46 96 bd fb db bf bd 67 fe aa bd
       0.12614365 -0.0733766 -0.0936813 -0.08349305
0003b0 bd f8 c9 bd 89 8d 36 3e 53 65 2e be ed 3b 30 3e
       -0.09861896 0.17827429 -0.1703084 0.1721036
0003c0 a5 b6 17 3e 1f 56 07 3e 5e d2 26 3d bf df 8f be
       0.14815767 0.13216446 0.040727966 -0.28100392
0003d0 ef 29 95 3d 99 05 c3 3d d4 32 3d 3e 5b 52 63 be
       0.07283389 0.09522552 0.1847642 -0.22199385
0003e0 be c6 80 3e 58 6e af 3c e6 54 05 be 78 58 56 3e
       0.25151628 0.02141492 -0.13020667 0.20932186
0003f0 67 3d a8 bb b9 45 11 be 7c 8c aa bd f3 f3 89 3d
       -0.005134273 -0.14186753 -0.083275765 0.06735983

network.0.bias f4 [128]
000000 f6 6e 4e bd 41 80 b3 bc 22 e8 00 be 9c ed 3e 3e
       -0.05039879 -0.021911742 -0.12588552 0.18645328
000010 15 6a de bb 3e c1 86 3e 2a 96 c8 3d 9f de bf 3d
       -0.0067875483 0.26319307 0.097942665 0.093686335
000020 64 f0 45 3e c3 55 12 be eb 9e 15 3d bc 21 56 3d
       0.19329983 -0.14290528 0.03652851 0.052278265
000030 ba 70 83 3d 93 d6 ab 3d 07 11 1f be 61 61 0c 3e
       0.06417985 0.08390536 -0.15533839 0.13709022
000040 ce a6 06 3e c9 c3 02 be 2d f5 31 be e1 fd f6 bd
       0.13149568 -0.12769999 -0.17378683 -0.12060142
000050 41 ee 1f be cf 0e f4 3c 69 a5 aa 3c ef fa 44 3e
       -0.1561823 0.029792218 0.020830827 0.19236349
000060 a1 09 8a bd 75 d6 31 bd 0d 0a af 3c d5 97 22 be
       -0.06740118 -0.043417413 0.021367097 -0.15878232
000070 38 a4 48 be af 66 f3 bd 52 2a c4 3d 87 4a 7d be
       -0.19593894 -0.1188482 0.095783845 -0.24735461
000080 d2 cc 3f 3e 5a 77 69 bd 29 38 25 3e 9a 1c 06 3d
       0.18730476 -0.05699859 0.16134705 0.03274212
000090 54 40 3a 3d 77 2d 09 3e 51 95 23 3e ed c2 38 be
       0.045471504 0.1339625 0.15974928 -0.18043108
0000a0 31 40 f0 bd 67 74 ef bd 5a e2 2e 3e 53 ea 1c be
       -0.117309935 -0.11692124 0.17078534 -0.15323763
0000b0 4d f4 dd 3d f8 be 5e 3e 64 0d 64 3d cd a1 22 3d
       0.10837612 0.21752536 0.055676833 0.039705086
0000c0 10 96 67 be e6 c1 d8 bd 64 2d 0c 3e 62 b8 28 3e
       -0.22615838 -0.10583858 0.1368919 0.16476586
0000d0 83 51 12 bd 78 01 15 3b a0 0c eb 3c 66 20 52 3c
       -0.035722267 0.002273647 0.028692544 0.012825107
0000e0 ae bd 60 be 54 78 06 bd 0f 4f 69 3d 5d 15 b8 3c
       -0.21947357 -0.032829598 0.05696016 0.022471124
0000f0 20 9a 14 3e d7 0c 3f bd 9f d5 e9 bb da 89 ea bd
       0.14511919 -0.046643104 -0.0071360613 -0.11452074
000100 4a 8e b7 bd b6 4f 35 3d 8c 1a 35 be dd 68 5c 3c
       -0.08962686 0.04426547 -0.17685908 0.013452736
000110 b5 fd 04 3e 4e a8 9f 3c 71 08 00 3e bc bf 10 3e
       0.12987407 0.019489434 0.1250322 0.14135641
000120 9e 40 1a bd 6c 43 90 3d d4 0a ef 3d 15 82 f1 3b
       -0.03765928 0.0704411 0.11671987 0.0073702433
000130 1a ae 63 3e 84 d0 3b bd d9 14 a4 bd 8a 4c 49 bd
       0.22234383 -0.045853153 -0.08011789 -0.04914526
000140 0d 5a 4d 3e d0 8f c3 3d bc 01 da bd b7 b2 39 3e
       0.20053883 0.095489144 -0.10644862 0.1813458
000150 27 60 59 be cd 60 9b bd 9f 68 22 be 5e de 63 be
       -0.21228085 -0.07586823 -0.15860222 -0.22252795
000160 49 d4 03 3e f9 42 4d be 87 4e 81 3e 4c de 1d be
       0.12873949 -0.2004508 0.25255224 -0.15416831
000170 d7 e4 85 bd e4 71 1d 3d c2 d3 f7 bd 46 7a bc ba
       -0.06537788 0.038438693 -0.121009365 -0.0014379702
000180 af 14 87 bd 5e c9 61 be 21 04 89 3c 3f 2a c6 bd
       -0.06595742 -0.22049472 0.016725602 -0.096760266
000190 f0 e5 01 bd 1e c7 27 be ec 7d d8 bd 0a 06 d8 bd
       -0.031713426 -0.16384551 -0.10570893 -0.10548027
0001a0 87 77 bb 3d 08 42 8f bd 89 18 0f be 9d ed 22 be
       0.091536574 -0.06995016 -0.13974203 -0.15910955
0001b0 08 f9 70 3b bd 59 45 3e fc 33 34 3d 3f 19 07 3e
       0.0036769528 0.19272514 0.04399489 0.13193224
0001c0 87 8f 8e be 1f 81 12 3e 9c 01 3d 3e d0 e3 f6 3c
       -0.27843878 0.14307068 0.18457645 0.030137926
0001d0 64 f8 4c 3e 7c 29 b8 bd 40 9c c6 bd ad 84 e9 bc
       0.20016629 -0.089922875 -0.09697771 -0.028505648
0001e0 0c 9e f0 bd 31 5d 0d be 9c 0e 73 3e a7 e7 54 3e
       -0.11748895 -0.13805081 0.23736042 0.20791493
0001f0 a3 4a bf bd 14 0f 88 bc 6b 70 18 3c d2 2d 42 be
       -0.09340408 -0.016608752 0.009304146 -0.18962792

network.2.weight f4 [256, 128]
000000 58 c9 5d 3e 63 b2 dc 3d f2 5c 2b be 4b db 1b 3e
       0.21658838 0.10776212 -0.16734675 0.15220372
000010 0d b1 60 3e 77 d6 29 3d c8 92 21 3d c2 87 d7 3d
       0.2194254 0.041464295 0.039446622 0.105239406
000020 c7 4a d0 3d 54 a1 37 be 59 1c d2 3d a3 80 73 3e
       0.10170513 -0.17932636 0.10259313 0.2377954
000030 58 04 f1 bb 5d 39 02 3e f4 0e 8f 3d 26 0b 91 3d
       -0.007355254 0.12717195 0.06985274 0.070822045
000040 00 8d d0 3e 9f 2d 05 3d 85 08 b0 bd ec f5 93 bd
       0.40732574 0.03251421 -0.08595375 -0.0722464
000050 f0 60 6c bd dd 55 bd 3d 37 cd 9c be 4d 8c 2c be
       -0.057709634 0.09244893 -0.30625317 -0.16850396
000060 72 b6 a7 3e 69 de a5 3d d3 fb ca 3b 91 97 58 3e
       0.32756382 0.08099062 0.0061945706 0.21151568
000070 0f 2c 1c be b1 48 02 be c5 af 1d 3d da 72 73 3d
       -0.15251182 -0.12723042 0.038497705 0.059435703
000080 0c 7f 54 3d 56 77 1f 3d 81 b1 dc 3c da 57 4b bd
       0.051878974 0.038932167 0.02694011 -0.04964433
000090 84 03 16 3e 11 83 c5 3d a5 c6 8a 3d 4a 90 45 3d
       0.14649779 0.096441396 0.0677617 0.048233308
0000a0 e4 a2 97 be f8 67 b9 bb ea 40 a0 bc bd 6d 1b 3d
       -0.29616463 -0.005658146 -0.019562203 0.03794645
0000b0 13 47 62 3e 2a d3 1e 3d 6e 47 30 3e 05 e5 68 bd
       0.22097425 0.0387756 0.17214748 -0.056859035
0000c0 8e f4 e0 be 38 82 17 3e 35 c2 cf bc b5 22 ac bc
       -0.4393658 0.14795768 -0.02536116 -0.021012643
0000d0 79 e2 12 bd f8 84 74 bb 3c 56 33 3e 7f da 27 be
       -0.035860512 -0.00373107 0.17513365 -0.16391943
0000e0 a6 32 70 3d 04 73 72 3e 97 68 33 3e da 84 b4 3e
       0.058642052 0.23676687 0.17520367 0.35257608
0000f0 b4 0e d4 3e 1b 7d 62 bd f8 3b 66 be 3c f3 02 be
       0.41417468 -0.05529509 -0.22483814 -0.12788099
000100 7b 95 6f 3e 18 be 9d 3b 43 a9 af 3d d2 f5 d6 3d
       0.23396866 0.0048139207 0.08577206 0.10496105
000110 0d 88 22 3e 50 f5 f7 3e b7 1f 45 be d7 22 ed bc
       0.15872212 0.48429346 -0.1925038 -0.028947277
000120 bc d9 f4 3c e2 90 cd bc b0 59 93 3a e0 70 81 bd
       0.02988898 -0.0250935 0.0011241939 -0.06320357
000130 56 9b 00 3e 96 25 24 3e 81 4f ce 3c 4f 82 b1 be
       0.12559256 0.16029963 0.025184395 -0.3466973
000140 ef 23 b3 3d 81 af 6f 3c 60 10 48 3e c8 a7 e2 3d
       0.08747088 0.014629246 0.19537497 0.11067158
000150 cf be a5 bc 2b c9 a0 be b1 48 02 3e 12 a0 ba be
       -0.020232586 -0.3140348 0.12723042 -0.3645025
000160 4b a9 ee 3d 8a 3b 67 be a4 47 96 3e d2 4f 16 3d
       0.11653384 -0.22581306 0.29351532 0.036697216
000170 3a 19 bf bc d3 d9 f6 3d 21 35 9b be c3 d0 79 3e
       -0.023327459 0.120532654 -0.30313972 0.24396043
000180 2d 8f 52 3c 1e b7 b4 3d 07 ae 50 3e 38 c4 2d 3d
       0.012851519 0.08823989 0.20378886 0.042423457
000190 ef 6a 64 3d 6a 17 50 3e 83 db 5d 3d f5 7f 4b 3e
       0.055766042 0.20321432 0.05416442 0.1987303
0001a0 14 ed d1 bd 94 3a 3d 3e cb e4 e9 bd 9a 0d 2a bd
       -0.10250297 0.18479377 -0.11420592 -0.041516878
0001b0 56 b3 93 3c 02 8d 7b bd e1 c5 18 be 14 4d 6f 3d
       0.01802985 -0.061413772 -0.14919235 0.058423117
0001c0 0c 81 dc bd 4c fa ae 3c 8c df 61 bd af 8d 59 be
       -0.10766801 0.021359585 -0.05514483 -0.21245454
0001d0 94 be c9 3d d7 8f 85 be 9f 0e 3e 3e a1 32 40 3d
       0.09850803 -0.26086304 0.18560265 0.046923283
0001e0 cd 49 04 3e 86 9a b3 bd 6c d1 48 bd b5 e4 0c 3e
       0.12918778 -0.087697074 -0.049027845 0.1375912
0001f0 14 1c 8d 3d ab be fd 3b 7c 52 1e 3e 40 60 fc be
       0.06890121 0.0077436767 0.15461153 -0.49292183
000200 da d4 a1 bd b7 d5 88 3b 31 a3 6f bc 6b f9 c8 bd
       -0.07901926 0.0041758674 -0.01462631 -0.09813198
000210 b1 83 d2 bc 2f 96 04 39 3e b1 98 bd 9f 00 a9 3d
       -0.025697561 0.00012644449 -0.07455681 0.082520716
000220 bd ab 38 3d 29 36 95 3d 2d c5 4c bc 94 97 6e 3d
       0.045085657 0.07285721 -0.012498182 0.058250025
000230 e6 c5 f3 3c 58 32 b0 bd 06 02 1b bd 16 1d d4 bc
       0.029757451 -0.08603352 -0.037843727 -0.025892776
000240 c6 78 ae 3d 09 c0 17 3d f1 7b f0 bc fb 57 00 3d
       0.085191295 0.037048373 -0.029355975 0.031333905
000250 e3 2e 01 bd d9 5f ba 3c 1b 47 b1 bc 3e 80 e9 3c
       -0.031538855 0.022750782 -0.021640351 0.028503533
000260 e5 fe b1 3d 33 f0 af bc 66 24 2a bd c8 9a 04 39
       0.086911954 -0.02147684 -0.04153862 0.00012646161
000270 82 d1 53 3c d4 7d aa bd 6c 98 be bd 91 f9 9c 3d
       0.0129283685 -0.08324781 -0.09306416 0.076647885
000280 d5 5f 18 bd 36 a9 e0 3c 1d 33 cc bc e5 dd b0 bd
       -0.037200768 0.027424436 -0.024926716 -0.08636073
000290 62 4e a4 3d 9d d2 a6 bd 1c ae b6 bc d3 01 96 3d
       0.08022763 -0.0814564 -0.022299819 0.07324567
0002a0 e3 9c 2f bb d9 92 22 3c f9 e3 58 bd 5e da 90 3b
       -0.0026796393 0.0099227065 -0.052951787 0.0044205626
0002b0 10 42 ae bc c2 bb 70 3d 3b fb de 3c 0e 30 64 3d
       -0.021271735 0.05877281 0.027219405 0.05570989
0002c0 4b 2f be bd c7 09 99 bc f4 94 a6 bc e0 36 22 3c
       -0.09286364 -0.01868142 -0.020334698 0.0099007785
0002d0 e4 24 83 bd 4e 75 19 bd 92 fd 76 3c 84 e6 8e 3d
       -0.06403521 -0.037465386 0.015075104 0.06977561
0002e0 bb 21 29 3d 7f 53 11 bd 41 27 40 3c 04 f6 89 3c
       0.041291934 -0.03548002 0.011728109 0.016840942
0002f0 35 6f 84 3b c9 1b af 3c eb c5 25 bd 58 a9 9d 3c
       0.004041577 0.021375554 -0.040471952 0.019245788
000300 1b d7 ac bd 6a ac 1c bd 2c 21 6f bd c4 aa 38 bd
       -0.084394656 -0.038250364 -0.058381245 -0.04508473
000310 88 1e 1a bb 65 3b 93 bd 5b 4b 72 3c de 9e 77 bd
       -0.0023516733 -0.07189063 0.014788474 -0.060454242
000320 5e c0 5d bd 38 9e 9f 3c 5f 49 7f 3d 35 fe 88 bc
       -0.054138534 0.019484624 0.06232583 -0.016722778
000330 03 ee 27 bd af 34 2f 3d 4c e4 35 3d d2 4c 20 bd
       -0.04099847 0.042774852 0.044407174 -0.03913576
000340 f7 88 87 bd 13 ae 31 3d 28 5d 8f bd e0 ba 96 bd
       -0.06617921 0.0433789 -0.0700019 -0.07359862
000350 c5 81 b0 bd 6c a8 6d 3d 38 7f 12 bc f9 ad 84 bd
       -0.086185016 0.058021948 -0.008941464 -0.06478495
000360 69 4f 80 3d 8c ce 30 bd 26 8f 76 bb 14 de 45 bc
       0.06265146 -0.04316573 -0.0037621944 -0.012076873
000370 4a 3a e8 3c ad be a8 bd 2c 24 9c bc f9 7c 7a bc
       0.028348107 -0.082394935 -0.019060217 -0.015288585
000380 b5 51 b6 bd 28 aa 83 bd 8c 16 89 bc 57 a1 57 bd
       -0.08902303 -0.06428939 -0.016734384 -0.0526441
000390 41 cc 59 3c 60 1e 8a 3d dc 15 b4 bc 1f 86 1e bd
       0.013293327 0.06744075 -0.02198308 -0.038702127
0003a0 a7 43 57 bd 6d 7b 84 bc 6e 51 6b bd 2c 87 0f 3d
       -0.052554753 -0.016172135 -0.057450704 0.03504102
0003b0 95 ef 95 bd 42 75 ab bd 69 4b 2f 3d 6a a1 90 bd
       -0.07321087 -0.083719745 0.042796526 -0.07062037
0003c0 26 17 ac bc 95 d9 d2 3c 75 ab 86 bc ec e4 27 3c
       -0.021007132 0.025738517 -0.016439179 0.01024745
0003d0 0c 03 4e 3d 3f 5e d2 3c dd 32 a9 3c 0d 1e 55 3d
       0.050295874 0.025679706 0.020654136 0.05203061
0003e0 67 9b 56 bd 0f d8 e9 3c 60 7a 5c 3d b3 1f 80 bd
       -0.052394297 0.028545408 0.053827643 -0.06256046
0003f0 e4 de 1f bd f0 0f fa 3c 6d 61 1c bd 9f 8d 51 bd
       -0.039030924 0.030525178 -0.03817885 -0.05116045

network.2.bias f4 [256]
000000 4b 8c 74 3d dd a2 37 bd ec c5 9e 3d d4 56 96 bd
       0.059704106 -0.044833053 0.07752594 -0.0734078
000010 ac b5 8d 3c 2d 56 c6 bc 5d 73 d6 bc bc 33 9f 3d
       0.017298542 -0.024211014 -0.026178056 0.077735394
000020 ad bb b5 bc e9 d1 a7 3d 7b 26 22 bd c7 a4 30 bd
       -0.022184217 0.08194334 -0.03958748 -0.043125894
000030 57 f1 35 3d e9 1f 9f bc 66 74 b9 bb 9b 13 48 3c
       0.044419613 -0.019424396 -0.0056596277 0.012211706
000040 00 07 17 38 0b 12 d3 3c 52 cd 9a bd be b8 8d bc
       3.6007725e-05 0.02576544 -0.07558693 -0.017300006
000050 9d 16 d6 3d c3 cb 07 3e 63 26 d6 3d f2 f9 f9 3d
       0.10453532 0.13261323 0.104565404 0.122058764
000060 09 de 0e 3d 43 1a ec 3c 0b d3 26 bb fc e9 50 bd
       0.034879718 0.028821116 -0.0025455381 -0.051004395
000070 ca 0a 50 bd 58 51 5b bc c5 d8 91 3d a8 eb 85 3d
       -0.05079154 -0.013386093 0.07121424 0.065390885
000080 67 fe c1 3d 2e c3 3f 3d e8 46 35 3d f8 96 23 bd
       0.094723515 0.046816997 0.044257075 -0.039938897
000090 bf 73 81 3d 9a d3 79 bb 77 48 43 3d 54 83 ca bd
       0.06320905 -0.003812051 0.04767653 -0.0988833
0000a0 05 3e 7f 3b 51 91 96 3c b4 8f f3 3d ca c3 ee 3d
       0.0038946879 0.01837984 0.118926436 0.116584376
0000b0 18 a5 e1 bd 15 8e 94 3d d5 21 1f bd ef 02 12 bd
       -0.11017817 0.072536625 -0.038850624 -0.03564733
0000c0 8c cd f0 3c 66 92 b2 3d 5b 9f 1a 3b 02 c2 77 3d
       0.029394887 0.087193295 0.0023593518 0.060487755
0000d0 2b 18 a5 3b 03 94 62 bd 17 50 66 3d e2 fa 47 bd
       0.0050382814 -0.055316936 0.056228723 -0.048823245
0000e0 02 e0 89 bb cd 89 62 3d 20 18 ce 3d c2 91 0f bd
       -0.004207612 0.0553072 0.10063195 -0.035051115
0000f0 7e 35 5a 3d b4 87 3c 3d 54 14 cd 3d 13 02 4d 3d
       0.05327367 0.046027854 0.10013643 0.050050806
000100 4e 7c aa bd 1c 50 c6 bc 92 81 b4 bc 32 1c ee 3d
       -0.083244905 -0.024208121 -0.02203444 0.116264716
000110 c6 7a a8 3d 37 94 f2 bc a2 0f 11 3d 1a f3 9a ba
       0.08226542 -0.02961169 0.0354153 -0.0011821717
000120 3d 01 b6 3d 11 98 0e 3b 27 76 8f bc cb fe d9 3d
       0.08886955 0.002175812 -0.017512394 0.10644301
000130 82 7e 05 3e 19 43 eb 3c 15 68 10 3d da b8 4b bd
       0.1303654 0.028718518 0.03525551 -0.049736835
000140 dc 99 1a bc 6c 7a 9d 3c 74 77 6a 3c 47 e4 cb 3d
       -0.009436097 0.019223414 0.014310706 0.0995565
000150 8a de 59 3d 25 dc 7d 3c 4f 4f 90 3d 6b 57 09 bd
       0.053190745 0.015494381 0.07046377 -0.033530634
000160 12 6d 45 3d 51 97 a3 3d 30 5b b7 3d fd fe 83 3d
       0.04819972 0.07987846 0.089529395 0.064451195
000170 42 7c 81 bd 8e 27 0a bd ce 9b 20 ba b8 e3 28 3d
       -0.063225284 -0.03372913 -0.00061267323 0.041232795
000180 79 64 8c 3d cb 4b ab 3d f2 54 9d 3d 9b 35 40 bb
       0.06855101 0.08364066 0.07682218 -0.0029328826
000190 28 80 37 3d 2e 2c 80 3d b0 bb c5 bb 60 e0 74 3d
       0.044799954 0.062584266 -0.006034337 0.059784293
0001a0 de 1a f3 3c ac 0c 39 bd aa a8 14 3c bc 31 8a ba
       0.029675897 -0.0451781 0.009073416 -0.0010543386
0001b0 a5 27 d8 3b 00 16 88 bd 77 cd a0 3d 4d 67 1f 3d
       0.006596523 -0.06644821 0.07851689 0.038916875
0001c0 f5 f1 6a 3d 14 17 92 bd 70 94 cf 3c e3 b1 1c 3c
       0.057359654 -0.07133308 0.025339335 0.009563896
0001d0 b5 88 dd bc 3c 1c b9 3d b7 48 b5 3b b6 dc a6 bb
       -0.027042726 0.090385884 0.00553235 -0.0050922288
0001e0 6e d8 24 3d b5 d3 fe bc e1 43 95 3d e3 00 38 bd
       0.040245466 -0.03110681 0.072883375 -0.04492272
0001f0 e7 a8 e6 3d 6c cb 4b 3c 10 c6 24 bd fc 5b 9d 3d
       0.11262684 0.012438636 -0.04022795 0.0768356
000200 58 20 a8 3d fc 7c cf 3d 3a 8c fe 3c 5e 5a 13 bd
       0.08209294 0.10131261 0.031072725 -0.035974853
000210 60 da 92 3d 6f 9f 84 bc 9b f9 1c bc 8e aa bb bd
       0.07170558 -0.016189305 -0.009580995 -0.0916339
000220 82 e4 a3 bc 35 50 91 3d a1 a0 86 bc 8e 25 8c bc
       -0.020006422 0.070953764 -0.016434016 -0.017107751
000230 76 a9 8b 3d c1 21 43 bc a7 81 cf 3d 29 a5 38 3d
       0.068194315 -0.011909903 0.10132151 0.045079384
000240 fe cf 8a 3d 82 bf 30 3b da 51 24 bd 57 b9 62 3d
       0.067779526 0.0026969616 -0.040117122 0.055352535
000250 e1 00 cf 3d 1d 29 d6 3b b3 c1 b3 3d 08 1e 4e bd
       0.101075895 0.006535663 0.087771796 -0.05032161
000260 f6 78 e4 bb ee 63 a8 3d df 97 9b bd 10 4c 6b bc
       -0.0069724275 0.08222185 -0.075973265 -0.014361396
000270 de 1c 88 3d 24 c5 ec 3d e7 1b a1 3d cd ee 42 bc
       0.06646131 0.11561039 0.0786665 -0.011897755
000280 cb 01 b5 3d eb 95 68 bc 72 7f 80 bd ef b6 f5 3c
       0.088382326 -0.0141958995 -0.06274308 0.029994456
000290 0f e3 db 3c 68 db 8b 3c 92 d6 7c bd 2d e8 23 3d
       0.026841668 0.017072394 -0.061728068 0.040016342
0002a0 f7 4a 8d bd 55 ab 6a bd f4 35 93 3d 40 05 8c bd
       -0.06899064 -0.0572923 0.07188025 -0.06836939
0002b0 66 1b 08 bd fa df 61 3d 83 56 29 3d 2e 42 e8 3d
       -0.033229254 0.05514524 0.04134227 0.11340748
0002c0 71 1a 97 bc a8 c3 c1 bc 77 0b 7c bc e1 67 af 3d
       -0.018445225 -0.023652866 -0.015383593 0.08564735
0002d0 e7 3e ab bd b0 59 b8 bc c6 7f 02 3c 80 9f 25 bd
       -0.08361607 -0.022503704 0.007965034 -0.040435314
0002e0 ea 99 c8 bd 13 fa 1f 3d 65 3e 99 bd f6 f2 8c 3d
       -0.09794982 0.03905685 -0.07482604 0.068822786
0002f0 d8 04 65 bc 03 03 fa 3a 1c 76 f3 bc 71 d6 69 3c
       -0.013978206 0.0019074384 -0.029719405 0.014272318
000300 6c 60 c7 3d 80 dd 80 3d eb 56 17 3d 81 45 c9 bd
       0.09735188 0.06292248 0.036948126 -0.0982771
000310 0a 23 9f 3d 0b 26 8d bd 98 fd cb bc cf 42 a8 3d
       0.07770355 -0.06892022 -0.024901196 0.08215868
000320 58 78 ce 3c 31 62 d5 bc 33 36 94 3c 55 b2 a0 3d
       0.025203869 -0.026047798 0.01809225 0.07846514
000330 9f a6 b6 3c 9d 3e 4b bd cd 5b 8a 3d ec 09 c0 bc
       0.022296248 -0.04962026 0.06755791 -0.023442231
000340 8a 2b 8e 3c b3 ce 9f 3d 5e 2d 4d bd df 45 0c 3d
       0.017354745 0.078030966 -0.050092094 0.03424632
000350 d3 d5 8e bd 40 0e 80 3d e5 b9 0f 3d fd af 1b 3d
       -0.069743775 0.06252718 0.035089392 0.038009632
000360 ce 9f cc 3c 81 f8 bc 3d aa 6b 7b bd 2d 5c 12 bd
       0.024978545 0.09227086 -0.061381973 -0.035732437
000370 8b f0 0d bd 72 03 15 bc ed f6 c6 bc 41 5f e1 3d
       -0.034653228 -0.00909506 -0.024287665 0.11004496
000380 77 ba ee bc f1 b6 dd 3c a8 50 4b 3d 38 c5 84 bd
       -0.029141648 0.027064772 0.049637467 -0.06482929
000390 1a 48 cd 3c e1 f2 a3 3c 17 58 88 3c 64 e6 84 bd
       0.025058795 0.020013275 0.016643567 -0.06489256
0003a0 57 f7 85 3d 44 fe d2 3a 41 e8 a6 bd 11 1c 50 bd
       0.06541317 0.0016097506 -0.08149768 -0.050808016
0003b0 68 21 40 3c 0b 0c dc bc ec 02 49 bc ce f5 e6 3d
       0.011726715 -0.026861211 -0.012268763 0.11277352
0003c0 28 3a 7a bc 97 26 c3 3d 1d ce 81 3d 12 9b 85 bc
       -0.015272655 0.09528845 0.06338141 -0.016309295
0003d0 4e f3 3d 3c 10 31 47 bd 17 ec 19 3d 9f e8 47 bd
       0.011593653 -0.048630774 0.03757867 -0.04880583
0003e0 08 48 8e 3d 47 60 80 bc 44 e2 55 3d 6d 53 8d 3d
       0.069473326 -0.015670909 0.052217737 0.06900678
0003f0 40 08 78 3d 53 38 2c 3d a4 67 91 3c 1c e6 da bc
       0.060554743 0.042045902 0.017749615 -0.026721053

network.4.weight f4 [1, 256]
000000 e9 13 7f be 44 b4 30 bc e0 d5 77 3e b2 cf 0e bc
       -0.24909939 -0.010785166 0.2420268 -0.008716511
000010 f6 4f 58 3e a0 96 6e 3e 96 25 49 be 0a 6e 72 3e
       0.21124253 0.23299646 -0.19643244 0.23674789
000020 84 d2 89 3c f2 82 55 3e 97 52 8e be 6a 9f 9d be
       0.016824014 0.20850733 -0.27797386 -0.30785686
000030 73 25 85 3e 42 5e 6b 3e ab d3 5b be 22 ce 73 3e
       0.26005134 0.22985175 -0.21467464 0.23809102
000040 cb ef 6d 3e 32 25 67 be d4 50 68 3c a6 76 5f be
       0.23236005 -0.22572783 0.014179427 -0.21822605
000050 9a 62 80 3e aa b8 99 bd e2 00 81 3e 33 e2 61 3e
       0.25075227 -0.07505925 0.25195986 0.22058944
000060 55 78 6e bd f3 d4 70 be 50 a5 b7 bb 67 5a 7f 3d
       -0.058220226 -0.23518734 -0.0056044236 0.062342074
000070 bf df 86 be 7f 46 17 bc bd af 7b 3e 0a 29 6d be
       -0.2634258 -0.009233116 0.24578758 -0.23160186
000080 79 36 8e 3e 04 41 9c be ea cc 88 3e d6 9e 91 3e
       0.27775934 -0.30518353 0.26718837 0.28441495
000090 2b e8 69 3e 6e 61 8a be 7f c1 70 be db 2c ec 3c
       0.22842471 -0.27027458 -0.23511313 0.028829983
0000a0 a7 e3 1f 3d c6 81 76 3e f9 6f 8b be a2 4e 96 3e
       0.039035466 0.24072942 -0.27233866 0.29356867
0000b0 a6 d9 94 bc 8a 9f 6e 3e 64 60 69 bc 46 23 5e bd
       -0.01817019 0.23303047 -0.014244173 -0.054232858
0000c0 da f4 8e be 80 7e 6c be 94 9a 80 3a 7c e2 8a be
       -0.27921182 -0.23095131 0.0009811693 -0.2712592
0000d0 66 3f 46 bc e5 6d 1c 3d 8b c8 db 3d c9 59 9a 3d
       -0.012100076 0.03819074 0.1073161 0.075366564
0000e0 62 f4 94 3e b4 ae 8a 3e b8 e9 81 3e 9e 63 60 be
       0.290927 0.27086413 0.25373626 -0.21913001
0000f0 b6 e9 78 be b7 39 8b be ce 0e 86 3e c2 da 11 3b
       -0.24307904 -0.2719247 0.2618317 0.0022255634
000100 a7 1e 1e 3c a7 36 7e be f6 2e 7a be 16 98 95 be
       0.009650863 -0.24825536 -0.24431977 -0.29217595
000110 ed ef 67 be cb 8c 8e be 23 0e 8c 3e e8 47 36 3e
       -0.22650118 -0.27841792 0.27354535 0.17800868
000120 31 41 84 3e 20 d7 13 bb 41 61 88 3c cb b5 73 be
       0.25830987 -0.0022558644 0.016647937 -0.23799817
000130 e0 10 64 be 20 ca c2 bc 1a 22 87 3e b5 8a 52 bd
       -0.22272062 -0.023778021 0.26393205 -0.051401813
000140 02 69 80 3e c9 81 8a 3e 97 95 89 be 48 81 87 3e
       0.25080115 0.27052143 -0.2687194 0.2646582
000150 1c 27 10 3c 28 1b 73 be 88 9a d1 be 80 c5 a8 3d
       0.008798387 -0.23740828 -0.4093821 0.08240795
000160 4c 53 85 be 46 5b 69 be 7b 64 7d be 5f a6 88 3e
       -0.26040113 -0.22788724 -0.24745362 0.2668943
000170 a8 06 85 be bc a3 2a 3b e3 66 86 be 92 0d 79 3e
       -0.2598164 0.0026037535 -0.2625037 0.24321583
000180 2f 1c 75 be 8f 8b 7a be 89 d7 82 be f6 62 79 3e
       -0.23936532 -0.244673 -0.25555065 0.24354157
000190 6c 82 95 bc b6 1c 13 bd 7b 81 8d 3c 59 a2 90 3e
       -0.018250667 -0.035916053 0.017273655 0.2824886
0001a0 4a 39 5a be 53 70 73 39 9c 95 8e be 87 0b 03 3d
       -0.21310917 0.0002321613 -0.27848518 0.031993415
0001b0 fb d6 07 3e 54 ca 83 3c 70 c4 90 3e 2f ad 8f be
       0.13265602 0.016087689 0.2827487 -0.28061816
0001c0 9b 6f 0b 3d fb 68 2d bd 75 da 7a be 5f e6 09 bd
       0.034041982 -0.042336445 -0.24497397 -0.033666965
0001d0 83 c9 4f be b4 71 82 3e f3 d5 80 3e 3e eb 3d b9
       -0.20291714 0.25477374 0.2516323 -0.00018112079
0001e0 b2 82 85 bd bd ca ef 3c 46 c1 d0 3d 91 ca 57 3d
       -0.06519069 0.029271478 0.10193114 0.052683417
0001f0 e2 92 79 3e 63 1b 40 bb a9 16 a4 ba 37 f1 78 be
       0.24372438 -0.0029313199 -0.001251896 -0.24310766
000200 a8 c3 8f be 42 7c 82 be 4c 9b 61 bc f0 9f 86 be
       -0.2807896 -0.25485426 -0.013769936 -0.26293898
000210 94 c9 8d 3e e3 82 96 3e dd 16 8b be 1d ba b0 bb
       0.27692854 0.29396734 -0.2716588 -0.00539328
000220 a8 ed ce bc 19 7b a5 bd 84 63 93 3c b3 68 93 be
       -0.025259808 -0.0808012 0.017991789 -0.28790817
000230 6c 2a 6e be b2 43 6a 3e d7 2b a6 bd 49 43 81 be
       -0.2325837 0.22877386 -0.081138305 -0.25246647
000240 b3 35 8c 3e 31 a6 8d be 18 e4 53 be e6 a6 87 be
       0.2738472 -0.27665856 -0.2069248 -0.2649452
000250 ba ad 62 3e 7d f9 57 3e b2 a3 64 be be 94 06 3d
       0.22136584 0.21091266 -0.2232807 0.032856695
000260 0b d4 7a ba 91 01 77 be 36 57 88 3b 53 ab 02 3c
       -0.000956834 -0.24121691 0.004160787 0.007975417
000270 e9 fd 66 3e fc 19 99 3e b2 b7 68 be 38 bd 4e 3e
       0.22557797 0.29902637 -0.22726324 0.20189369
000280 28 f2 d9 be 52 d0 52 3d 19 ca 86 3c 92 9f 62 bc
       -0.42567563 0.0514682 0.01645379 -0.01383199
000290 7f 61 25 3d 21 8c 74 bc 05 86 bd bb 73 df 80 3e
       0.040376183 -0.014925987 -0.0057837986 0.25170478
0002a0 00 a1 6e 3c 44 3d 8e be 9f 21 88 3e 1e d5 49 3b
       0.014564753 -0.27781117 0.2658815 0.0030797194
0002b0 98 70 9b 3c af f1 88 be 5e ed 79 be 17 27 8b be
       0.018974587 -0.2674689 -0.24406955 -0.2717826
0002c0 59 35 64 be 5f ca 93 be 00 74 26 bd d0 b9 63 be
       -0.22285976 -0.28865334 -0.04063797 -0.2223885
0002d0 82 16 53 3d 70 fc 86 3e 90 23 54 be ab 94 79 3e
       0.051535137 0.2636447 -0.20716691 0.24373119
0002e0 96 c7 9e bb ef d4 66 be a3 56 38 bc c4 73 8d 3e
       -0.00484557 -0.22542165 -0.011251125 0.27627385
0002f0 6d e7 44 bc 7e 38 8b 3e 75 d8 dd 3b 36 91 a0 3e
       -0.012018067 0.27191538 0.0067701885 0.31360787
000300 46 c8 6f 3e 0a 37 99 be 10 90 89 be 58 07 a1 b9
       0.23416242 -0.29924804 -0.26867723 -0.00030713785
000310 89 92 83 3e 09 7c 4e bc 4c 71 7a 3e 89 df 85 be
       0.25697735 -0.0126028145 0.24457282 -0.26147106
000320 82 9f 5d 3e f1 b8 9f 3c 8e 6b 69 be 64 1b 54 3e
       0.21642879 0.019497367 -0.22794935 0.20713574
000330 ab 22 8a 3e b8 b3 7c 3c a7 b6 84 be 7e 9f 8d be
       0.26979575 0.015423708 -0.25920603 -0.27660745
000340 68 4b 8c be c7 61 82 be 3c 56 86 be 7d bf 70 be
       -0.2740128 -0.25465223 -0.26237667 -0.23510547
000350 2b f2 fa bb 08 b4 96 be 4a 06 83 be 9b 5c 94 3e
       -0.007658263 -0.29434228 -0.25590736 0.28976902
000360 e3 d7 75 bd 04 dc 3d be 69 06 94 be 4a a4 75 be
       -0.06002034 -0.1854096 -0.2891114 -0.23988453
000370 0e 9c 8b 3c 81 9c a1 be cc 6d 5b 3e 21 52 65 be
       0.017042186 -0.31564716 0.21428603 -0.22394611
000380 ad fd 2b 3c 1c 57 8d 3e 3b 00 83 be d2 82 57 3d
       0.010497493 0.27605522 -0.25586113 0.052614994
000390 a0 90 84 3e c8 79 5e 3e f8 d8 6c be 31 a1 0c bc
       0.2589159 0.21726143 -0.23129642 -0.008583353
0003a0 f3 6c 61 3e 69 57 86 3e b5 c7 da 3c b8 a3 21 bd
       0.22014217 0.26238564 0.026706556 -0.039462775
0003b0 ef 74 8f 3e 96 f5 e0 bb a9 27 61 bd bb d4 60 be
       0.280189 -0.0068652136 -0.054969463 -0.2195615
0003c0 dd 4f 3c bc 16 14 84 be da f4 94 be 88 46 66 be
       -0.01149365 -0.25796574 -0.29093057 -0.22487843
0003d0 9e 43 85 3e 82 a1 7d be af a7 93 3e d9 70 94 be
       0.2602815 -0.24768642 0.2883887 -0.28992346
0003e0 8d ba 84 be 72 84 6f be dc 67 60 3e 46 1b 73 3e
       -0.25923577 -0.23390368 0.21914619 0.23740873
0003f0 ba b3 5d be 7c 50 72 3e 2a 6c 86 be 35 7e 85 be
       -0.21650591 0.23663515 -0.26254398 -0.2607285
